docs/notebooks/paper_experiments/results/unsupervised/iter_15/model_autoencoder_15.pt (torch, 32391 bytes, 13 tensors)

mean f4 [2]
000000 2e b0 a9 be a6 32 70 3f
       -0.33142227 0.93827283

range f4 [2]
000000 6e 46 25 3f 1a b0 0b 3f
       0.6456059 0.54565585

weight f4 [20, 2]
000000 07 8f d1 3e ed f0 4e 3e c4 73 13 3f d8 70 c6 be
       0.40929434 0.20209093 0.5759852 -0.38757968
000010 f0 da 11 be 79 27 d8 be f2 27 96 be 57 d1 2b bf
       -0.14243674 -0.42217615 -0.2932735 -0.671163
000020 a0 13 21 3f d0 65 d5 3e 8b af f4 be 0e a1 db 3e
       0.6292057 0.4167924 -0.4779018 0.42896312
000030 ef 82 43 bf b1 4f ae 3e da 61 3e 3f 42 e0 e5 3e
       -0.76371664 0.34045175 0.7436806 0.44897658
000040 5e 08 c4 be 5a 48 7d be e3 9c 16 3e 48 d8 27 3f
       -0.38287634 -0.24734631 0.14708285 0.65564394
000050 3f 6b 2f 3f 54 7d e6 be 49 e4 aa be 71 47 7c 3e
       0.6852302 -0.45017493 -0.33377293 0.24636628
000060 63 9e 48 3f 89 5f 35 be ad d2 3c bf d9 ce 1e 3f
       0.7836668 -0.17712225 -0.73758966 0.62034374
000070 61 f2 3d be 38 e4 86 3d b1 b0 c7 3c f1 41 37 3f
       -0.18549491 0.06586498 0.024376245 0.71584994
000080 b2 d1 3d 3f 9d f5 3d bf 31 ce 15 3f 43 a4 ad be
       0.74148095 -0.742029 0.5851775 -0.33914384
000090 23 95 2f 3e a6 6c df be 36 78 2e be 46 27 24 3f
       0.17146735 -0.4363758 -0.17038044 0.64122427

bias f4 [20]
000000 78 81 7b 3e 05 1d 77 3e 57 e2 4d 3e 83 03 48 bf
       0.24561107 0.24132164 0.20105873 -0.7813036
000010 8d 6f 9e be dc f3 24 3f 55 d1 38 be b7 8d d2 be
       -0.30944481 0.644346 -0.18048604 -0.41123745
000020 1f de 0d bf d0 f6 16 bf 64 41 3e 3f a3 92 78 3e
       -0.55417055 -0.58970356 0.7431853 0.24274687
000030 20 af 7b bd 83 6d 15 3f 5e a9 84 3e be 8b 86 3e
       -0.06144631 0.58370227 0.25910467 0.2627849
000040 f3 86 7f be a3 88 8d 3e e1 2a a0 be 9f b1 28 3f
       -0.24953823 0.27643308 -0.31282714 0.6589603

weight f4 [20, 20]
000000 79 d9 33 3e d1 f0 86 3e 4a d9 88 bc 3e 45 63 be
       0.17563428 0.26355603 -0.016705174 -0.22194383
000010 05 9f 8f 3e da 8b bd 3d 53 5c 61 be 1a a6 59 3e
       0.2805101 0.0925519 -0.22007875 0.21254769
000020 de 01 86 bd 1c 6b d7 bd 47 28 89 3e 72 99 b6 bd
       -0.06543325 -0.10518476 0.26788542 -0.08915986
000030 6d 75 19 3e 21 2a 68 be d1 cb da bd 56 58 77 be
       0.149862 -0.22672321 -0.10683406 -0.24154791
000040 e9 7e 5a 3e 23 73 d1 3d 04 02 84 3e 1b 45 11 3d
       0.21337475 0.10227039 0.25782788 0.035466295
000050 f9 12 ad bd 23 ba fa bd ce 9d 7e be f3 02 5f be
       -0.08450884 -0.12242534 -0.24864885 -0.21778469
000060 ac a2 cd 3b c4 07 43 3c 50 f4 70 bc ee a8 c6 3d
       0.0062754955 0.011903707 -0.014706686 0.097001895
000070 a5 e4 00 3d d8 ee 9d 3d ff 18 9c be bd 04 54 3e
       0.031468052 0.077115715 -0.3048782 0.20704933
000080 0f 65 6b be 04 06 89 3e 6b fb d1 3d 46 9c be bc
       -0.2298777 0.26762402 0.10253032 -0.023267876
000090 88 e5 e6 bc 36 f1 5d 3d 11 bc 90 bc d5 69 8b 3e
       -0.02818562 0.054185115 -0.017667802 0.2722918
0000a0 8e 37 41 bd b6 0e 96 3e f7 60 b8 3c af 70 0e be
       -0.04717212 0.293081 0.022507174 -0.13910173
0000b0 20 fc 6d 3d f0 ab 6b be 60 22 88 bc 84 2e 04 3e
       0.058101773 -0.23014808 -0.016617954 0.1290837
0000c0 f1 f7 90 bd 2d 56 8d 3d ed 2f 90 3e 43 77 81 bd
       -0.07078541 0.06901202 0.28161564 -0.063215755
0000d0 f1 4b db bd 90 1a 8f 3d 49 dc dc bd 62 91 95 be
       -0.10707844 0.06987488 -0.107842036 -0.2921248
0000e0 7b 43 e4 3d 2b 73 6e 3e 75 71 13 3e a3 5a 11 be
       0.111456834 0.2328612 0.14398749 -0.14194731
0000f0 e9 5d 39 be 8a 76 25 3c b8 4f b8 bc 78 ad 2b be
       -0.1810223 0.010099063 -0.02249895 -0.16765392
000100 1a 6a 36 3c cf ab d2 3d 66 d3 f2 3d f7 71 2e be
       0.011133695 0.10286676 0.11856727 -0.17035662
000110 01 1a 1c 3e b5 ca 22 be 13 a2 00 be f4 1a a1 3c
       0.15244295 -0.15897639 -0.12561826 0.019666173
000120 19 f2 fc 3d 33 df a9 3c 34 f8 dc bd 01 5d ad bd
       0.12350864 0.020736312 -0.107895285 -0.08465005
000130 6a 9d 7e bd 01 d2 a9 3d 60 97 cf 3c a2 ad 7e 3e
       -0.06216184 0.08292008 0.025340736 0.24870923
000140 ac af 04 3e 9c 12 2a 3e b1 fa b7 bd 1d 7a 08 be
       0.12957639 0.16608661 -0.089833625 -0.13327833
000150 6a 6f 35 3d 84 8e 74 be 4b 83 c9 bd da c4 46 3d
       0.044295706 -0.2388249 -0.09839495 0.048527576
000160 56 ec b6 bd b1 38 17 3e 42 b1 96 3d e0 49 7c be
       -0.08931796 0.1476772 0.07358028 -0.24637556
000170 98 7a 90 3e da 43 6a be 2c 3a 88 bd df 10 32 3d
       0.28218532 -0.22877446 -0.066517204 0.04347312
000180 7e 48 b8 3d 53 2c 4b 3e c7 7f b6 bc 45 0d 4d bd
       0.08998202 0.19841127 -0.022277726 -0.050061483
000190 4e c9 a1 bc 8d 28 0c be 76 5f 3b 3e b6 d7 63 3e
       -0.01974931 -0.13687344 0.18298134 0.22250256
0001a0 08 26 f0 bd 62 77 92 be 27 d5 80 be 61 bf ba bd
       -0.11726004 -0.28606707 -0.25162622 -0.09118534
0001b0 42 68 62 be 0e 8b 85 3c fb 4c 66 3e c2 12 c9 bd
       -0.22110084 0.016301658 0.22490303 -0.09818031
0001c0 ab 11 96 3d 61 ef 23 be e1 dc 92 3d a8 8f d1 3d
       0.07327589 -0.16009285 0.071710356 0.102324784
0001d0 c7 4d 4f 3e 19 41 95 3e 42 f6 95 3e 48 43 32 bd
       0.20244513 0.29151228 0.29289442 -0.043521196
0001e0 9e a8 e0 bd 40 09 00 be 0d f1 57 be e9 c0 28 be
       -0.10969661 -0.12503529 -0.21088047 -0.1647984
0001f0 ff 80 a3 bd 61 b1 59 3e 9d 73 38 3e 32 58 56 3c
       -0.079835884 0.21259071 0.18012853 0.013082551
000200 95 8c 59 3e c7 20 65 3e 93 f5 21 be c7 2a 84 bd
       0.21245034 0.22375785 -0.15816335 -0.06453472
000210 0e 75 75 bc 51 45 d8 3b c2 64 11 3c d7 2b cf bd
       -0.014981521 0.00660006 0.00887412 -0.10115784
000220 b2 cc e9 3d 61 40 20 be 24 fd b7 bd 9c 1c 09 be
       0.11415996 -0.15649559 -0.089838296 -0.1338982
000230 e8 79 fd 3c b2 c7 84 bb fa 04 93 bd 6b e5 ce bc
       0.030941918 -0.004052126 -0.071786836 -0.02525588
000240 6a 42 0c be 0c 3f 97 3c 6a 06 b0 3d 9b 5a be bd
       -0.1369721 0.01846268 0.085949734 -0.09294625
000250 89 ed 0a 3e 8e 92 8f bd ad b3 95 be 86 ec d3 bd
       0.13567175 -0.07010375 -0.29238644 -0.10347848
000260 de 97 9c be d0 21 16 bd e3 75 2a 3d 1c f2 3c 3d
       -0.30584615 -0.03665334 0.04161633 0.04612933
000270 4a 06 3a be 38 d4 d1 bd d7 83 8e bc 2d c6 c1 3d
       -0.18166462 -0.10245556 -0.01739685 0.09461627
000280 3d fb c6 3d 17 74 08 3d 94 d5 ee 3b 72 f0 32 be
       0.09715889 0.033313837 0.007288644 -0.17474535
000290 4a 8d e1 bd 51 e3 2e 3e 79 27 95 3e 29 65 06 be
       -0.11013277 0.17078902 0.29131678 -0.13124527
0002a0 d2 82 5b 3d e9 fd 6c bd 2f 06 93 3d c3 38 97 3e
       0.053591557 -0.057859335 0.07178914 0.29535493
0002b0 51 d8 b0 bd 07 26 05 be c9 a4 77 3e e9 db a1 3c
       -0.08635009 -0.13002788 0.24183954 0.019758182
0002c0 ba 78 92 be 4d a5 5a be 3c 04 73 be 40 38 f3 bd
       -0.28607732 -0.2135212 -0.23732084 -0.11875963
0002d0 ab dd 52 3c 55 95 97 be eb f6 b5 3c b4 70 30 be
       0.012870233 -0.2960612 0.022212466 -0.17230493
0002e0 37 ba 84 be 77 fc 5d 3e ce ef 5b 3e 72 22 49 be
       -0.2592332 0.21678339 0.21478197 -0.19642046
0002f0 70 b8 da bc dd 11 50 3e 4f 1d 16 bd 61 0f 2b 3d
       -0.026699275 0.20319314 -0.036649045 0.041762713
000300 1b 94 05 be fe 9e 9c 3b 61 89 8b 3d 40 0e 6f 3e
       -0.13044779 0.0047796955 0.06813312 0.2334528
000310 77 6b 38 be ce df 76 be 6b 77 a4 bd 52 d6 7d 3e
       -0.18009745 -0.24108812 -0.0803059 0.24788788
000320 97 f1 c8 bd b0 f8 c4 bd 43 05 7d 3e 69 df 66 3d
       -0.098117046 -0.09617746 0.24709038 0.056365404
000330 32 ab 6e 3e ec 93 05 bd 2b b5 0e be 14 26 2d 3d
       0.23307493 -0.032611772 -0.13936298 0.042272642
000340 83 66 65 be 38 ec 83 3d 45 8d a3 3d 3d ac a6 bd
       -0.22402386 0.064415395 0.079859294 -0.081383206
000350 e3 93 64 3e 2b b8 91 be e2 7f 5e bd 0f 48 bc 3d
       0.2232204 -0.28460822 -0.054321177 0.091934316
000360 30 75 e5 bd b6 01 11 3e db 1a 01 be 62 8b 03 be
       -0.11203992 0.14160809 -0.12607901 -0.12846139
000370 05 21 79 be 48 92 51 bd f3 9e ee 3d c3 b9 80 bd
       -0.24329002 -0.051164895 0.11651411 -0.06285431
000380 51 06 9d be d8 36 8a 3e 14 09 ec bd d4 87 b4 bd
       -0.30668882 0.26994967 -0.11525169 -0.0881497
000390 1b c6 00 3e d4 5d b9 3d ee 4f 22 3d d9 84 dd 3d
       0.12575571 0.090510994 0.03962701 0.10816354
0003a0 ad 0d f4 3c 84 e7 66 3e 06 e1 cd bd 4d ac 95 3d
       0.029791677 0.22549254 -0.100526854 0.073082544
0003b0 07 5a 55 bc 33 d6 42 be 6f cd 89 be 44 e3 db 3c
       -0.0130219525 -0.19027023 -0.26914546 0.026841767
0003c0 59 27 75 be dc df 8c be 93 a3 12 be 94 9d 03 3b
       -0.23940791 -0.2751454 -0.14320211 0.0020082938
0003d0 16 cd aa 3d a1 2c f6 3d d5 92 d5 bc eb 19 49 bd
       0.08339898 0.12020231 -0.026070992 -0.049096983
0003e0 13 56 2d be 30 f2 02 be 46 b8 50 be 8b 33 9b 3e
       -0.16927366 -0.127877 -0.20382795 0.30312762
0003f0 38 b2 92 bd c8 a4 90 3d 5a fb b7 bd 82 fa 9d 3d
       -0.07162899 0.070626795 -0.089834884 0.07713796

bias f4 [20]
000000 3d ec 0e bd bf 63 2b 3d a4 73 14 3e aa 02 f2 bd
       -0.034893263 0.041843172 0.14497238 -0.118169144
000010 8a d7 37 3e a6 e2 74 3e d2 b3 21 3c 1c 95 44 3d
       0.17953315 0.23914585 0.009869533 0.047993764
000020 4c 12 2c 3d 3c a9 15 3e e4 0e b0 bd 9c e7 0d be
       0.042009637 0.14615339 -0.0859659 -0.13857883
000030 a1 30 99 3e 83 c9 3d 3e 6e 20 81 3e 23 f2 80 3e
       0.29919913 0.18533902 0.25220054 0.25184736
000040 1d 46 95 3e ea 63 5a 3d 6d 1b 8a 3e b5 52 59 3e
       0.29155055 0.05331794 0.2697405 0.21222956

weight f4 [1, 20]
000000 d3 b5 5e be 3b 15 ed 3d ef be da bd b2 63 42 3d
       -0.21749048 0.11576315 -0.10680949 0.047458358
000010 60 f9 52 be b5 3d 52 be ff 43 3c 3e 5b 58 51 3e
       -0.20602942 -0.20531352 0.18385313 0.20443861
000020 9d 00 53 3e 57 3c cc 3d f9 fc 1f be ef 11 82 3e
       0.20605703 0.099724464 -0.15623845 0.25404307
000030 ca f3 07 3e b3 a1 3b be c4 cc 3b 3e 41 a0 98 bd
       0.13276592 -0.18323402 0.1833983 -0.07452441
000040 37 55 85 3e b5 dc 75 3e 07 11 88 be 15 2d 71 3e
       0.26041576 0.24009974 -0.2657549 0.23552354

weight f4 [20, 1]
000000 5c 9d 1b 3f 59 66 fa be 5a cd 5e bf ed cc 85 bf
       0.60786986 -0.4890621 -0.8703209 -1.0453163
000010 33 81 50 bf 15 c6 3a 3e d1 31 53 bf 89 5a 75 bf
       -0.8144714 0.18239625 -0.8249789 -0.9584127
000020 db 15 80 3e af 8d fd be 71 b8 84 bb 42 00 d6 be
       0.25016674 -0.49522159 -0.0040503074 -0.41797072
000030 ba 53 98 be 0b 22 8a 3f 1a fc 7a 3f 6f 0d af 3e
       -0.29751378 1.0791639 0.98040926 0.34189937
000040 f6 41 86 be a6 1e 71 3e cb b7 32 3f 8f ef a5 be
       -0.262222 0.23546848 0.69811696 -0.3240933

bias f4 [20]
000000 e5 e7 39 bf 76 2c 09 bf 7f 5d 17 3e d3 72 5b bd
       -0.7261947 -0.53583467 0.1478176 -0.0535763
000010 53 a0 25 3e c2 7e 37 3f 17 ae 33 3f e8 e9 42 3e
       0.1617444 0.7167779 0.70187515 0.1903454
000020 6d 0b 0d 3f 56 1f 46 3f 1f 62 bc be 48 ed 37 3f
       0.5509556 0.77391565 -0.3679361 0.7184644
000030 b0 83 ab be 47 2d 95 be 60 9e 2c bf 17 3f 32 3f
       -0.33498907 -0.29136106 -0.6742916 0.6962752
000040 0f 46 78 3e 3f a9 d8 bd 2a c4 53 3f f1 68 85 bf
       0.24245475 -0.10579156 0.827212 -1.042265

weight f4 [20, 20]
000000 20 7d 79 3e 6a d7 1d be 34 86 2d be e5 43 9a 3d
       0.24364138 -0.15414205 -0.16945726 0.07532481
000010 e3 f9 00 be ab 83 84 3e 79 4f 9d be 5b ea 38 bd
       -0.12595324 0.25881705 -0.30724695 -0.045145374
000020 07 c9 a1 3d 5b 2b 03 be ea b1 63 be 01 68 eb 3d
       0.07899671 -0.12809508 -0.22235838 0.114944465
000030 e0 98 ed 3d 02 53 a0 bd 71 7c 87 3e e1 45 63 3e
       0.11601424 -0.078283325 0.2646213 0.22194625
000040 ac 36 6f 3d c5 12 62 3e e5 99 95 bd e1 0a b6 bc
       0.05840175 0.22077473 -0.07304744 -0.022221984
000050 03 b3 fb bd de 58 45 3e ac bf 0a be 2f d7 97 bd
       -0.12290003 0.19272181 -0.1354968 -0.0741409
000060 62 b5 14 3d 3e 81 7c 3d 82 3d f6 bc 79 8a 82 3d
       0.036305793 0.061646692 -0.030058626 0.06374068
000070 82 ab 6f 3d 91 13 1c be f6 70 33 3e ea 55 08 be
       0.058513172 -0.15241839 0.1752356 -0.13314024
000080 9b 77 9b bd 78 63 6e 3e 5d f8 e6 bd 5b 47 47 3d
       -0.07591172 0.23280132 -0.1127784 0.048652034
000090 21 9e 84 be 5f 65 20 bd 4c 31 03 be d1 03 8e 3c
       -0.25901893 -0.039159175 -0.12811774 0.017335804
0000a0 e3 03 d8 3b 9f 40 1b 3e 55 17 b8 bd c2 83 ec 3d
       0.00659226 0.1516137 -0.08988825 0.11548568
0000b0 2e 2c 93 bd 21 85 f7 bb 75 c3 22 be 2f 41 a4 bd
       -0.07186161 -0.007553712 -0.15894873 -0.08020245
0000c0 4b 8f c5 3d ff d9 54 bd a7 ad 3b 3d b3 68 48 be
       0.096464716 -0.05196571 0.045819905 -0.1957119
0000d0 c8 41 10 3e e8 b7 67 3e 3b 42 58 3e a1 ee 48 3e
       0.14087594 0.22628748 0.21119015 0.1962228
0000e0 4f 64 ba bd 14 78 75 3d bb fd 9b 3d 6e f6 bd 3d
       -0.091011636 0.05992897 0.076167546 0.09275518
0000f0 a2 51 31 be 5f 37 38 be c1 2c dd bd 61 f0 2e bd
       -0.17316297 -0.17989872 -0.10799552 -0.042709712
000100 c2 3d 51 bc bb b9 a3 3d d7 73 2f 3d fd 73 0f bd
       -0.012771072 0.0799441 0.042835083 -0.035022724
000110 d4 b7 8c bd 8b b7 89 bc dd cb 73 3e 5f 05 2e 3d
       -0.06871 -0.016811153 0.23808236 0.04248559
000120 d7 06 05 be ff 33 d5 bd 36 c5 8a 3e df e8 1f 3e
       -0.1299089 -0.10410308 0.27103585 0.15616177
000130 b5 65 fc 3d dd 00 49 bd 8b 94 3e be be 5e fe bd
       0.123240866 -0.04907309 -0.18611352 -0.124204144
000140 77 47 28 be ba 32 2c 3e aa b8 ac 3d 5d 4c b7 bd
       -0.16433512 0.16816226 0.084336594 -0.08950112
000150 35 cb cf 3d 1a c3 20 3d 4d 55 10 3e 30 3e 84 3e
       0.101461805 0.039248563 0.1409504 0.25828695
000160 48 cf 53 be 3b ac 9a 3e 74 73 18 3e 5b 1a 92 3e
       -0.2068454 0.30209526 0.14887792 0.28535733
000170 53 62 08 be 27 43 94 be 72 f3 9b be 22 55 da 3d
       -0.13318758 -0.28957483 -0.30459172 0.10660769
000180 e9 42 7e 3e 03 07 ea bd 43 47 82 be 96 c4 fc bd
       0.24830212 -0.11427119 -0.25444993 -0.12342183
000190 bf b3 90 be c5 f8 84 3e 1f d7 c5 bd 9e 53 40 3e
       -0.28262135 0.25971046 -0.09660172 0.18781897
0001a0 b9 ea 97 3e 67 51 1e be 1b 3c 10 bb 66 98 d0 bd
       0.29671267 -0.1546074 -0.0022008482 -0.10185318
0001b0 1d 08 77 be 16 eb c7 3d 29 89 40 3c 34 49 48 3e
       -0.24124189 0.09761636 0.0117514515 0.19559175
0001c0 07 be a4 3d fb 00 25 bd 4f 52 01 bd e6 86 05 3e
       0.08044057 -0.04028414 -0.031572636 0.13039741
0001d0 7c f7 dc bd e3 76 51 bd e4 2b 07 be 32 4f ab bd
       -0.107893914 -0.05113877 -0.13200337 -0.08364715
0001e0 73 eb 19 3e 5b 5c 44 bd 9a c8 2a 3d ce 23 d1 bd
       0.15031223 -0.04793964 0.041695215 -0.10211907
0001f0 88 9d 1e 3e eb a0 56 be 87 93 3e 3d 7d d9 17 3e
       0.15489781 -0.20959823 0.04652741 0.14829059
000200 38 6d 62 bc 2b 1e b7 3d 89 18 f4 bd 33 bf b2 3d
       -0.013819985 0.08941301 -0.11918742 0.087278746
000210 31 2d 90 3d 43 2e 40 be 53 ba 1e be 8c 05 65 3d
       0.070398696 -0.18767647 -0.15500765 0.055913493
000220 ad 0c 98 bc 09 dd 69 be 37 21 63 bc 5c 26 d1 3d
       -0.018560732 -0.22838224 -0.0138628995 0.102123946
000230 69 5a 28 be ba 6c e2 3d 5e 50 a0 3e 50 4a 81 3e
       -0.16440739 0.11055894 0.31311315 0.25252008
000240 f5 f2 7a bd 8a 86 8f bd a3 8b d0 3d 96 4b a4 bc
       -0.061266858 -0.07008083 0.101828836 -0.020055573
000250 30 65 0c bd 1f b0 5d 3e c9 9d 45 be c7 88 13 3e
       -0.034276187 0.21649216 -0.19298472 0.14407645
000260 1a 24 2a ba 84 2e a5 3b bb 6e 21 3d 99 69 24 be
       -0.0006490365 0.0050409455 0.03941224 -0.16055907
000270 61 9f 70 3e ed 8a 0c be f7 6b 12 bd 2b 63 e8 3c
       0.23498298 -0.13724871 -0.035747495 0.0283676
000280 d3 20 24 3e 09 e2 0e be 52 99 15 bd c2 3b 4a 3d
       0.16028146 -0.13953413 -0.03652317 0.049373396
000290 32 d9 d5 bd ba 8e 34 be 90 8e 26 bd c8 9a a0 3e
       -0.10441817 -0.17632571 -0.040663302 0.3136809
0002a0 a6 d4 05 3e e6 f9 ac 3a 07 2f 41 be 5a cd 1a be
       0.130694 0.0013197034 -0.18865596 -0.15117398
0002b0 95 f4 6d 3e d6 d1 28 be da a7 c7 3d d9 5b f0 bd
       0.23237832 -0.16486296 0.09748812 -0.117362686
0002c0 44 12 b9 bc f6 8c 8a be dd b1 b3 3c e7 9e 10 3e
       -0.022591718 -0.2706067 0.021935398 0.14123116
0002d0 33 0b 02 3e 40 4c 8b 3d 6d 8b 70 3d 07 01 cf bd
       0.12699585 0.06801653 0.058726717 -0.10107618
0002e0 b4 f4 2e 3e 7b 6a 39 3e df 1b 9c 3c b1 65 af bd
       0.17085534 0.18107025 0.019056259 -0.08564318
0002f0 74 f9 62 be aa 75 57 3e f7 d7 e6 3d 88 f2 47 3d
       -0.22165471 0.21040979 0.11271661 0.04881528
000300 f7 69 18 3e 3f 4a 69 bd 08 f0 b4 bd 83 07 0d be
       0.14884172 -0.056955572 -0.08834845 -0.13772397
000310 b3 63 dc bc 89 7e 1d be de 0d 47 be c9 09 72 bd
       -0.026903009 -0.153803 -0.19438884 -0.059091363
000320 ce 7a 8c 3e 0c 2b 71 bd 47 85 ef bd 41 a4 ec 3c
       0.27437443 -0.058878943 -0.116953425 0.028886916
000330 5e 67 4e be 21 43 24 be e1 39 8b be fd a4 c6 bd
       -0.20156619 -0.16041233 -0.27192596 -0.09699438
000340 34 3d 64 3e 82 78 e1 3d 0a f6 34 3d ed ef 95 be
       0.22288972 0.11009313 0.044179954 -0.2928461
000350 e9 b4 0c 3d ec 68 af bd 53 b6 33 bd aa 97 06 3e
       0.034352217 -0.08564934 -0.04387505 0.13143793
000360 5d de b3 bd fc c9 7c 3e 8c e3 98 3e 88 fa 27 be
       -0.08782647 0.24686426 0.29861104 -0.16404164
000370 1f 6b d6 bb 84 6f 04 be c1 5c 97 bd d3 ea 8a be
       -0.0065435315 -0.12933165 -0.07390738 -0.27132282
000380 f3 d0 86 3d 8e 84 15 be 11 1b 0a 3e 21 53 83 bd
       0.06582823 -0.14601347 0.13486888 -0.0641234
000390 6a 6c 70 3e d8 e6 eb 3c d5 6c bd 3d 6a c6 0a 3e
       0.23478857 0.028796598 0.09249274 0.13552251
0003a0 45 46 97 bd 6e 2c 32 3e ef a0 1d 3e 71 b4 17 3e
       -0.0738645 0.17399761 0.15393423 0.14814927
0003b0 f7 6c 7c bd 44 3f c3 3d 2a ef b2 bd cb 3b 27 3e
       -0.061627354 0.09533551 -0.08737023 0.16331403
0003c0 4c 5d 53 3e 75 f0 71 be ee b2 9d be 57 b0 4b be
       0.20641059 -0.23626883 -0.30800575 -0.19891487
0003d0 a1 ac db bd f1 a8 aa bc f7 78 74 be 7f 22 1d be
       -0.10726286 -0.02083251 -0.2387427 -0.1534519
0003e0 26 37 f9 bd 38 ca c9 bd 82 2e d9 bd 1c 6f 35 3d
       -0.12168722 -0.09853023 -0.10604574 0.044295415
0003f0 df 8e 1c be 1f 59 b7 3c 28 3d 3e 3e fc 02 6a bd
       -0.15288876 0.022381363 0.18578017 -0.057131752

bias f4 [20]
000000 66 38 b9 3a c0 5e d2 bd 6f b5 97 3d b7 b2 25 3e
       0.0014131188 -0.102719784 0.074076526 0.16181456
000010 a3 d9 12 be 18 5a 3a 3e 02 01 85 3c 86 13 67 3e
       -0.14340834 0.1819843 0.016235832 0.22566041
000020 28 97 70 3e fa f5 b4 bd 8b 03 e8 bb 33 05 10 bd
       0.23495162 -0.08835979 -0.0070805005 -0.03516121
000030 72 8d 15 3e 9a d9 28 3e db 7b 24 3e c7 43 2f 3e
       0.14604738 0.16489258 0.16062872 0.17115699
000040 73 e2 68 3e d0 4d 98 bd 27 10 7c 3d 2d 6e 52 3d
       0.22742634 -0.074367166 0.06153884 0.051374603

weight f4 [2, 20]
000000 28 ea fa bd e6 97 c2 bc 5a e3 41 bd b6 99 fd 3c
       -0.12251693 -0.023754071 -0.04733596 0.030957084
000010 c0 f6 65 3e 60 9c 8a 3e 1b 36 1d 3e fc ce 16 3e
       0.22457409 0.2707243 0.15352671 0.14727396
000020 31 00 a9 3d a6 bf 67 3e c8 a1 52 be ae e7 8f bd
       0.0825199 0.22631702 -0.20569527 -0.07026611
000030 d3 e0 35 be 0c dc 03 3e dc ac 09 3e 82 f4 a5 3e
       -0.17761545 0.1287691 0.13444847 0.32413107
000040 88 fd 3a bd e2 2e a9 3d 6a 01 15 3d ab 33 3d 3e
       -0.045651942 0.08260895 0.0363783 0.18476741
000050 56 49 aa 3d 18 63 5d 3e 96 8e 90 3e 78 cf b8 3d
       0.08314769 0.21619833 0.28233784 0.090239465
000060 81 b2 e3 bd 59 47 e7 bd ce ef bb 3d 4f 54 3b be
       -0.11118031 -0.11292905 0.091765985 -0.1829388
000070 c1 36 56 bd c3 c3 65 be b4 e2 80 3c 65 7a 8a bc
       -0.05229831 -0.22437958 0.0157331 -0.016904065
000080 46 14 92 3e d1 c7 93 be 3d f7 64 be 3f 36 35 3d
       0.28531092 -0.28863385 -0.22359939 0.044241186
000090 1c 06 1f be 0b 41 83 be 8b dc 58 3e 3e e5 39 be
       -0.15529674 -0.2563556 0.2117788 -0.18153855

bias f4 [2]
000000 b5 e1 3e be 04 9a 4d 3e
       -0.18640788 0.20078284
