docs/notebooks/paper_experiments/results/unsupervised/iter_5/model_autoencoder_5.pt (torch, 32391 bytes, 13 tensors)

mean f4 [2]
0	0xbf2d8b80	-0.67790985
1	0x3f982a1c	1.1887851

range f4 [2]
0	0x3eab085d	0.33404818
1	0x3ec086eb	0.37602934

weight f4 [20, 2]
0	0xbed47d17	-0.41501686
1	0x3edc3625	0.4301006
2	0x3f202096	0.6254972
3	0x3eb22ce1	0.34799865
4	0xbf07426a	-0.52835715
5	0xbe3116cc	-0.17293853
6	0xbe9da758	-0.30791736
7	0x3ef70efa	0.48253614
8	0x3f15ca08	0.585114
9	0x3e4a7989	0.19772924
10	0xbd207b85	-0.039180297
11	0xbf0959c5	-0.536526
12	0xbe3ec649	-0.18630327
13	0x3f12da45	0.573643
14	0x3f287fc4	0.65819955
15	0x3ee807fe	0.45318598
16	0xbeb4a027	-0.35278437
17	0x3f098791	0.5372248
18	0x3b8433af	0.0040344815
19	0xbecab8b9	-0.39594057
20	0xbec8fc04	-0.39254773
21	0x3f17e31c	0.59330916
22	0x3e88ac91	0.26694158
23	0xbf18a16b	-0.59621304
24	0xbef0a3ec	-0.47000062
25	0xbea6d3e2	-0.3258353
26	0xbed79833	-0.42108306
27	0xbe68d63a	-0.22737971
28	0xbdb525bd	-0.08845089
29	0x3f4df64d	0.8045395
30	0x3ef6d7c3	0.48211488
31	0x3ec10d7a	0.37705594
32	0x3e3dc9d1	0.18534018
33	0x3f36284c	0.7115524
34	0x3da31bd8	0.07964295
35	0x3f213df8	0.6298518
36	0x3f3c3046	0.7351116
37	0x3ecd3e32	0.40086514
38	0x3f43078a	0.7618338
39	0x3f044052	0.51660645

bias f4 [20]
0	0x3e493229	0.19648041
1	0xbf169eff	-0.5883636
2	0x3f0c2e89	0.54758507
3	0xbf2b7a02	-0.66983044
4	0x3e8c7a04	0.2743684
5	0x3eb0825a	0.3447445
6	0xbe8d1b0a	-0.27559692
7	0x3f36065b	0.7110345
8	0xbf098ab4	-0.5372727
9	0x3e41d842	0.18930152
10	0x3ee8db3b	0.4547976
11	0x3dbeadce	0.09310494
12	0xbef01c21	-0.4689646
13	0xbd0c6b62	-0.034282096
14	0x3f40f92d	0.7538021
15	0x3f302ef2	0.6882163
16	0x3e0e4e8e	0.13897154
17	0x3ddd6043	0.10809376
18	0xbeb84d1e	-0.35996336
19	0xbc13084a	-0.008974144

weight f4 [20, 20]
0	0x3de941bc	0.11389491
1	0x3da6c35c	0.081427306
2	0x3e98c537	0.29837963
3	0x3ddfe4e0	0.10932326
4	0xbe1b9411	-0.15193202
5	0xbd8f654f	-0.07001745
6	0xbe43a91c	-0.19107479
7	0xbd415cc0	-0.047207594
8	0xbe9b763e	-0.3036365
9	0x3c19b81d	0.009382275
10	0xbe51cbfe	-0.20487973
11	0xbcbe40b8	-0.02322422
12	0x3d907738	0.07053989
13	0x3e9abe4b	0.30223307
14	0xbe4695a8	-0.19393027
15	0xbe95e295	-0.2927443
16	0x3d622e6d	0.055220056
17	0xbe3d91e1	-0.1851268
18	0xbe7e4442	-0.24830726
19	0x3d9d5bd8	0.076835334
20	0x3da7641d	0.08173392
21	0xbe7b08ea	-0.24515119
22	0xbdaaec99	-0.08345909
23	0xbe34cd87	-0.17656527
24	0xbde3f579	-0.111308046
25	0xbcad0489	-0.021120327
26	0xbe5bf28e	-0.21479246
27	0x3de9cb94	0.114157826
28	0xbdf0c75c	-0.11756775
29	0x3e8bb092	0.2728315
30	0xbe5df1fc	-0.21674341
31	0x3e8a3c61	0.2699919
32	0x3e2c4cf1	0.16826226
33	0x3ea37027	0.31921503
34	0xbea38c77	-0.31943104
35	0xbd1bfd46	-0.038083337
36	0xbd189baa	-0.037257828
37	0xbd1cb163	-0.038255107
38	0xbbac64f6	-0.005261059
39	0xbe67c414	-0.22633392
40	0xbe12f6d2	-0.14351967
41	0xbdff2b9f	-0.12459492
42	0x3d234592	0.03986127
43	0xbd2c956b	-0.042134684
44	0xbdbb8ba7	-0.09157496
45	0x3ea397c8	0.31951737
46	0x3c401e1d	0.01172593
47	0x3d78c3bb	0.060733538
48	0xbd9b3c1b	-0.075798236
49	0x3e65529c	0.22394794
50	0xbe45eac4	-0.19327837
51	0x3db77e2f	0.089596145
52	0x3d1c558a	0.038167514
53	0xbd9b6939	-0.07588429
54	0x3dc53ca9	0.09630711
55	0xbbe127d2	-0.006871202
56	0xbe689ccc	-0.22716063
57	0xbe390f61	-0.18072273
58	0xbe138d83	-0.14409451
59	0x3d59fc9e	0.05321943
60	0x3c6aa692	0.01432194
61	0xbdeb4b70	-0.11488998
62	0xbbe96eb9	-0.007123795
63	0xbdcc8da4	-0.09987953
64	0x3e4d2a9b	0.20035784
65	0xbe2cd6fe	-0.16878888
66	0x3d9622b9	0.073308416
67	0x3c04c4ee	0.008103592
68	0x3de15d5c	0.11004135
69	0xbcc69744	-0.024242051
70	0xbd4cdc03	-0.050014507
71	0xbe210914	-0.1572612
72	0xbe3be32d	-0.1834838
73	0xbc00ffcf	-0.0078734895
74	0xbd2bc2e7	-0.04193392
75	0xbd615504	-0.055012718
76	0x3e9711d5	0.29505792
77	0xbdb9315b	-0.09042617
78	0xbde33e23	-0.11095836
79	0xbcc3fac6	-0.023923289
80	0xbd561883	-0.05226947
81	0x3e8dafbe	0.27673143
82	0xbe4c5955	-0.19955952
83	0xbd855af9	-0.06511492
84	0x3e1ce6d2	0.15322426
85	0x3d8b42fd	0.067998864
86	0xbdd8d4e0	-0.10587478
87	0x3e27518e	0.16339704
88	0x3e8788cf	0.26471564
89	0xbe686ed0	-0.22698522
90	0x3e12cc63	0.1433578
91	0x3cf42103	0.029800897
92	0xbe04eaeb	-0.12980239
93	0xbc80cdb9	-0.015723096
94	0x3e8c3ddd	0.27390948
95	0x3e63c10c	0.2224161
96	0xbbb105b9	-0.0054022935
97	0x3e0d43f5	0.13795455
98	0x3e740fc9	0.23834147
99	0x3e73b59c	0.23799747
100	0x3db166ea	0.086622074
101	0x3e5b73cc	0.21430892
102	0xbc497fab	-0.012298505
103	0x3b1c961f	0.002389319
104	0x3e9871e3	0.2977439
105	0xbc5c862b	-0.0134597225
106	0x3e26b1ef	0.16278814
107	0x3dd9ae52	0.10628952
108	0xbd4188c1	-0.04724956
109	0x3caee7ae	0.021350708
110	0x3ea0a1dc	0.3137349
111	0xbdd08c34	-0.101829916
112	0x3d740155	0.059571583
113	0xbde1f135	-0.11032335
114	0x3d9b8a0f	0.07594692
115	0x3ddc5087	0.10757547
116	0x3e069da5	0.13146074
117	0x3e2903f7	0.16505419
118	0x3e9db892	0.30804878
119	0x3db4d743	0.088301204
120	0xbdb4ce39	-0.08828396
121	0x3deb3bd4	0.11486021
122	0xbe2cf93d	-0.16891952
123	0xbdc7efe0	-0.097625494
124	0x3e40178e	0.18758985
125	0x3de574f3	0.11203947
126	0x3e6f00bb	0.23340122
127	0x3cb49a07	0.022046102
128	0x3e3e8bc6	0.18608007
129	0x3d9b8262	0.07593228
130	0x3e8ed796	0.27898854
131	0xbdc14b7f	-0.09438228
132	0xbe9acc24	-0.30233872
133	0xbc92fa21	-0.017941536
134	0x3e908f84	0.28234494
135	0x3e86d32e	0.26332992
136	0x3e52a16c	0.2056939
137	0x3e542715	0.20718034
138	0xbca70f7b	-0.020393124
139	0x3da68fed	0.081329204
140	0x3e672486	0.22572526
141	0xbddca8c7	-0.10774379
142	0xbca98496	-0.020693105
143	0x3afcb115	0.0019278849
144	0x3e8bee95	0.2733046
145	0xbe0b91f6	-0.13629898
146	0x3d24d650	0.040243447
147	0xbde15dc7	-0.11004215
148	0x3e973310	0.29531145
149	0xbbac6a36	-0.005261685
150	0x3e64ede6	0.22356376
151	0xbdc158fa	-0.09440799
152	0xbe8110a7	-0.25208017
153	0xbdc2ef55	-0.09518305
154	0x3dd32706	0.103101775
155	0xbd611b3d	-0.054957617
156	0x3de475a7	0.11155253
157	0x3d9707f3	0.07374563
158	0xbdaa86c6	-0.08326487
159	0x3e4cf6ea	0.20016065
160	0x3de4719a	0.1115448
161	0x3d076b36	0.03306123
162	0x3d5035d3	0.05083258
163	0xbe06ebfb	-0.13175957
164	0x3cbfbe71	0.02340624
165	0x3e21a905	0.15787132
166	0xbdf347c2	-0.11878921
167	0xbd2c6601	-0.042089466
168	0x3d5adfd3	0.05343611
169	0xbab475f5	-0.0013768064
170	0xbe837008	-0.2567141
171	0x3d9af50a	0.07566269
172	0x3e685a58	0.22690713
173	0x3d8df0c0	0.06930685
174	0xbe6cdb0e	-0.23130438
175	0xbe9e2a9a	-0.30891877
176	0xbe82daa0	-0.25557423
177	0xbe6a1394	-0.22859031
178	0xbe86c784	-0.26324093
179	0x3d1be9bd	0.038064707
180	0xbdb88784	-0.090102226
181	0xbdfe2cff	-0.12410926
182	0xbe717141	-0.23578359
183	0x3e640768	0.2226845
184	0xbda3ae16	-0.07992189
185	0xbdc6ea8a	-0.097127035
186	0x3e26215a	0.1622366
187	0x3e92b6a0	0.28654957
188	0xbdc75baf	-0.09734284
189	0x3cf7811a	0.030212928
190	0xbdbc18ae	-0.09184395
191	0xbe3bc016	-0.18334994
192	0xbe8f6f5f	-0.28014657
193	0xbd55b101	-0.052170757
194	0x3e40e4f1	0.18837334
195	0xbdd2cb12	-0.10292639
196	0x3e34601b	0.17614786
197	0x3cc5fa79	0.024167286
198	0xbda78638	-0.08179897
199	0xbc896088	-0.016769662
200	0x3d8ce23b	0.068790875
201	0xbc65f074	-0.014034379
202	0x3e030e11	0.12798335
203	0xbe9c33f0	-0.30508375
204	0xbd5d28c0	-0.05399394
205	0xbd17bd68	-0.037045866
206	0xbdf0df2c	-0.11761317
207	0xbda403f0	-0.080085635
208	0x3cbb01eb	0.022828063
209	0x3de0ea14	0.10982147
210	0x3c953e13	0.018218076
211	0x3d9b5f89	0.07586581
212	0xbcc16a2c	-0.023610197
213	0x3e3691be	0.17829034
214	0xbe8a9b1f	-0.27071473
215	0xbe9b5523	-0.30338392
216	0xbea335a9	-0.31876877
217	0xbd603097	-0.05473384
218	0xbe331615	-0.17488892
219	0xbea2e6eb	-0.318168
220	0xbe1e4b41	-0.15458395
221	0x3d83ca68	0.0643509
222	0x3cd1e746	0.025622975
223	0x3d29a904	0.04142095
224	0x3d77a8e0	0.060463786
225	0x3ea5cd9e	0.32383436
226	0xbe0622a4	-0.13099152
227	0xbe3c389b	-0.18380968
228	0xbe1abb03	-0.15110402
229	0x3e4e82b8	0.20167053
230	0x3da16a0e	0.078815565
231	0x3de4de5b	0.111752234
232	0x3e9b0217	0.30275032
233	0x3e8713f5	0.26382414
234	0xbe9361cf	-0.2878556
235	0x3da4d3bd	0.08048198
236	0x3d5c1114	0.053727224
237	0xbe1926eb	-0.14956252
238	0x3d86373f	0.06553506
239	0xbea31e3e	-0.3185901
240	0x3e86b5c6	0.26310557
241	0x3e8914c4	0.26773655
242	0xbd308d03	-0.04310323
243	0x3dd10ddc	0.102077216
244	0x3e7dcc64	0.24785
245	0x3c407718	0.011747144
246	0x3e81c145	0.25342765
247	0x3e3b22c5	0.18274982
248	0xbd914c85	-0.07094673
249	0xbd8b4927	-0.06801062
250	0xbe092878	-0.13394344
251	0x3c7a836a	0.015290121
252	0xbe48cf31	-0.19610287
253	0xbe2f0bc0	-0.17094326
254	0x3cef935e	0.029245075
255	0xbd87dda7	-0.06634074

bias f4 [20]
0	0x3d3e75c1	0.046499018
1	0xbd65e498	-0.056126207
2	0xbd350e4e	-0.044203095
3	0xbe660ba3	-0.22465377
4	0xbdcbddd8	-0.09954423
5	0x3d0bb97f	0.03411245
6	0xbdef95e1	-0.11698509
7	0xbe8af9b8	-0.27143645
8	0x3ea3418c	0.31885946
9	0xbd54804e	-0.051880173
10	0x3e5110e5	0.20416601
11	0x3d09bd86	0.03362801
12	0xbe8c750a	-0.27433044
13	0x3e808d09	0.251076
14	0xb98af6ce	-0.00026505295
15	0xbd5169ee	-0.051126413
16	0x3e379587	0.17928134
17	0x3e4ff98d	0.2031004
18	0xbdca589c	-0.09880182
19	0x3e0bf825	0.13668878

weight f4 [1, 20]
0	0xbe506820	-0.2035222
1	0xbe4752ce	-0.19465181
2	0xbde918a4	-0.11381653
3	0x3e2f60fe	0.17126843
4	0x3da826a2	0.082104936
5	0x3e8048bb	0.2505549
6	0x3e7f7da5	0.24950273
7	0x3e664192	0.2248595
8	0xbe33675a	-0.17519894
9	0x3e6fc4ec	0.23414963
10	0xbdf79402	-0.12088777
11	0xbe76222a	-0.2403647
12	0x3e5f1800	0.21786499
13	0xbea112f7	-0.31459782
14	0x3e664a87	0.22489367
15	0xbe69db72	-0.22837618
16	0x3ea39823	0.3195201
17	0x3e90e49a	0.2829941
18	0x3e75e829	0.24014343
19	0x3e8664e1	0.2624884

weight f4 [20, 1]
0	0xbf331c12	-0.69964707
1	0x3e8425b9	0.2581003
2	0xbe511b44	-0.20420557
3	0xbe03dd07	-0.12877284
4	0xbea1b447	-0.31582853
5	0xbec5ac53	-0.38608035
6	0x3e2a949c	0.16658252
7	0xbf67dd59	-0.90572125
8	0x3f06bb93	0.52629966
9	0xbf012e1b	-0.50460976
10	0x3e59174f	0.21200298
11	0xbe5d8093	-0.21631078
12	0x3f81a17d	1.0127407
13	0x3f629e7d	0.88523084
14	0xbcc67913	-0.024227655
15	0xbf5dbff0	-0.86621
16	0xbf177990	-0.59169865
17	0x3ed08620	0.4072733
18	0x3e277714	0.16354018
19	0xbf7d643a	-0.9898106

bias f4 [20]
0	0x3ee72db9	0.4515207
1	0xbf3a8823	-0.7286398
2	0x3ee414b2	0.4454704
3	0xbe21f2a1	-0.15815212
4	0xbd0157dc	-0.03157793
5	0x3f838618	1.0275297
6	0x3e890a31	0.26765588
7	0xbc5e12b7	-0.013554267
8	0xbe8943ea	-0.26809627
9	0xbf5f444e	-0.872136
10	0xbf6b5278	-0.9192271
11	0xbec083c3	-0.37600526
12	0x3cc6f642	0.024287347
13	0x3f163120	0.5866871
14	0x3e90c39b	0.28274235
15	0xbf4012f0	-0.75028896
16	0xbc5dad87	-0.013530142
17	0x3efbd9dc	0.4918965
18	0xbf55eaf4	-0.83561635
19	0x3d49c60c	0.049261138

weight f4 [20, 20]
0	0xbdbbbda1	-0.09167028
1	0xbe610466	-0.21974334
2	0x3e860b7c	0.26180637
3	0xbdb26ee4	-0.08712557
4	0xbd82edb7	-0.06392997
5	0x3e983f24	0.29735672
6	0x3d908208	0.070560515
7	0x3e9ae2d7	0.3025119
8	0xbd2f181b	-0.0427476
9	0x3d77c3b7	0.060489383
10	0xbcc9ad06	-0.024618637
11	0xbd9bb7de	-0.07603429
12	0xbe95c149	-0.29249027
13	0x3d0c54c4	0.034260526
14	0xbe032bf7	-0.1280974
15	0x3e89c927	0.2691128
16	0x3ea59e53	0.32347354
17	0xbe2bcf5d	-0.16778322
18	0x3d8935b9	0.066997
19	0xbdc0eb04	-0.09419826
20	0xbe181714	-0.14852554
21	0x3d4d3bd0	0.05010587
22	0x3d559314	0.052142218
23	0xbe2181c8	-0.15772164
24	0x3db65fdb	0.08905002
25	0xbdd90282	-0.105961815
26	0xbcb1a4e2	-0.021685068
27	0xbd41e840	-0.04734063
28	0x3d468e99	0.048475835
29	0xbc932ec4	-0.017966636
30	0x3dc7c212	0.09753813
31	0x3df7563f	0.12076997
32	0xbe17b66b	-0.1481568
33	0xbc092e3c	-0.00837284
34	0x3de1e668	0.11030275
35	0x3d900998	0.0703308
36	0x3da62928	0.08113319
37	0xbd8a7ebf	-0.06762456
38	0xbdbf700e	-0.093475446
39	0xbe17bbbc	-0.14817709
40	0x3d5d1741	0.053977255
41	0x3e296809	0.16543593
42	0x3d83bc64	0.06432417
43	0xbd8ce256	-0.06879108
44	0xbe2bed11	-0.16789652
45	0xbe56efaa	-0.20989862
46	0xbda43e34	-0.08019677
47	0x3d17c8ee	0.037056856
48	0x3e422552	0.18959549
49	0xbe8f0e42	-0.27940565
50	0x3cbad7af	0.022807924
51	0x3d49cc10	0.049266875
52	0xbda45837	-0.08024638
53	0x3e8c0c4b	0.2735313
54	0xbd00d567	-0.031453516
55	0x3c3a4944	0.011370007
56	0xbdd4e6a0	-0.10395551
57	0x3d85c300	0.06531334
58	0xbd846346	-0.064642474
59	0xbe6023c7	-0.21888648
60	0xbcd055e8	-0.025431588
61	0xbd540680	-0.05176401
62	0xbe993208	-0.29920983
63	0x3d9e0032	0.07714881
64	0x3baa0d34	0.005189562
65	0x3c63d9d9	0.013906919
66	0x3e4caf32	0.19988707
67	0xbe972cd1	-0.2952638
68	0xbd9fa744	-0.07795575
69	0x3d1f036e	0.03882163
70	0x3e6230da	0.22088948
71	0xbe26c88c	-0.1628744
72	0x3dfa1120	0.122102976
73	0x3c4bfa94	0.012449879
74	0xbca0d159	-0.019631075
75	0xbdbdf86d	-0.09275899
76	0xbca74a84	-0.020421274
77	0xbdeba140	-0.11505365
78	0x3deaea21	0.11470438
79	0xbd4ca24c	-0.049959466
80	0xbe9d5eac	-0.3073629
81	0x3df26a72	0.11836709
82	0xbe8b40d8	-0.2719791
83	0xbe702c14	-0.23454314
84	0xbe02d087	-0.1277486
85	0xbcd1fbdd	-0.025632793
86	0x3e8f44a2	0.2798205
87	0xbd223562	-0.03960169
88	0x3e26db2e	0.16294548
89	0xbc9509bf	-0.018193124
90	0x3ddd9a27	0.10820418
91	0xbd462dce	-0.048383527
92	0x3e62f4d0	0.22163701
93	0x3e07e7e0	0.13272047
94	0x3e1dc54a	0.15407291
95	0x3da77fd3	0.081786774
96	0x3ceea1ba	0.029129852
97	0x3e939061	0.2882109
98	0xbc87a7d6	-0.016559523
99	0xbd95ce14	-0.07314697
100	0x3dde923f	0.10867738
101	0x3e23b02a	0.1598517
102	0xbe81fe3a	-0.25389272
103	0xbe20eff3	-0.15716533
104	0xbe3f62b0	-0.1868999
105	0x3c195aa6	0.009359991
106	0x3e94e221	0.29078773
107	0xbe42fcfd	-0.1904182
108	0xbdc05e95	-0.0939304
109	0xbdb4dcbe	-0.08831166
110	0x3e203dbc	0.1564855
111	0xbd3f9abb	-0.04677842
112	0x3de9f958	0.11424512
113	0x3e463755	0.19357045
114	0xbe06b36e	-0.13154384
115	0xbd9e0f85	-0.07717804
116	0xbe28e5a7	-0.16493855
117	0x3e696ea7	0.22796117
118	0xbdf518e1	-0.11967636
119	0xbe03d96a	-0.12875906
120	0xbe611777	-0.21981607
121	0x3e285f07	0.164425
122	0xbd8cc4ff	-0.068735115
123	0x3c5be2b0	0.013420746
124	0xbd3c3f14	-0.045958593
125	0xbd8bb31a	-0.0682127
126	0x3e92eced	0.28696385
127	0xbe6b44db	-0.22975485
128	0x3d536355	0.051608402
129	0xbdffa07c	-0.12481782
130	0x3ddcb664	0.10776976
131	0xbe076fa4	-0.13226181
132	0x3e2c062e	0.16799232
133	0x3d0febe5	0.035137076
134	0xbdfa99f9	-0.12236399
135	0xbd71678c	-0.05893664
136	0xbe57ff14	-0.21093398
137	0x3d1da8f4	0.038491204
138	0x3e1adc59	0.15123118
139	0xbd7c3f23	-0.06158365
140	0xbe72a699	-0.23696364
141	0xbd2de282	-0.042452343
142	0xbe562fb6	-0.20916638
143	0x3cc24c50	0.02371803
144	0xbe5f191c	-0.21786922
145	0x36c2eb31	5.8090304e-06
146	0x3e70c2cd	0.2351181
147	0xbd9faca1	-0.07796598
148	0xbe12c203	-0.14331822
149	0x3d60aab2	0.054850288
150	0x3e7133b6	0.23554882
151	0xbd7dda64	-0.06197585
152	0x3e31d9f5	0.173683
153	0x3e588eec	0.2114827
154	0xbddd409c	-0.10803339
155	0x3e1248cb	0.14285581
156	0xbd22c7d8	-0.039741367
157	0x3e37de4e	0.17955896
158	0x3c717faa	0.01473991
159	0xbe31f296	-0.17377695
160	0x3cf7f7e9	0.03026958
161	0x3dfb7cc1	0.12279654
162	0x3df77053	0.12081971
163	0xbd7d1c94	-0.061794832
164	0x3ea46a19	0.32112196
165	0x3e9f44f7	0.31107304
166	0xbc43c078	-0.011947744
167	0x3e4c4a58	0.19950235
168	0x3dd9a124	0.10626438
169	0x3def2619	0.116771884
170	0xbd28e1be	-0.04123091
171	0xbd16d07f	-0.03681993
172	0x3d831022	0.063995615
173	0xbe8a759d	-0.27042857
174	0xbc945105	-0.01810504
175	0x3e7e0a2b	0.24808566
176	0x3e37d353	0.17951708
177	0x3cf2942d	0.029611671
178	0x3dd792cb	0.105260454
179	0x3ea43d40	0.3207798
180	0x3e549cd1	0.20762946
181	0x3bb12d21	0.005406991
182	0xbc7d203e	-0.015449582
183	0x3e4e8ffc	0.20172113
184	0x3d8b0132	0.06787337
185	0x3e9ec48d	0.3100933
186	0xbe8f8a90	-0.28035402
187	0x3e65266a	0.22377935
188	0xbe8dd6c2	-0.2770291
189	0x3bd25011	0.006418236
190	0x3dd7e77d	0.105422
191	0x3d316619	0.04331026
192	0xbe1e05ba	-0.15431872
193	0xbe802028	-0.25024533
194	0x3e01e5ff	0.12685393
195	0x3d6a99b5	0.057275493
196	0x3e3ed022	0.18634084
197	0xbe87db6d	-0.26534596
198	0xbe55cb65	-0.2087837
199	0xbddb1435	-0.106972136
200	0xbd6bc8e3	-0.057564627
201	0xbd025405	-0.03181841
202	0xbe1ce1e8	-0.15320551
203	0xbdef8833	-0.116959
204	0x3bd53205	0.006506207
205	0x3e3a4999	0.18192138
206	0xbe5fbdf8	-0.21849811
207	0x3dc5d2c0	0.09659338
208	0xbe7eca81	-0.24881937
209	0x3e38adc2	0.18035033
210	0xbde874cf	-0.113504045
211	0xbd91f3a5	-0.0712655
212	0x3e043038	0.12909019
213	0xbd9ae07a	-0.07562347
214	0xbcbaf834	-0.02282343
215	0x3e3f562a	0.18685213
216	0x3e201a4f	0.15635036
217	0xbe04d040	-0.12970066
218	0xbdd288f5	-0.10280029
219	0x3e47ec96	0.19523844
220	0xbdfff197	-0.124972515
221	0xbdbc24e7	-0.09186726
222	0x3d5ed433	0.054401588
223	0xbe998c35	-0.29989782
224	0x3da8163a	0.082073644
225	0xbbf64961	-0.0075160717
226	0x3e43b08d	0.19110318
227	0xbdb48426	-0.08814268
228	0x3e8da29f	0.27663133
229	0xbe9e8e5a	-0.3096798
230	0xbc1cc693	-0.009568828
231	0xbe71538d	-0.23567028
232	0x3e15e232	0.14637068
233	0x3e56dc57	0.2098249
234	0xbc4d4b8f	-0.012530222
235	0x3cf3ba86	0.029752027
236	0xbe21b5eb	-0.15792052
237	0xbc5667c8	-0.013086267
238	0x3dd5bcdb	0.10436412
239	0x3d965b86	0.073416755
240	0xbcd9e899	-0.026600169
241	0xbdc16a5d	-0.09444115
242	0x3de50935	0.11183397
243	0x3e79597a	0.24350539
244	0x3e9a4946	0.30134028
245	0x3db3621d	0.08758948
246	0x3d08d0b0	0.033402145
247	0x3d5fa63e	0.0546019
248	0xbe2a1a0c	-0.16611499
249	0xbd6e792e	-0.058221035
250	0xbdc721d5	-0.0972325
251	0xbdc036c1	-0.093854435
252	0xbe6e66b5	-0.23281367
253	0x3dbafa02	0.091297165
254	0x3e88132d	0.2657713
255	0x3e82347f	0.25430676

bias f4 [20]
0	0x3e2399f3	0.15976696
1	0xbe9402f3	-0.289085
2	0x3ce04e3a	0.027381051
3	0xbd629683	-0.05531932
4	0x3e4ebb2a	0.20188585
5	0x3e369034	0.17828447
6	0x3e08edad	0.13371916
7	0x3d05fa92	0.032709666
8	0x3d8b7a43	0.06810429
9	0xbd886cdc	-0.06661388
10	0x3e136b86	0.14396486
11	0xbbbace2f	-0.0057008485
12	0x3e23f47c	0.16011232
13	0x3e500d18	0.20317495
14	0xbe214e51	-0.15752532
15	0x3dcb76a6	0.0993474
16	0x3d4fa8cc	0.050698087
17	0x3dafe279	0.08588118
18	0x3e8445c3	0.25834474
19	0x3d7014a3	0.05861343

weight f4 [2, 20]
0	0xbe8959e0	-0.26826382
1	0xbde0d5d7	-0.10978287
2	0xbc8adfaf	-0.016952364
3	0x3e10b7d9	0.14132632
4	0x3e0207e8	0.12698328
5	0x3e6d9496	0.23201212
6	0xbd56f69c	-0.05248128
7	0xbd8c3139	-0.06845326
8	0xbe26bbd4	-0.16282588
9	0xbd1a584c	-0.037681863
10	0xbe35b10f	-0.17743324
11	0x3e8cc39b	0.27492985
12	0xbe753025	-0.23944147
13	0x3e29ee8a	0.16594902
14	0xbe1da592	-0.15395191
15	0xbe484bad	-0.19560118
16	0x3e99543a	0.29947072
17	0x3c99a995	0.01875762
18	0xbe97a6fd	-0.2961959
19	0xbd9e772f	-0.07737576
20	0xbe08899f	-0.13333748
21	0x3e099be9	0.13438381
22	0x3e3e156e	0.18562862
23	0x3d5d7134	0.054063037
24	0x3e82d2b3	0.25551376
25	0x3e625463	0.22102503
26	0x3e6e5bc0	0.23277187
27	0x3e7eae21	0.24871112
28	0xbe184399	-0.14869536
29	0xbe73ce60	-0.23809195
30	0xbc1a5f3a	-0.009422118
31	0xbc6945af	-0.014237805
32	0xbe08edd0	-0.13371968
33	0x3e783893	0.24240331
34	0x3e8643ec	0.26223695
35	0x3cda5dfb	0.026656142
36	0x3dab250a	0.08356674
37	0x3e9121d6	0.28346127
38	0xbe7e58b9	-0.24838533
39	0xbe67593d	-0.22592635

bias f4 [2]
0	0xbd40d5c9	-0.04707888
1	0xbe1d701f	-0.15374802
