docs/notebooks/paper_experiments/data/unsupervised/iter_11/model_autoencoder_11.pt (torch, 32391 bytes, 13 tensors)

mean f4 [2]
-0.5212339 1.0660957
00000000: 966f 05bf d375 883f

range f4 [2]
0.52000487 0.4730404
00000000: 0a1f 053f 5a32 f23e

weight f4 [20, 2]
-0.69876343 -0.4271765 0.037875745 -0.4557663 -0.015143516 0.068160884 0.7799201 -0.12308195
-0.33608493 0.06530821 0.34684214 0.07547087 -0.18812688 0.59572643 0.61602205 -0.6342829
0.3151853 -0.5251141 0.4202637 0.64972895 -0.13367142 0.7045991 -0.27614948 0.6208088
-0.11685249 0.123911984 -0.5233587 0.24617903 -0.45250672 0.35129815 -0.77712154 0.44360474
-0.69028527 0.33314133 0.04811193 -0.6228683 -0.10701055 -0.73471385 0.022850858 0.62396276
00000000: 29e2 32bf e1b6 dabe 9923 1b3d 335a e9be
00000010: 821c 78bc ef97 8b3d d8a8 473f 6412 fcbd
00000020: 5313 acbe 50c0 853d 4b95 b13e 7990 9a3d
00000030: 55a4 40be 8781 183f 9fb3 1d3f 5d60 22bf
00000040: f85f a13e e16d 06bf ce2c d73e a354 263f
00000050: 29e1 08be 9b60 343f 7763 8dbe 53ed 1e3f
00000060: 5c50 efbd 91c5 fd3d d6fa 05bf 5b16 7c3e
00000070: f6ae e7be 5add b33e 70f1 46bf 2920 e33e
00000080: 89b6 30bf 8091 aa3e 0411 453d 4c74 1fbf
00000090: 5928 dbbd 3516 3cbf b931 bb3c 06bc 1f3f

bias f4 [20]
0.11500251 -0.5494105 0.24392854 0.49378106 0.5447837 0.62322843 -0.069386095 0.5227719
0.18597884 0.100210525 0.6034311 0.74592304 -0.2575345 0.7091966 -0.11252471 -0.52168983
0.716776 -0.056360573 0.65627646 -0.17902766
00000000: 7086 eb3d 2ba6 0cbf 67c8 793e dfd0 fc3e
00000010: f276 0b3f e68b 1f3f 4c1a 8ebd 61d4 053f
00000020: 3d71 3e3e 2d3b cd3d 767a 1a3f d0f4 3e3f
00000030: 90db 83be e98d 353f 5b73 e6bd 778d 05bf
00000040: a27e 373f 58da 66bd bc01 283f 0753 37be

weight f4 [20, 20]
0.29647258 -0.075126156 0.015561981 -0.25248528 -0.01360886 -0.20933686 0.15066452 0.07629162
-0.23302436 0.18652038 0.11666107 0.025250709 0.2221089 0.02100292 0.10209487 0.13018577
0.30163065 -0.1346346 -0.0438345 0.087664224 0.03922732 -0.19554423 -0.057460178 -0.30651432
0.0014425066 -0.19419588 0.08609493 -0.04639503 -0.27747598 -0.06421877 0.23922585 0.03530991
-0.13200513 0.24329612 0.11540639 0.25866476 0.15076493 -0.03458513 -0.2080108 -0.0636067
-0.13812764 0.28858066 0.017644562 0.17019159 -0.19274117 0.08767398 0.0923191 -0.06893129
0.0072937366 0.19064216 -0.10821553 -0.16345896 -0.052446708 -0.22702652 -0.2429381 -0.06961527
-0.24129972 0.13518883 0.2946284 -0.2738351 -0.07150756 -0.24926089 0.013856494 -0.12988909
-0.06475096 -0.2891822 0.15368675 -0.2034215 -0.02819285 -0.023464946 -0.081698 0.051999986
-0.07175444 0.295251 -0.12075833 -0.104260184 -0.03239843 -0.10766028 0.0788211 0.2777623
-0.16074279 0.2361961 0.14942215 0.021037573 -0.024769237 0.3039098 0.02312806 0.1914617
0.01133413 -0.0376319 -0.25782967 -0.2924534 0.12150996 -0.095074505 -0.24092636 0.0011185234
-0.28769824 -0.027864842 0.19654131 -0.06771321 -0.097390376 -0.17392907 0.20959185 -0.27992022
0.19005336 -0.17275214 0.18600893 -0.07824737 -0.1049327 0.21379167 -0.03911249 0.084803164
0.21360658 0.25763616 0.1120273 0.009934368 0.028753338 -0.016198939 0.08214656 0.24817315
0.17573446 -0.19452073 -0.043084126 -0.04639148 0.2583927 0.020838344 0.059146956 -0.15132336
-0.2996994 0.1701742 0.22575666 0.29627845 -0.025340894 0.15002653 -0.12668788 0.08544374
0.101190284 -0.30159736 0.04874643 0.07809177 0.016295774 0.25552216 0.15312932 0.14801204
0.12737209 0.30105412 -0.108293325 0.2832083 0.17935841 -0.04473533 -0.14757581 0.08222129
0.080682635 -0.24192697 -0.31207424 -0.23296654 -0.29367548 0.14338659 0.23755528 -0.014324415
0.06834434 0.26960358 0.067370795 0.27588773 -0.025007311 0.17441429 -0.05630229 -0.022605458
0.12140037 -0.100223415 -0.058524664 0.05290685 -0.25390774 -0.13268465 -0.06321641 -0.094292544
-0.12718382 -0.052168675 0.19392806 -0.1748099 0.18599457 -0.29828215 0.21162474 -0.19366683
0.17996725 -0.12529117 0.17961879 -0.12468335 -0.09169609 0.12911588 -0.10889727 0.07008681
-0.12866543 0.24344413 0.26603225 -0.10863464 0.28171182 0.11933641 0.114207864 0.07926498
0.005259618 0.079679556 -0.20212124 0.12593862 -0.15467082 0.1996769 -0.18871446 -0.07791435
0.23555553 -0.12641107 -0.1080706 0.105571315 -0.013021209 -0.05161744 -0.12881355 -0.27062067
0.13786794 0.21966211 0.10837253 0.0114929285 -0.21956007 -0.018767372 0.11599174 0.16174777
0.0350716 0.19100796 -0.05970389 -0.03320278 0.069116525 -0.1614945 0.047308985 -0.080583535
-0.0343273 0.13885804 -0.13841613 -0.15232389 0.04371551 0.27757913 0.028677788 -0.28772298
-0.04284586 -0.2253347 0.031140912 0.0636184 0.06294863 -0.2704485 0.07319999 -0.1341042
-0.19092667 0.01591566 0.090013064 0.02800089 -0.042318847 -0.06468085 0.10081509 -0.008895954
00000000: 41cb 973e bedb 99bd aef7 7e3c c045 81be
00000010: b2f7 5ebc 675c 56be cd47 1a3e c83e 9c3d
00000020: f09d 6ebe 33ff 3e3e 00ec ee3d 93da ce3c
00000030: 8470 633e 510e ac3c 1d17 d13d 6b4f 053e
00000040: 556f 9a3e a7dd 09be ce8b 33bd 4d89 b33d
00000050: d4ac 203d bf3c 48be 5d5b 6bbd 72ef 9cbe
00000060: 7d12 bd3a 49db 46be 8a52 b03d b708 3ebd
00000070: 5511 8ebe 2185 83bd 9ff7 743e 20a1 103d
00000080: 5a2c 07be 9e22 793e 2f5a ec3d b56f 843e
00000090: 1f62 1a3e 23a9 0dbd c800 55be 3b44 82bd
000000a0: 5571 0dbe d8c0 933e 548b 903c b446 2e3e
000000b0: f15d 45be 6a8e b33d cc11 bd3d d92b 8dbd
000000c0: 4c00 ef3b b337 433e 1ba0 ddbd c961 27be
000000d0: 5cd2 56bd a479 68be c4c4 78be 7392 8ebd
000000e0: 4617 77be f16e 0a3e 89d9 963e 1d34 8cbe
000000f0: 8e72 92bd 3f3e 7fbe 5906 633c a501 05be
00000100: 279c 84bd b00f 94be 0f60 1d3e ba4d 50be
00000110: b1f4 e6bc 8f39 c0bc 4851 a7bd f0fd 543d
00000120: fef3 92bd 242b 973e 2550 f7bd 5d86 d5bd
00000130: 37b4 04bd fe7c dcbd f56c a13d dc36 8e3e
00000140: c299 24be 64dd 713e 1f02 193e fd56 ac3c
00000150: dbe8 cabc 119a 9b3e 0f77 bd3c 890e 443e
00000160: c9b2 393c e823 1abd 4002 84be 74bc 95be
00000170: 37da f83d 6cb6 c2bd 66b5 76be 6b9b 923a
00000180: 2f4d 93be cf44 e4bc 2042 493e 39ad 8abd
00000190: 9b74 c7bd 761a 32be 3f9f 563e b451 8fbe
000001a0: 599d 423e f0e5 30be 2079 3e3e 2840 a0bd
000001b0: f5e6 d6bd 34ec 5a3e 6b34 20bd 48ad ad3d
000001c0: afbb 5a3e e3e8 833e 926e e53d c2c3 223c
000001d0: 1f8c eb3c a3b3 84bc 753c a83d 1a21 7e3e
000001e0: bcf3 333e 7130 47be fb78 30bd fe04 3ebd
000001f0: 0c4c 843e 2db5 aa3c 1444 723d 83f4 1abe
00000200: 3372 99be 2542 2e3e c12c 673e cfb1 973e
00000210: b597 cfbc 8ea0 193e 78ba 01be 21fd ae3d
00000220: da3c cf3d f86a 9abe 56aa 473d 94ee 9f3d
00000230: b77e 853c cdd3 823e efcd 1c3e 7890 173e
00000240: d46d 023e c423 9a3e e4c8 ddbd ae00 913e
00000250: bba9 373e 653c 37bd 1d1e 17be a363 a83d
00000260: f03c a53d b4bb 77be 32c8 9fbe c88e 6ebe
00000270: a25c 96be efd3 123e b141 733e f3b0 6abc
00000280: 1ef8 8b3d 7b09 8a3e b3f9 893d 2841 8d3e
00000290: 22dc ccbc a999 323e 3b9d 66bd 152f b9bc
000002a0: c2a0 f83d ef41 cdbd 8fb7 6fbd dab4 583d
000002b0: 3200 82be 7cde 07be 9b77 81bd 731c c1bd
000002c0: 7a3c 02be d2ae 55bd 1495 463e 5e01 33be
000002d0: 5c75 3e3e 70b8 98be 28b4 583e 9950 46be
000002e0: 5649 383e 544c 00be fded 373e fc59 ffbd
000002f0: 29cb bbbd f436 043e 8805 dfbd ac89 8f3d
00000300: dfc0 03be 6b49 793e 6135 883e d77b debd
00000310: 883c 903e a666 f43d d0e5 e93d ae55 a23d
00000320: e058 ac3b 092f a33d dff8 4ebe 0ef6 003e
00000330: 0762 1ebe 1a78 4c3e 5d3e 41be 8f91 9fbd
00000340: 7835 713e e771 01be 1e54 ddbd c635 d83d
00000350: e956 55bc cf6c 53bd b3e7 03be cb8e 8abe
00000360: 412d 0d3e 1bef 603e 6bf2 dd3d d64c 3c3c
00000370: 5bd4 60be 08be 99bc 148d ed3d 35a1 253e
00000380: 3da7 0f3d 9797 433e 118c 74bd a3ff 07bd
00000390: f78c 8d3d d05e 25be 11c7 413d fb08 a5bd
000003a0: c89a 0cbd cd30 0e3e f5bc 0dbe cbfa 1bbe
000003b0: 090f 333d da1e 8e3e aeed ea3c 6d50 93be
000003c0: 247f 2fbd 24be 66be 3a1b ff3c 5d4a 823d
000003d0: 36eb 803d 3a78 8abe e0e9 953d 9d52 09be
000003e0: 4882 43be 8f61 823c c558 b83d 1f62 e53c
000003f0: 8756 2dbd 6577 84bd 2478 ce3d 56c0 11bc

bias f4 [20]
-0.031670723 0.03170003 0.0516156 0.19467537 0.10123133 -0.09681325 -0.020670082 0.2110361
0.06753979 0.03509378 -0.047370676 -0.06055389 -0.10289662 -0.018287117 0.14327519 -0.08908201
0.030396197 -0.116358005 0.28485116 -0.04196685
00000000: 29b9 01bd e4d7 013d e16a 533d fb58 473e
00000010: 5f52 cf3d 0646 c6bd 4e54 a9bc d919 583e
00000020: 4d52 8a3d 7fbe 0f3d c107 42bd 5b07 78bd
00000030: 77bb d2bd ddce 95bc bbb6 123e a170 b6bd
00000040: 7201 f93c 1b4d eebd 03d8 913e 6fe5 2bbd

weight f4 [1, 20]
0.23225215 0.13013674 -0.19788839 0.15846902 -0.23968899 0.26427472 0.149201 -0.25186732
-0.10600465 0.13345979 -0.21091974 -0.2064191 0.2181825 0.24087977 0.17507643 0.0955701
0.24014531 -0.22599353 0.20007676 -0.2217465
00000000: 82d3 6d3e 9142 053e 41a3 4abe b445 223e
00000010: 0871 75be 044f 873e 26c8 183e c1f4 80be
00000020: f718 d9bd afa9 083e 58fb 57be 875f 53be
00000030: 3c6b 5f3e 30a9 763e 3c47 333e 42ba c33d
00000040: a7e8 753e d96a 67be ece0 4c3e 8411 63be

weight f4 [20, 1]
-0.97065663 -0.36799696 -0.77647454 0.446395 0.65718895 0.58451056 -0.54166317 -0.07096998
-0.869791 -0.97301936 0.55156183 -0.506874 0.5935204 0.54082125 0.2510972 -0.11013285
-0.067748554 -0.33260357 -0.16450836 -0.20766467
00000000: f47c 78bf 196a bcbe 09c7 46bf e38d e43e
00000010: 893d 283f 7ca2 153f 70aa 0abf b558 91bd
00000020: 9faa 5ebf cc17 79bf 2833 0d3f 7fc2 01bf
00000030: f4f0 173f 4373 0a3f d08f 803e 558d e1bd
00000040: c1bf 8abd 044b aabe e174 28be 0ca6 54be

bias f4 [20]
0.9177013 -0.9326842 -0.0511862 0.93010634 0.08046562 1.003362 0.3290134 -0.08385855
-0.62645406 0.35511798 0.1699527 0.051149875 0.4168372 0.246219 0.4843646 0.5182916
0.29480392 0.547811 -0.3735275 -0.42920023
00000000: 79ee 6a3f 64c4 6ebf 9fa8 51bd 731b 6e3f
00000010: 29cb a43d 2b6e 803f 7274 a83e 08be abbd
00000020: 4b5f 20bf 06d2 b53e 1508 2e3e 8882 513d
00000030: af6b d53e d520 7c3e a3fe f73e c2ae 043f
00000040: 8af0 963e 573d 0c3f ff3e bfbe 22c0 dbbe

weight f4 [20, 20]
-0.01921775 0.11237185 -0.13239597 0.20332628 0.2019286 0.05553377 -0.14901482 -0.1500413
-0.16817322 -0.27583924 0.049631633 -0.1345747 0.27979198 0.1177744 0.011715875 0.022478545
0.093044624 0.005302597 0.0034783443 0.14942177 -0.0799119 -0.13916187 -0.24864328 -0.005669639
0.28219503 0.26670462 0.063465156 -0.03168002 0.09076809 -0.02357444 -0.006976107 -0.24007441
0.039186876 0.1424803 0.14065577 0.1997811 0.08573814 0.033476714 0.10414225 -0.20952253
0.23672454 -0.06351181 -0.049518194 0.10323365 -0.23460934 -0.22332236 0.009489012 -0.13793029
0.28204513 0.08436161 -0.24718654 0.08050381 -0.11868427 -0.28032458 -0.16340199 0.19580115
-0.013218074 -0.075688906 -0.026757408 0.25501385 -0.17943045 -0.06047718 -0.059793185 0.09132355
0.13299392 0.14968222 0.07669652 -0.13679308 -0.046809766 -0.020246461 0.29100963 0.08477409
0.2424563 0.22556598 0.05667787 -0.13569704 -0.18958913 -0.01940199 0.12013929 -0.25343525
-0.2453219 -0.065919586 -0.100850254 -0.08161487 0.24048215 -0.18361801 -0.020139936 -0.041431684
-0.12634993 0.0355965 0.11402382 -0.06420497 -0.1655002 0.2018434 -0.022270955 0.11663859
0.1224294 0.12585606 0.007155032 0.12724456 0.13311358 0.014084545 -0.0015336248 -0.23607658
-0.2994942 -0.14037713 0.109770834 0.0008725032 -0.071531236 0.08608336 -0.076642044 0.26550394
-0.117111675 -0.26264206 -0.15759495 0.07799128 -0.057173163 0.07393807 0.18525098 -0.13200954
-0.17823 0.11910454 -0.23064317 0.07661309 0.26928148 0.17883956 -0.14100333 0.027012393
-0.018593753 0.037452977 -0.08035115 -0.027206786 0.045362532 -0.00585827 0.010547159 -0.115629375
-0.0047418065 0.07959125 -0.2728316 0.099942334 0.19479212 0.13903104 0.018781822 0.0388822
0.004366096 -0.056057796 0.122690804 0.16498008 0.0408633 0.18634243 -0.20119418 0.06790091
-0.046343286 -0.2365375 -0.0947415 -0.027902657 -0.06156536 0.27227783 0.14744896 0.014941571
0.09784664 0.14366624 0.26221114 -0.011319333 -0.008368329 -0.105044626 -0.07044351 -0.121083945
0.1558714 0.04009198 -0.006675361 0.26785672 -0.19804917 -0.005111568 -0.030543072 0.076574504
-0.07019481 0.20259288 -0.03525602 -0.13520923 -0.1670193 -0.20573805 0.15303864 0.0685475
-0.011991512 -0.012839529 0.11384618 0.18504965 0.049461987 -0.20518528 0.104534976 -0.028654227
-0.030873168 -0.09187798 -0.17100322 0.12943973 -0.049199615 0.047365725 0.18283623 0.017049847
0.08526656 -0.14613706 0.14902183 -0.23547605 -0.2694853 -0.27163696 0.11688623 0.16385311
0.29490963 0.15792148 -0.097646125 0.085462146 0.005894857 -0.09331014 0.16330117 0.19873026
0.11209908 0.1915391 0.2110709 0.1785831 0.26008278 0.10313586 0.24638046 -0.24552944
0.056836583 -0.29406562 -0.076985665 -0.18329825 0.23546696 0.25139105 0.08612454 0.0064885714
-0.22228283 -0.28186694 0.03989827 -0.0022163899 0.26752216 -0.09239056 0.05771879 0.0813824
-0.06825253 -0.13299944 0.3082362 0.07401209 -0.09730618 -0.28147504 0.2826156 -0.1026869
0.2184898 -0.111765794 -0.17362463 0.22176597 0.09607523 -0.30790532 0.11202678 -0.07077943
00000000: 8b6e 9dbc 3623 e63d cf92 07be c434 503e
00000010: 5fc6 4e3e 6177 633d 5797 18be 6da4 19be
00000020: 9a35 2cbe cd3a 8dbe 8a4a 4b3d f3cd 09be
00000030: e540 8f3e b433 f13d f1f3 3f3c ed24 b83c
00000040: 2e8e be3d 68c1 ad3b eff4 633b 0502 193e
00000050: daa8 a3bd 7380 0ebe 589c 7ebe 61c8 b9bb
00000060: de7b 903e 828d 883e 05fa 813d e9c2 01bd
00000070: 9fe4 b93d 2f1f c1bc d497 e4bb 11d6 75be
00000080: 6b82 203d 5be6 113e 1108 103e 6b93 4c3e
00000090: 7a97 af3d e11e 093d 8848 d53d 138d 56be
000000a0: eb67 723e 7b12 82bd 97d3 4abd 2a6c d33d
000000b0: 6e3d 70be 9eae 64be cd77 1b3c 993d 0dbe
000000c0: 3868 903e c8c5 ac3d 781e 7dbe 2edf a43d
000000d0: bd10 f3bd b486 8fbe da52 27be 1980 483e
000000e0: 9f90 58bc c902 9bbd 5a32 dbbc 2d91 823e
000000f0: 9ebc 37be ebb6 77bd b3e9 74bd d707 bb3d
00000100: 8f2f 083e 4c46 193e 1113 9d3d 7c13 0cbe
00000110: 99bb 3fbd e8db a5bc 37ff 943e 0a9e ad3d
00000120: 7746 783e c5fa 663e 0e27 683d 2af4 0abe
00000130: a723 42be ecf0 9ebc 970b f63d 44c2 81be
00000140: aa35 7bbe d900 87bd 948a cebd b225 a7bd
00000150: f440 763e 5c06 3cbe 82fc a4bc 45b4 29bd
00000160: e061 01be a3cd 113d 5285 e93d e57d 83bd
00000170: e278 29be 09b0 4e3e 9471 b6bc 37e0 ee3d
00000180: 44bc fa3d 69e0 003e c274 ea3b 664c 023e
00000190: ed4e 083e ddc2 663c e903 c9ba 0fbe 71be
000001a0: 4e57 99be 06bf 0fbe 88cf e03d b3b8 643a
000001b0: f87e 92bd 794c b03d 81f6 9cbd 22f0 873e
000001c0: 3fd8 efbd 0579 86be 9260 21be e4b9 9f3d
000001d0: 682e 6abd d86c 973d 6fb2 3d3e 822d 07be
000001e0: ed81 36be 15ed f33d b92d 6cbe 53e7 9c3d
000001f0: 43df 893e b821 373e 2d63 10be 1849 dd3c
00000200: ed51 98bc 4b68 193d 258f a4bd c4e0 debc
00000210: 10ce 393d bbf6 bfbb fecd 2c3c 18cf ecbd
00000220: 2861 9bbb bd00 a33d 95b0 8bbe 91ae cc3d
00000230: 9677 473e 275e 0e3e 56dc 993c f142 1f3d
00000240: 7811 8f3b dc9c 65bd 5145 fb3d 8af0 283e
00000250: 4760 273d 8dd0 3e3e d905 4ebe a20f 8b3d
00000260: 75d2 3dbd e336 72be d507 c2bd 1d94 e4bc
00000270: f52b 7cbd 0068 8b3e dcfc 163e 7ecd 743c
00000280: d263 c83d 3e1d 133e 8a40 863e b974 39bc
00000290: 511b 09bc a321 d7bd b044 90bd dcfa f7bd
000002a0: c19c 1f3e 7d37 243d fdbc dabb 8424 893e
000002b0: 67cd 4abe f17e a7bb 7735 fabc 18d3 9c3d
000002c0: 4cc2 8fbd 8274 4f3e 9e68 10bd 4a74 0abe
000002d0: 1b07 2bbe ffac 52be 29b6 1c3e a262 8c3d
000002e0: 0c78 44bc e35c 52bc 3028 e93d a87d 3d3e
000002f0: a798 4a3d 171c 52be 6f16 d63d 45bc eabc
00000300: bae9 fcbc 862a bcbd 781b 2fbe d98b 043e
00000310: 8985 49bd 9002 423d 6c39 3b3e 1fac 8b3c
00000320: 3ca0 ae3d f4a4 15be 2e99 183e a220 71be
00000330: faf9 89be 0014 8bbe 0c62 ef3d 1cc9 273e
00000340: 65fe 963e 2bb6 213e b1fa c7bd c706 af3d
00000350: a529 c13b 6319 bfbd 6c38 273e f27f 4b3e
00000360: 3494 e53d d322 443e f822 583e 7dde 363e
00000370: 9229 853e e538 d33d 294b 7c3e 126c 7bbe
00000380: 7acd 683d c58f 96be a9aa 9dbd 89b2 3bbe
00000390: 401e 713e 54b6 803e 1062 b03d 159e d43b
000003a0: 1c9e 63be dd50 90be 5e6c 233d da40 11bb
000003b0: aaf8 883e 4337 bdbd 8a6a 6c3d d1ab a63d
000003c0: fcc7 8bbd 0131 08be 23d1 9d3e a793 973d
000003d0: 7648 c7bd 7f1d 90be feb2 903e 824d d2bd
000003e0: cabb 5f3e 77e5 e4bd a8ca 31be 9e16 633e
000003f0: 17c3 c43d c4a5 9dbe 4c6e e53d cef4 90bd

bias f4 [20]
-0.08051332 0.19426095 0.13521132 -0.12089911 0.02471737 0.18703173 -0.1908754 -0.10827785
0.22222379 -0.031742442 -0.097893104 0.06410636 0.052908435 -0.12763567 0.22713317 -0.011849483
0.10121518 0.07942276 0.20828445 0.28324014
00000000: 2be4 a4bd 58ec 463e d674 0a3e f499 f7bd
00000010: 157c ca3c 3f85 3f3e d774 43be c7c0 ddbd
00000020: a28e 633e 5d04 02bd 2e7c c8bd 324a 833d
00000030: 84b6 583d edb2 02be 9995 683e 5524 42bc
00000040: e749 cf3d 66a8 a23d 8548 553e da04 913e

weight f4 [2, 20]
-0.20623268 -0.15673934 0.19087873 -0.24482332 -0.123972416 0.18124302 0.10194892 0.12793669
0.13716456 -0.2137849 0.2838666 0.044812795 0.12793155 0.18886131 0.15129553 -0.17014113
0.038807217 0.12919366 0.22788788 -0.05611678 0.3075698 0.15064043 -0.0407746 0.22824186
0.0015603752 -0.18846771 0.20842864 -0.17817126 -0.014298512 -0.07972715 -0.31040236 -0.19558543
-0.11439431 0.06753405 -0.047219127 0.15876175 0.2050356 -0.22435236 0.055861127 -0.20569412
00000000: a92e 53be 4780 20be b775 433e f7b2 7abe
00000010: 40e5 fdbd c597 393e 98ca d03d d601 033e
00000020: de74 0c3e 6eea 5abe f756 913e 9f8d 373d
00000030: 7d00 033e dc64 413e 37ed 1a3e 7a39 2ebe
00000040: 51f4 1e3d 584b 043e 715b 693e b5da 65bd
00000050: ca79 9d3e 7c41 1a3e 4403 27bd 3cb8 693e
00000060: 8185 cc3a aefd 40be 516e 553e 8772 36be
00000070: 4e44 6abc fd47 a3bd 0fed 9ebe 8c47 48be
00000080: 9047 eabd 4b4f 8a3d d868 41bd 7192 223e
00000090: daf4 513e a0bc 65be a3ce 643d 7ba1 52be

bias f4 [2]
0.1539383 -0.1405069
00000000: 00a2 1d3e 0ae1 0fbe
