docs/notebooks/paper_experiments/data/multitask/decoder_stats/decoder_model_4.pt (torch, 19541 bytes, 8 tensors)

weight f4 [16, 1]
00000000: 952a 82bf 35dc aebe 41d2 663f e57d f83e
00000010: 4e87 97be 4030 333f feca 7e3f 4e05 7cbf
00000020: e6f5 f5bb 043f 3f3f b993 433f 1ec9 773f
00000030: 110d 0d3f 1317 56bf 27db 0f3f a661 6a3e
-1.0169245 -0.3415238 0.9016457 0.4853355 -0.29595417 0.699955 0.9952849 -0.98445594
-0.00750612 0.7470553 0.7639728 0.96791255 0.5509806 -0.8362896 0.56193775 0.22888812

bias f4 [16]
00000000: 3278 163e 4be8 083f 7bef 44bf 0d8d 4abf
00000010: 3e8a ba3e f04c 0a3f 1df2 2cbf f837 5fbf
00000020: f573 6fbe a4ba 153f b999 28bf 3978 6abe
00000030: cb00 2dbf 82f1 f73e bb60 c0be 9d5b 74bd
0.14694288 0.5347945 -0.7692792 -0.79121476 0.36433595 0.5402365 -0.67556936 -0.87194777
-0.23384078 0.58487916 -0.6585956 -0.22897424 -0.67579335 0.48426443 -0.375738 -0.05965768

weight f4 [32, 16]
00000000: 6703 3e3e 6cf8 f9bd 13e4 193e 6f47 ac3d
00000010: baef bc3e a737 3e3e d4fb fa3d ae34 a03e
00000020: c163 fd3d 8309 8d3d b036 0bbe 01dc 0d3d
00000030: 4ba8 8fbd c379 8c3e 8c3e eebd fb75 85be
00000040: a0d9 833e 2026 3f3e 64af 21be ca34 8f3d
00000050: 9d56 a7bd 7e84 3fbe 697f 22be e82f b1bd
00000060: 0f11 243e bf9c e5bd df68 933c 649e dd3d
00000070: 9904 81be f72d 5ebd c60a f93d f10d 57be
00000080: 4932 2cbe b3d4 693d 8b70 dcbd 8652 a53d
00000090: aac3 e3bb 0f2a 033e 62f9 3f3d 1693 62be
000000a0: 3a91 a43d 538d cc3b 2792 593d 884e 1b3e
000000b0: 49a9 70be b566 1e3e fa23 263d 73f3 a8be
000000c0: 0238 6e3d e0e7 523e aa7c c0be 346c 09bf
000000d0: 8326 e23d 2d34 a2be fad5 6bbe 6379 00be
000000e0: d4bc 2b3c 1c31 d6bd a44d 73be 34b8 3bbd
000000f0: dbe7 08bf 7475 013e 9d85 8bbd 00dd 21bf
00000100: 2883 3b3e 3f58 313e 2325 0cbe e0a5 2dbe
00000110: 543a a73a 7723 253e 99f3 73bd feb3 703e
00000120: 86d8 73bd 503e bebd 4933 883c ed2e 2f3e
00000130: 62b0 873d 2683 ae3d 22bf 2d3e 11a6 073e
00000140: fe43 853e 240e 613e 2335 37bd d1bf da3e
00000150: a248 ad3d 0caa 0c3d 6b24 6b3e 14f8 033f
00000160: 9f85 47bd cfbb 90bd 4f4d 1f3e c74c 16be
00000170: 34fe 6b3e 3141 993e 2edc a63b 4e81 3e3e
00000180: 475a 773e c6e3 983d cd17 4abe 49c0 a7be
00000190: 7287 c83d 3a6e cbbe 57f8 78be 6e9b 96be
000001a0: 12f3 313e 58b2 bfbe 4aa2 6bbe 5e7a 71be
000001b0: 1ea7 5bbe 2d92 203a b4b6 a43c a208 4ebe
000001c0: 384b 1a3d 6f79 e13b 2d3c d8bd 463f 72be
000001d0: 21d5 b1bd 6a48 43be 73ad 01be d987 9c3c
000001e0: ee9d 063c 383f 3dbe 7f85 a4bd bc6f 63be
000001f0: a74c 823b 09f0 b33d f544 5dbe 0d39 1a3e
00000200: 6080 98be c720 e5bd 2db9 02bd 2482 5cbe
00000210: 2125 2dbe d69b 733e 1912 78be f312 d9bd
00000220: 3bfc 00be 2972 533e f977 79be 7d7f 87bd
00000230: fc18 85bb 654d e6bd 2b8e 943d 59e7 2b3e
00000240: 281c f3bc bcec 993d 7985 12be f1ad 61bd
00000250: 3593 593e d9c3 0c3d a6c3 a6bc 834d 62bd
00000260: 4dde 18be 557f ad3d 154b 83be 5237 acbe
00000270: db63 923d 5719 5b3d 78bf e4bd d019 f9bc
00000280: 4493 483e 926c 383e 2c26 543e 4f69 153e
00000290: 9516 b8bd 7a01 b1bd fa56 c43a 71b3 e83e
000002a0: ea65 1b3e a0e7 7c3d 00f6 8e3d 2834 b03c
000002b0: 3af1 0cbe e975 a33e 140c 8e3d c581 e63c
000002c0: e117 a4be 5d0a 76be 8f08 19be f394 77bd
000002d0: 22c3 243d 59be 0cbd 1803 9c3c 29cd f23c
000002e0: 05da ff3d 7951 f43d 6d09 31be 0879 433e
000002f0: f9b8 91be 613a 9a3d 467f 4b3e 3a44 81bc
00000300: 4572 75be d676 5cbd 627e 353e d5b1 3e3d
00000310: 89f0 2e3d 2767 233e 7045 973d f985 f43c
00000320: 4342 293e 74cf 0e3e f855 1f3e 0278 dfbd
00000330: 7366 e33d eec9 363e 8b61 833e 9bad 6b3c
00000340: 99e3 613e f586 a3bd 2c34 6dbc 3aa5 dbbd
00000350: 814c 953d 95bb 123e 39e4 7a3d 7a9e 92be
00000360: d57b 5d3d 29a9 74be c464 36bd 17dc 4abe
00000370: 62eb 863c 6add 5b3e 4d8e 59be f12d a8be
00000380: 943b e7bd 405f 893e 9ce5 08bd 180d 1cbe
00000390: caa0 913e 6612 84be 79e0 94bc 9106 fb3d
000003a0: a69e 773e b3e9 143e 1534 66be b7af 87be
000003b0: 2da0 933c 5e08 1ebe 1d55 a8be d46c 23bc
000003c0: 57c5 433e 1bad 743d 9497 1cbe 173c db3c
000003d0: 617a 96bc 5d18 483e a686 a83d 1106 d83e
000003e0: 3cac 73bd 3bf8 433e 7f3e 733e baa6 9ebd
000003f0: 96c4 85be 7848 023e 1b9e 60be 2457 80be
0.18555985 -0.12205586 0.1502841 0.084120624 0.36901647 0.18575917 0.12255064 0.3129019
0.12372542 0.0688658 -0.1359508 0.03463364 -0.07014521 0.27436647 -0.116330236 -0.26066574
0.25751972 0.18666887 -0.15789562 0.069924906 -0.08170817 -0.18702886 -0.15868916 -0.086517155
0.16022132 -0.112115376 0.017994342 0.10821226 -0.2519882 -0.054243054 0.12160258 -0.21001412
-0.16816057 0.05708761 -0.10763653 0.08072381 -0.006950815 0.12809013 0.04686869 -0.22126421
0.08035512 0.006242433 0.053117897 0.15166676 -0.23502077 0.15468867 0.040561654 -0.32998237
0.058158882 0.20596266 -0.3759511 -0.5368073 0.11042502 -0.31680432 -0.23030844 -0.12546305
0.010482032 -0.104585856 -0.23760086 -0.045829967 -0.53478783 0.12642461 -0.06812594 -0.63227844
0.18311751 0.1731882 -0.13686042 -0.16957808 0.0012758472 0.1612681 -0.059558485 0.23506162
-0.059532665 -0.09289229 0.016626017 0.17107745 0.06625439 0.08521108 0.16967443 0.13246943
0.26028436 0.2197805 -0.04472841 0.4272447 0.08461119 0.034341857 0.22963111 0.5155041
-0.048711415 -0.07067072 0.15556835 -0.14677726 0.2304619 0.2993255 0.0050921654 0.18604013
0.24155532 0.07465319 -0.19735642 -0.3276389 0.09791459 -0.39732534 -0.24313484 -0.29415458
0.1737788 -0.37440753 -0.23011127 -0.23581836 -0.21450469 0.00061252975 0.02010665 -0.2012048
0.03766939 0.006880931 -0.105583526 -0.2365695 -0.08683229 -0.19070593 -0.12663822 0.019107746
0.008216364 -0.18481147 -0.08033275 -0.22210592 0.003976423 0.087860174 -0.21608336 0.15060826
-0.29785442 -0.111878924 -0.03191488 -0.2153402 -0.16908695 0.23789915 -0.24225654 -0.105993174
-0.12596218 0.20649017 -0.24362172 -0.06616113 -0.0040618163 -0.112452306 0.07253679 0.16787471
-0.029676512 0.075158566 -0.14308728 -0.055097524 0.21247561 0.034366462 -0.020356964 -0.055249702
-0.14928551 0.08471552 -0.2564322 -0.33635956 0.07147952 0.053490963 -0.11169332 -0.030407816
0.19587427 0.18010166 0.20717686 0.14590953 -0.08988682 -0.0864286 0.0014979534 0.45449403
0.15175596 0.061744332 0.069805145 0.021509245 -0.13763896 0.31925896 0.069358975 0.02813805
-0.32049468 -0.24027391 -0.14944671 -0.060444783 0.040225156 -0.034361217 0.019044444 0.029638844
0.12492756 0.11929602 -0.17288752 0.19089139 -0.28461435 0.07530666 0.1987277 -0.015779603
-0.23969372 -0.05382427 0.17723992 0.046556313 0.04270986 0.15957318 0.07386291 0.02984904
0.16529183 0.13946325 0.15560138 -0.109115615 0.11103525 0.17850468 0.25660357 0.0143846525
0.22059478 -0.079847254 -0.014477771 -0.10724874 0.072899826 0.1432937 0.061252806 -0.28636533
0.054073174 -0.23892654 -0.04452969 -0.1981052 0.016469661 0.21471182 -0.2124569 -0.3284755
-0.112906605 0.26830482 -0.033422098 -0.1523937 0.28442985 -0.25795287 -0.018173443 0.12257112
0.24181613 0.14542274 -0.22480805 -0.26501247 0.018020714 -0.1543288 -0.32877436 -0.009974677
0.19118248 0.0597354 -0.15292197 0.026762052 -0.018368902 0.19540544 0.08228807 0.42192128
-0.059490427 0.19137661 0.23754309 -0.07746644 -0.26126546 0.12722957 -0.21935312 -0.25066483

bias f4 [32]
00000000: b807 2abe 5081 39be 51e2 523e 21e9 b53d
00000010: de55 0bbe 8bed 01bd 6a1f 00bd 2d25 c63d
00000020: 9c14 c33d f472 023e e731 91be c0a5 6dbe
00000030: 4c77 34be 9729 803e 3709 d4bd 1ede 263e
00000040: 50aa b83d 0dcf 143e c5c9 6bbe 5e66 d0bd
00000050: 264d 95bc 39f9 33be 80fa 8ebd 8ab8 3a3e
00000060: ae1b 273e 0fbe 15be 088d a93d def2 15be
00000070: 56f2 423d 908d 213e e309 60be 5507 52be
-0.16604507 -0.18115735 0.20594145 0.088823564 -0.13606974 -0.03172068 -0.03127996 0.096750595
0.09525415 0.12739164 -0.28358385 -0.2320776 -0.17623633 0.2503173 -0.1035332 0.16295668
0.090168595 0.14532109 -0.23026188 -0.10175775 -0.018225264 -0.1757554 -0.06981373 0.18234459
0.16319153 -0.14623283 0.08278853 -0.14643428 0.04759439 0.15776658 -0.21878771 -0.2051061

weight f4 [2, 32]
00000000: ea43 633e cecf babd 4751 983c 9b7f 21be
00000010: 0cc7 e63b 4dbf 0a3e fd10 83be a8e6 9cbd
00000020: ff85 103e 3498 bbbd 7c75 763e d326 e93d
00000030: 8d5b 723d 8ffe 60be 095d 0dbe 9f0f 023e
00000040: 4167 a93d 90e0 a73e ae76 263e 03bc 31bd
00000050: 98c4 323e 0aee debd 5533 7c3d ddb1 ff3d
00000060: 51aa 13be 61aa 6fbe e5e3 56bd b9ed d8bd
00000070: 01d4 76be b545 4abc 591d 64be 7335 ad3e
00000080: a1a8 3a3d d4c5 213e 0e92 1fbe 32bd 89be
00000090: a746 443e 2e89 f13d c46f b0bc 347a 123e
000000a0: 1026 4c3d a588 953d 394f b43d ef35 183d
000000b0: 107e 09be 1d07 28be b962 283d d17e 9a3c
000000c0: 8fbc 713d 160b a43e 558a 2f3e 6f39 5dbe
000000d0: 9568 dfbc 2900 353e bf67 563e f16d a6bd
000000e0: 617e 88bd 1484 e23c 8ab6 303d 1f31 353e
000000f0: db97 b63b 0093 0f3e e94e 9cbd 466e 39bd
0.22193876 -0.09121667 0.018593444 -0.15771334 0.007042771 0.13549538 -0.255989 -0.07661182
0.14113615 -0.0915989 0.24068254 0.11384358 0.05916934 -0.21972106 -0.13805021 0.12701271
0.08271647 0.32788515 0.1625621 -0.043392193 0.17457807 -0.10885246 0.06157239 0.124850966
-0.1442044 -0.23404838 -0.05246343 -0.10592217 -0.2410431 -0.012345721 -0.2227682 0.3382984
0.045570973 0.15798122 -0.15583059 -0.26902157 0.19167577 0.11793743 -0.021537669 0.1430443
0.049840987 0.073014535 0.08804173 0.03716081 -0.13426995 -0.16408964 0.041109774 0.018859299
0.059017714 0.32039708 0.17142613 -0.2160394 -0.027271548 0.17675842 0.20938013 -0.081264384
-0.0666473 0.02765087 0.043142833 0.1769452 0.005572302 0.1402092 -0.076322384 -0.04527118

bias f4 [2]
00000000: bc16 183e 2563 76be
0.14852422 -0.24061258

mean f4 [2]
00000000: ba88 013d 521b 303f
0.031624533 0.6879169

range f4 [2]
00000000: f670 363f a01a 143f
0.71266115 0.57853127
