docs/notebooks/paper_experiments/results/unsupervised/iter_14/model_autoencoder_14.pt (torch, 32391 bytes, 13 tensors)

mean f4 [2]
000000 27 c8 c0 be 89 5b 78 3f
       -0.37652704 0.9701467

range f4 [2]
000000 ea f7 1f 3f ef 90 08 3f
       0.6248766 0.5334615

weight f4 [20, 2]
000000 5c 71 53 3f a3 79 23 bf 90 53 bf be 9c 86 43 3f
       0.8259485 -0.6385748 -0.3736844 0.7637727
000010 ce 97 ed be 60 35 6b 3f 5a 5d 74 3f f9 7a 05 bd
       -0.4640488 0.9187832 0.95454943 -0.03258798
000020 fa 0a be bf c6 d8 38 3f 23 03 31 3f 85 c7 4b bf
       -1.48471 0.7220577 0.6914541 -0.7960132
000030 80 d3 07 bb 82 3c 3f 3f 64 12 07 bf cd 87 c2 3e
       -0.002072543 0.747017 -0.52762437 0.37994233
000040 a9 b6 82 bf ba e5 58 3e 75 b1 65 bf 21 d5 8b 3b
       -1.0211993 0.21181384 -0.897239 0.0042673503
000050 07 a7 3f bf 92 08 20 3f 55 14 97 be 63 8a da 3e
       -0.7486424 0.6251308 -0.295077 0.42683706
000060 58 c0 8e be 7a 61 ec 3e a0 78 93 be 5d 7b 1c bf
       -0.27881122 0.4616812 -0.28802967 -0.6112574
000070 90 de 9a bd c7 8a 31 3f d7 4c a0 3e ea 7c 03 bf
       -0.07561982 0.6935238 0.31308624 -0.5136248
000080 d3 6c 7f 3f 5a 53 47 bf dc ce 9b be 12 88 8e 3e
       0.9977543 -0.7786156 -0.3043126 0.27838188
000090 eb 41 59 3f 76 16 f9 be 9f 64 f1 be 06 dd 66 bf
       0.8486621 -0.4864995 -0.4714708 -0.90181005

bias f4 [20]
000000 0f 05 f0 3e 5f 0d ef bd 92 f1 f4 bc 6f 1f 86 3f
       0.4687886 -0.11672472 -0.029900346 1.0478343
000010 8c 01 c9 be c4 d7 c3 bd 87 a3 a0 be fe fd 05 3d
       -0.39258993 -0.095626384 -0.3137476 0.03271293
000020 9a 9e e7 bc 4c a8 f8 be d8 11 a1 be c0 ee 15 3f
       -0.02827387 -0.485659 -0.31458926 0.5856743
000030 be ff 1f 3f 2c 74 03 bf bc 1b 5c be 1e 4d cb be
       0.62499607 -0.5134914 -0.21494955 -0.39707273
000040 f9 5d 49 3f ea e3 be bd 77 e3 50 3f 5e ef 53 3f
       0.78659016 -0.09320815 0.81597084 0.8278712

weight f4 [20, 20]
000000 02 d8 66 be da b7 63 3e 4a 73 3f bd 08 79 f8 3d
       -0.22543338 0.22238103 -0.046740808 0.1213246
000010 6c c1 6b be 5c e5 82 be c8 d3 1b 3e 4f b3 51 3e
       -0.23023003 -0.25565612 0.15217507 0.20478557
000020 86 1f 6e bd 84 de 05 be 24 a5 39 bf 88 c4 9b 3c
       -0.05813553 -0.13073164 -0.7251761 0.019014612
000030 0d d4 c1 3d aa 5d c5 bc 71 4d 65 3e ca 58 66 be
       0.094642736 -0.024092514 0.22392823 -0.22494808
000040 40 27 ff 3c 9d dc 2d 3c c8 b7 92 bd 12 dd fa 3d
       0.031146646 0.01061168 -0.0716396 0.12249197
000050 d1 e3 c2 3c 81 c2 cb be 89 ec 03 bf ce 8c b4 3e
       0.023790272 -0.39796832 -0.515328 0.35263675
000060 7d 88 28 be 89 81 8b 3e 14 17 af be 8f db 0c be
       -0.16458316 0.27247265 -0.34197295 -0.1375563
000070 f4 d1 59 be 31 ba 28 bd f6 e3 c8 be 5f 5f de be
       -0.21271497 -0.04119319 -0.3923642 -0.43432137
000080 da 46 80 be 84 cd 0d 3e 8c a5 f3 bd 20 31 61 3d
       -0.25054055 0.13847929 -0.1189681 0.05497849
000090 11 bf 9c 3e f7 4c bd be ce a3 62 3e e3 38 6e 3e
       0.30614522 -0.36972782 0.22132799 0.23263888
0000a0 86 0c dd 3e f5 e7 54 be ba f3 ee be 66 f0 24 3f
       0.43173617 -0.2079161 -0.46670324 0.6442932
0000b0 4f 98 12 bf c3 e9 0a 3e a8 4d cd be 71 73 b0 be
       -0.57263654 0.13565736 -0.4009831 -0.34463075
0000c0 08 bd 65 be 75 7f c2 bd b3 f5 28 bf b9 21 fb be
       -0.22435391 -0.09496967 -0.6599991 -0.49049166
0000d0 c8 d7 b7 be e8 9a 02 be 0b af 0a bf 1f 6a cc 3e
       -0.35906816 -0.12754405 -0.54173344 0.39924714
0000e0 23 6f d8 3e 6f b7 25 be e1 c7 03 3e ee 1c 0c 3e
       0.4227229 -0.16183256 0.12869217 0.13682911
0000f0 5e 5c a8 be 94 30 50 3e 25 70 61 be dc 15 d2 3d
       -0.3288297 0.20331031 -0.22015436 0.102580756
000100 0e 61 e2 be f9 16 ab be f8 e0 34 be f6 f7 d9 bd
       -0.44214672 -0.33415964 -0.17663944 -0.10642998
000110 f2 c7 4b be a0 f3 6f be 95 8c 7a be 44 eb b1 3c
       -0.19900492 -0.2343278 -0.2446769 0.021718629
000120 8b 75 ae 3d c1 0f 0c bd 15 47 1d be ae 2c aa be
       0.08518513 -0.03419471 -0.15359147 -0.33237213
000130 38 41 85 be 36 79 d4 be 64 66 9c be 91 ff 32 be
       -0.2602632 -0.41498727 -0.30546868 -0.17480303
000140 70 9a 4c be 0a 5d 1d bd 82 49 0e bd fe 51 85 bd
       -0.19980788 -0.038418807 -0.03473807 -0.065097794
000150 a1 ee c9 be b5 a8 62 be 8d 7c 9f 3d 49 04 2c 3b
       -0.39439872 -0.22134669 0.07787428 0.0026247671
000160 7e db 66 be 5a 4a ec bc 46 d2 0b bf df d8 69 3d
       -0.22544667 -0.028844047 -0.54617727 0.05709159
000170 17 c1 8f 3e 60 2c 86 bd d7 1b b5 bb 2f 9a a3 be
       0.28077003 -0.065514326 -0.0055270004 -0.3195357
000180 f2 b3 0f be 5d dc 34 3d f8 3c 00 be 68 e6 9e 3d
       -0.14033487 0.044155467 -0.12523258 0.0775879
000190 01 5f 1b 3b 93 08 c5 3e 4a 08 ce 3e d0 49 32 bf
       0.002370775 0.38483104 0.402407 -0.6964388
0001a0 68 9a c4 3f 38 d0 18 3d b3 80 21 3f d3 05 11 3f
       1.5359621 0.037307948 0.63087004 0.5664951
0001b0 3c ab 4d 3f aa 4c 5e 3f 05 fb d8 3f 21 2c b7 3e
       0.8033941 0.8683573 1.6951605 0.35775855
0001c0 d8 59 21 3e cf 78 d9 3d 36 1f 28 3f 46 fb a2 be
       0.15756929 0.106187455 0.65672624 -0.3183233
0001d0 2a 6d 0e 3d 50 ae 31 3f 60 cb 18 be 6e 8e bb 3d
       0.034772076 0.69406605 -0.14921331 0.09158026
0001e0 8e 89 9d 3e 4b d3 af be 0b 05 1e be f7 e8 c8 3e
       0.30769008 -0.3434089 -0.15431611 0.39240238
0001f0 d0 d3 84 be b3 1a a8 3e 04 66 bb be 33 c7 8a be
       -0.2594285 0.3283287 -0.3660127 -0.27105102
000200 d7 78 09 be 55 f8 22 be 37 b5 f8 be 63 bc d6 be
       -0.13425003 -0.15915044 -0.48575756 -0.41940603
000210 17 c8 a3 bc 00 70 18 be 97 50 11 bd d5 b5 20 3e
       -0.019992871 -0.14886475 -0.035477247 0.15694363
000220 03 55 7e 3e b2 ae 57 be 01 67 cb 3e 83 0b d2 3d
       0.24837117 -0.21062735 0.39727023 0.10256102
000230 52 7b 93 be 61 2a 0e 3d b0 21 f5 bd 1b 1c d9 3e
       -0.28805023 0.034708384 -0.11969316 0.42404255
000240 54 24 1c be 6f 17 91 be 1e f1 1e bc 79 42 bd 3d
       -0.15248233 -0.2833819 -0.0097010415 0.09241194
000250 ef 81 6c be 00 b5 74 be b3 0d 02 bf c5 56 8c 3e
       -0.2309644 -0.23897171 -0.50802153 0.2740995
000260 8d c3 98 3e f0 f2 83 be 31 11 e3 3d 42 bd a4 bc
       0.29836693 -0.25771284 0.110872634 -0.020109776
000270 50 cd a1 be d3 b4 ab be 24 0a 6d be 59 ce 5e be
       -0.31601954 -0.33536395 -0.231484 -0.21758403
000280 80 04 21 3e 09 e3 c8 be 2a 83 45 be 3b bc e6 3e
       0.15724373 -0.39235714 -0.19288316 0.45065483
000290 e5 52 f6 be b3 f6 07 3e a3 17 e2 be ec d9 8e be
       -0.48110119 0.13277702 -0.44158658 -0.27900636
0002a0 4f 83 90 be a9 30 bb be 20 10 c6 be c1 83 c9 be
       -0.2822518 -0.36560562 -0.38684177 -0.39358333
0002b0 b8 1e 74 be 92 47 45 3e fe 35 b5 be a2 a3 0b 3e
       -0.23839843 0.19265583 -0.35392755 0.1363664
0002c0 d0 a7 7b 3d 20 cb 90 be 28 ac b7 3e c5 1d 15 3e
       0.061439335 -0.28279972 0.35873532 0.14562137
0002d0 c0 d9 1b 3d e2 21 a8 be da a3 9f be 8f 85 d8 3e
       0.03804946 -0.3283835 -0.31179696 0.42289397
0002e0 4e 0b 0a bf 47 bd 58 3e 3c 19 95 be 6c b6 df be
       -0.539235 0.21165954 -0.29120815 -0.43693864
0002f0 0f c8 82 be 3d 4a 95 be f1 3a 16 bf 77 17 ed be
       -0.25543258 -0.29158202 -0.5868369 -0.46306965
000300 68 72 4d bd 3c d9 e2 3d 3d b0 01 bf 91 b5 9b 3d
       -0.050157934 0.110765904 -0.50659543 0.076029904
000310 f5 0a c5 3e 45 e2 e9 be 8d fc 80 3e 72 13 9f 3d
       0.38484922 -0.45680442 0.2519268 0.07767381
000320 22 a2 a6 3e 45 6a 03 be d5 09 b6 be d8 cd be 3e
       0.32545573 -0.12833507 -0.35554376 0.3726642
000330 ad 77 5f be 54 e8 6a 3e e4 45 8e be d1 75 e7 be
       -0.21822996 0.22940189 -0.27787697 -0.45207074
000340 f3 b2 df bd 84 a1 5f be 80 f7 b9 be 27 c9 11 be
       -0.10922804 -0.21838957 -0.3632164 -0.1423689
000350 de 76 10 be 4a 81 47 3e ca 46 e8 be 91 d6 0f 3e
       -0.14107844 0.19482914 -0.45366508 0.14046694
000360 0b f7 29 3d 77 b6 b7 be 9b 2b a1 3e 6e 03 69 3e
       0.041495364 -0.35881397 0.3147858 0.22755215
000370 46 73 d1 3e 53 ac 96 be a4 16 04 bf 85 72 c4 3e
       0.4090826 -0.29428348 -0.51597047 0.3836862
000380 7e db 92 be 69 7b 51 3e bf 2e ce be 52 c5 2b be
       -0.28683084 0.20457233 -0.4027004 -0.1677449
000390 0e a8 a5 bd 2b 03 89 be 7f ed c4 be 39 33 27 be
       -0.080886945 -0.2676023 -0.38462445 -0.16328134
0003a0 cc d8 6b be 03 65 53 3e 03 5a e1 be 27 5a e6 3e
       -0.2303192 0.20644002 -0.44013986 0.44990656
0003b0 23 4e 28 3e b4 e5 b3 be c4 2c 8a 3e e7 67 57 3e
       0.16436057 -0.35136187 0.26987278 0.2103573
0003c0 e8 ee d0 be 82 bc 0e bd 15 4a 09 be 02 29 0c 3e
       -0.4080727 -0.034847744 -0.13407166 0.13687518
0003d0 b9 fe 12 bf 08 cb de be 92 79 3f be d9 f3 45 bd
       -0.57419926 -0.43514276 -0.18698719 -0.048328254
0003e0 33 b5 74 be 9a 8d 56 be 74 ac 2d bf 17 c7 47 3e
       -0.23897247 -0.20952454 -0.6784127 0.1950954
0003f0 8b 8c 92 3e 1e 7a c0 3d 2c 35 91 3d 5d ac 24 be
       0.2862285 0.09398292 0.0709022 -0.16081376

bias f4 [20]
000000 a6 f6 50 3e 1a e6 8e 3e bd dc 14 3e 13 51 1b 3e
       0.20406589 0.2790993 0.1453733 0.15167646
000010 35 ea 90 3e fb ca b8 be 8e e3 d7 3c 57 16 99 3e
       0.28303686 -0.36092362 0.026353624 0.29899856
000020 dd b2 14 bd e5 03 08 bd 9d 18 ef 3d d5 25 83 3e
       -0.03630339 -0.03320684 0.116746165 0.256148
000030 87 e4 d7 3e 2d 6f cd 3c 50 69 56 3e cc 50 46 3e
       0.4216654 0.025077427 0.20938611 0.19366759
000040 d8 36 6f 3e 59 ae 9a 3e d9 d8 fb 3d 4f be 71 3e
       0.23360765 0.30211142 0.1229722 0.23607753

weight f4 [1, 20]
000000 73 ab 24 3e e3 5a 90 be a3 58 96 be bd 7f c4 3e
       0.16081028 -0.2819434 -0.293645 0.38378707
000010 55 90 7f 3e 5d 4d 93 be 3a 1b c0 be 6f 07 ad 3e
       0.24957402 -0.2876996 -0.37520772 0.33794734
000020 bb 18 c8 be 94 d1 a0 be 2c 7e 94 be 8e 83 94 be
       -0.39081368 -0.31409895 -0.29002512 -0.29006618
000030 23 9c 20 3e 9d d9 d6 be 66 6d 92 3e 11 53 60 3e
       0.15684561 -0.419629 0.2859909 0.21906687
000040 d4 b3 a3 be 7b 81 be be c4 69 ad 3e 36 03 5f 3e
       -0.31973135 -0.3720816 0.33869755 0.21778569

weight f4 [20, 1]
000000 ed 9a cd be a1 43 10 3f 16 b0 c9 3f 8b 9a 9e 3f
       -0.40157261 0.56353194 1.5756862 1.2390913
000010 09 fe eb bc 2a 91 99 3e 9c 95 63 bf cc c9 ae be
       -0.028807657 0.29993564 -0.8890016 -0.34138334
000020 0a f1 30 bf 04 b7 33 3f 6c 6b 7d 3f ae b4 b8 be
       -0.69117796 0.70201135 0.9899204 -0.36075348
000030 2f 8c b8 be 4e 89 c7 bf 17 f5 73 3f 21 cf cf 3e
       -0.36044452 -1.5588777 0.9529585 0.40587714
000040 b6 39 f3 3e 84 fa 25 3f a0 da 99 3e f9 36 f3 be
       0.47504967 0.6483538 0.3004961 -0.47502878

bias f4 [20]
000000 41 b8 02 3e f1 0a e2 be 8f 7e 74 bc 7f 22 9b 3e
       0.127656 -0.44148973 -0.014922752 0.30299756
000010 52 70 80 bf 8a 19 fd 3e 3c ca eb be 94 57 ac 3b
       -1.0034277 0.49433547 -0.4605273 0.0052594636
000020 c1 79 f6 be fa a6 b1 3e 29 fb 69 be 39 c9 37 3f
       -0.48139766 0.34697706 -0.22849716 0.71791416
000030 4b 61 30 bf 87 ea b2 be 95 0b 9c bd e0 13 88 bf
       -0.6889846 -0.34944555 -0.076193966 -1.0631065
000040 e4 83 09 bf 9e a4 37 3f d0 dd c9 3f a4 03 41 bf
       -0.53716874 0.7173556 1.5770817 -0.7539618

weight f4 [20, 20]
000000 c4 6d 84 bd 5f 0c 43 3e 7a c6 fe 3e 85 38 99 3e
       -0.06466249 0.19047688 0.497608 0.29925933
000010 c9 74 32 bc 9d 77 d3 3e 50 ca af bd 60 16 21 bd
       -0.010892102 0.41302195 -0.0858351 -0.03932798
000020 3c 1e 60 bb a8 b3 31 3e 82 b6 d5 3e 40 27 62 be
       -0.0034197709 0.1735369 0.41740805 -0.22085285
000030 66 cb 3c be 24 90 2e be 64 2f a2 3e db 79 eb bd
       -0.18436965 -0.17047173 0.3167678 -0.114978515
000040 2f 68 c8 3d ae 89 5b 3d fd 0f b7 3e 97 d2 b5 be
       0.097854964 0.0535981 0.35754386 -0.3551223
000050 fe 98 96 be e5 da 4f 3e 00 88 98 ba d2 8f e5 bc
       -0.294136 0.20298345 -0.0011637211 -0.02802268
000060 86 e7 3a 3e 2e 4a 69 3d 77 dd 02 be 8b 4c df bd
       0.18252382 0.05695551 -0.12779795 -0.10903271
000070 04 cd 98 bd 82 94 bf 3d 0d 2e 1a 3e 6e ff bd be
       -0.074609786 0.093544975 0.1505663 -0.3710894
000080 e1 bd 24 be cc 91 61 bd 39 5a 1d 3d c9 3f 06 3e
       -0.16088058 -0.055070683 0.03841612 0.1311027
000090 c0 74 33 3d a6 3d 4b 3e cf ed 35 3d 75 cf 6a bd
       0.043812513 0.19847736 0.044416245 -0.057326753
0000a0 2f 87 30 3d 5f bc 0e 3e 74 a1 8a 3d eb 22 b0 bd
       0.04309767 0.13939045 0.06769076 -0.0860041
0000b0 86 f2 5d 3e 38 6c 11 be 6e 2f 0a 3e a7 b7 aa 3d
       0.21674547 -0.14201438 0.13494655 0.0833581
0000c0 f9 10 b5 bd 76 5a 88 be 2e e0 7d 3d 0f fc 5a 3e
       -0.08841128 -0.26631516 0.061981373 0.21385215
0000d0 84 01 a7 3e 39 0f bb bd cd de af 3c 6e 3a 65 3d
       0.32618344 -0.09133763 0.021468544 0.055963926
0000e0 c2 6d 6e bd 90 ba 8d be 50 8c 70 bb e4 cc d8 bc
       -0.058210142 -0.27681398 -0.0036704727 -0.026464887
0000f0 5c 1f 73 be de 85 8c be ec 70 9c 3d 3d 8b 1d 3d
       -0.23742431 -0.27445883 0.07638726 0.038462866
000100 30 68 fc be 4b c1 23 3e e8 c8 08 be 0f e3 e5 3d
       -0.4929824 0.15991704 -0.1335789 0.112249486
000110 f3 6e 75 be e8 b5 90 3d 7c 89 75 be 0a 91 b8 3d
       -0.23968105 0.07065946 -0.23978227 0.09012039
000120 06 ad 3c be 56 03 c3 3d 9c 89 20 be 5a 32 c8 be
       -0.18425378 0.09522121 -0.15677494 -0.39100915
000130 38 16 38 be 35 2a 74 3c 47 03 9b 3e ce 88 61 bd
       -0.17977226 0.014902641 0.30275938 -0.055062108
000140 c2 f4 8f be 2f bb 6a be 0b 2e 7a bf f1 1c 15 bf
       -0.28116423 -0.22922967 -0.97726506 -0.58247286
000150 82 b5 86 3d d2 ed e7 3c 66 36 ba be 76 24 d0 be
       0.065775886 0.028311644 -0.36369628 -0.40652817
000160 91 0e 19 bf ee 5f de bd a8 e7 be be 68 77 c2 bd
       -0.5978785 -0.10858141 -0.37286115 -0.09495431
000170 d1 19 2f be e0 29 0f bf 95 7f 0f bf 2c 12 9a be
       -0.17099692 -0.5592327 -0.5605405 -0.3009199
000180 bf 47 a1 be 9c 29 46 3b c5 c2 3f 3e 62 d9 9b be
       -0.3150005 0.0030237203 0.18726642 -0.30439287
000190 cf 59 12 3e e2 57 36 bd b0 4e 77 bd 52 19 63 3d
       0.14292072 -0.044517405 -0.060377777 0.05544407
0001a0 ed 25 3e be a4 03 33 3d 34 b3 2c bd 7b b5 8a bc
       -0.18569155 0.043704644 -0.04216309 -0.01693224
0001b0 ac 66 bb bd 96 06 42 be a9 fb ee bc e0 63 1d be
       -0.091504425 -0.18947825 -0.029172735 -0.1537013
0001c0 79 b5 4f be c8 f2 48 bd da d9 5b be df c2 78 3b
       -0.2028407 -0.04905966 -0.21469823 0.003795795
0001d0 64 a2 4e be 90 30 75 3d d0 64 60 3c 7f d8 9e 3b
       -0.20179135 0.059860766 0.013695911 0.0048475857
0001e0 27 c3 e5 bd de 4f cf 3d cf db 87 3d a7 ef a1 3e
       -0.11218863 0.10122655 0.06633722 0.31628153
0001f0 cb a0 9a bd d7 2d 47 3e 9b 7d 8a 3c 7b 66 b5 bd
       -0.075502 0.1945108 0.016905596 -0.08857437
000200 61 ff 02 be 4e 4c 9c 3e b1 aa 7d 3e 15 07 c2 be
       -0.12792732 0.30526966 0.24772145 -0.37896028
000210 04 67 eb bd 10 86 f2 bd c6 0e 9f 3c cf 22 8b bd
       -0.11494258 -0.11841977 0.019416224 -0.067937486
000220 a5 26 46 3e 37 16 fd ba fe e7 12 3e 2c 26 35 bd
       0.19350679 -0.0019308989 0.1434631 -0.044225857
000230 fa 24 85 be cf a8 02 3e d9 81 23 bd 27 94 1d bd
       -0.26004773 0.12759708 -0.039918754 -0.038471367
000240 0d 6b 23 3e 08 48 8a 3b 93 e3 95 bd 80 d3 47 bd
       0.15958805 0.0042200126 -0.07318797 -0.048785686
000250 70 9c 0b 3e dc d1 a1 3d a6 8e 44 3e 85 cf 86 3d
       0.13633895 0.079013556 0.19195041 0.0658255
000260 1b ab 76 be 06 b1 8a be 7d 2c 52 3e c1 89 e1 bd
       -0.24088709 -0.27088183 0.20524783 -0.110126026
000270 70 8c b6 3d fa ba 3f 3d e6 09 9f bc 83 24 71 3c
       0.08913505 0.046809174 -0.0194139 0.014718178
000280 dd 5a 40 3e 02 bb 7b bd 62 96 9c be c7 38 8f bd
       0.18784662 -0.06145764 -0.30583483 -0.06993251
000290 d8 f8 1c be 9f fc 33 3d 95 11 5a be 4b 29 0a be
       -0.15329301 0.04394209 -0.2129577 -0.13492315
0002a0 fa 2c 7d 3d 72 29 61 be 2c b6 a7 be 0a f6 0e 3e
       0.06181047 -0.21988466 -0.32756174 0.13961044
0002b0 b1 93 5a be b0 67 5d bc ab 4c ae bc 07 f4 24 bd
       -0.21345402 -0.013513491 -0.021276793 -0.040271785
0002c0 1d a6 c3 bd 7f c7 82 bd 45 68 a6 3e 8a e7 50 be
       -0.09553168 -0.06385707 0.32501426 -0.20400825
0002d0 42 5a ae bd 52 1f 71 3e 29 0d 69 bd a1 78 88 3e
       -0.08513309 0.23547104 -0.056897316 0.26654533
0002e0 37 ba 5d 3e 7e a3 c5 3d 95 23 4b be a0 8f 53 be
       0.21653067 0.09650324 -0.19837792 -0.20660257
0002f0 c0 6d 58 be 4d b4 9d 3d 2d 78 91 3d 70 37 81 3d
       -0.21135616 0.07700405 0.07103 0.06309402
000300 14 34 35 3e f8 e5 59 be 61 45 b1 3d 9e a4 88 3e
       0.17695647 -0.21279132 0.08655811 0.26688093
000310 01 63 0f 3e 89 89 86 3e ff ac e0 bd 3b ce 6c be
       0.1400261 0.26276806 -0.109704964 -0.23125546
000320 a9 34 99 3e 47 41 7e bc ff 62 1c 3d 05 69 0c bd
       0.2992299 -0.015518493 0.038180348 -0.034279842
000330 42 bc 49 3b 0e dd 71 be 10 1c 0b 3e 77 54 d8 bc
       0.0030782376 -0.23619482 0.13584924 -0.026407463
000340 3e df b4 3e 41 63 69 be 9d 0b 94 bd 0b 8c d8 3c
       0.3532657 -0.22791769 -0.072287776 0.026433965
000350 54 ab 97 bd d1 b8 c2 bd 21 2b 6e 3c 03 80 f0 bd
       -0.07405725 -0.09507907 0.01453665 -0.11743166
000360 f1 2e e6 3d 39 62 89 be 14 f5 7c be 44 d0 af 3e
       0.11239422 -0.2683275 -0.24702865 0.34338582
000370 13 be 88 bd 80 0f cf bd 27 ac 46 3e 0c fe dc 3d
       -0.06676879 -0.10110378 0.19401608 0.10790643
000380 18 79 44 be a9 d3 23 be 5c 64 21 3e a1 a3 2c bd
       -0.19186819 -0.1599871 0.1576094 -0.042148236
000390 bb 9c 2f bd 42 a2 9e 3d 6f e8 7a bd b8 39 3b be
       -0.04287408 0.07745792 -0.061256822 -0.18283737
0003a0 3f c7 f9 bc 25 15 b6 bd a2 c9 48 be bd 13 13 3b
       -0.030490516 -0.08890752 -0.19608167 0.0022442185
0003b0 0e 98 e6 3d 2a d0 eb 3c 0e fe 3d 3e f0 b6 1b be
       0.11259471 0.028785784 0.18553945 -0.15206504
0003c0 e7 6c c0 be c3 55 74 3d 10 41 43 be ea c9 96 be
       -0.37583086 0.0596521 -0.19067788 -0.29450923
0003d0 d6 4c dd be 1c 46 2d 3e af 03 00 bf f4 40 9f be
       -0.43222684 0.16921276 -0.5000562 -0.31104243
0003e0 4c c5 10 bf f4 8e 40 bd fc 86 9b be 12 55 31 be
       -0.5655105 -0.04701133 -0.30376422 -0.17317608
0003f0 9b 22 49 be f3 fa 6c bf 80 d3 ba 3c 1a a1 69 be
       -0.19642107 -0.9257042 0.02280593 -0.22815362

bias f4 [20]
000000 03 6e 38 3e c8 9c 2b 3d aa 07 28 3b 4d ca ba 3e
       0.18010716 0.041897565 0.0025639334 0.36482468
000010 91 d8 f5 bc 78 bb 2a 3e 2e e3 64 be d2 f7 61 be
       -0.030010493 0.16673076 -0.22352287 -0.22067192
000020 98 d8 ca 3d af 67 51 3d 14 08 8c be 38 dc 37 3e
       0.09904593 0.05112427 -0.27349913 0.179551
000030 8b d3 ad 3d ab 36 6a be cf 47 8d bd e6 05 a8 3e
       0.08487614 -0.22872417 -0.06898462 0.32817
000040 9c f9 ea 3d 2c 68 7e 3e 2d 4e d8 bc ca 5c 3c 3e
       0.114733905 0.24844426 -0.026404465 0.18394771

weight f4 [2, 20]
000000 4c b3 8e 3e 05 75 9c 3d b5 6a 6c 3e 61 ce ba be
       0.27871168 0.07639507 0.2308758 -0.3648558
000010 43 b2 d6 be f5 61 0d bd 0a 7f f8 3d 47 c0 9c bd
       -0.41932878 -0.034517247 0.12133606 -0.076538615
000020 b2 78 fa bd 00 3e 3e 3e 24 b7 7b 3e d7 93 78 be
       -0.12230052 0.18578339 0.24581581 -0.24275146
000030 1d bd f0 be 7b dc 9c 3d 7e bd 02 3e d6 69 4a be
       -0.47019282 0.07659241 0.12767598 -0.19766936
000040 eb e4 89 bc 59 b2 26 be a0 85 18 3e 16 8e 38 be
       -0.01683279 -0.16278972 0.14894724 -0.18022951
000050 a8 ac ad 3d 84 39 57 3e 5d 1a 4c be 6b 31 e3 bd
       0.08480197 0.21018034 -0.19931932 -0.1109341
000060 92 cc 84 be ff 53 e5 bd a7 ab 54 3e d0 11 89 3e
       -0.25937325 -0.111976616 0.20768605 0.26771402
000070 9a 19 aa be e1 a5 92 3d 1e 4a 1b 3b e2 3b 56 3d
       -0.33222657 0.07160545 0.00236953 0.052303202
000080 76 a5 30 be 5f ff 62 3e e8 69 55 be ae 73 09 3d
       -0.17250618 0.22167729 -0.20841181 0.033557586
000090 b7 20 22 be 4e a3 82 3e ab a9 48 be 07 cb 13 3e
       -0.15832792 0.25515217 -0.19595973 0.14432918

bias f4 [2]
000000 ce cb 1a be 9c c1 b8 bd
       -0.15116808 -0.09021303
