docs/notebooks/paper_experiments/results/multitask/model_multitask.pt (torch, 30505 bytes, 13 tensors)

mean f4 [2]
0.031624533 0.6879169
00000000: ba88 013d 521b 303f

range f4 [2]
0.71266115 0.57853127
00000000: f670 363f a01a 143f

weight f4 [32, 2]
-0.31513545 0.4173888 0.118437044 0.39162022 0.07144266 -0.3433425 0.4079807 -0.6823571
0.53586537 -0.5469752 0.5008259 -0.5633381 0.47180757 -0.17080809 0.12153651 0.65462
-0.6817942 0.50094974 0.0002520174 -0.4316303 0.8051441 -0.34733492 0.79578686 0.0614734
-0.61115086 -0.82636976 -0.0148575455 0.61787033 0.29006258 -0.8070315 -0.56850064 0.49428305
-0.06330974 0.102683686 -0.045979355 0.53533787 0.23196864 -0.49877772 0.47276086 0.6928663
-0.4423187 0.19303147 0.10375712 0.5761733 -0.6556156 0.15870725 -0.27373847 -0.7356358
0.17956127 -0.5198399 0.13228938 0.81258124 -0.6432113 0.4992196 -0.24565215 0.6094502
0.46799752 -0.4250397 -0.35838842 0.04326051 0.110936165 -0.67689145 -0.24206983 0.21155833
00000000: 6f59 a1be fcb3 d53e 1f8f f23d 7282 c83e
00000010: 8850 923d 97ca afbe d9e2 d03e f4ae 2ebf
00000020: 792e 093f 9106 0cbf 2036 003f ed36 10bf
00000030: c390 f13e 51e8 2ebe 22e8 f83d 2d95 273f
00000040: 118a 2ebf 3e3e 003f 3421 8439 a6fe dcbe
00000050: ec1d 4e3f e2d5 b1be b0b8 4b3f 88cb 7b3d
00000060: 6274 1cbf f88c 53bf 106d 73bc c02c 1e3f
00000070: 1583 943e 9e99 4ebf 4289 11bf ab12 fd3e
00000080: 89a8 81bd d34b d23d d954 3cbd e70b 093f
00000090: 3089 6d3e cb5f ffbe b60d f23e b05f 313f
000000a0: 9977 e2be 0baa 453e 9d7e d43d 1880 133f
000000b0: 6dd6 27bf 2784 223e 7327 8cbe a152 3cbf
000000c0: e9de 373e 3a14 05bf de76 073e 5305 503f
000000d0: 7fa9 24bf b699 ff3e 3d8c 7bbe ee04 1c3f
000000e0: 5f9d ef3e ce9e d9be b07e b7be ef31 313d
000000f0: 8032 e33d c248 2dbf 27e1 77be bfa2 583e

bias f4 [32]
0.56180817 -0.103218004 -0.72395575 -0.011488071 0.1860022 -0.025885839 0.08212264 0.65705675
-0.42486292 -0.41595003 0.18917194 -0.15044719 0.10940357 0.5780778 -0.11627083 0.27963227
0.31098664 0.63095623 -0.3288037 -0.4260693 0.3318204 0.72937834 -0.09107647 0.33070865
0.66919905 -0.34707662 -0.4445893 0.7403264 0.14440136 0.5882908 0.62115604 0.066873826
00000000: a9d2 0f3f f663 d3bd 2a55 39bf 7638 3cbc
00000010: 5c77 3e3e 8a0e d4bc ea2f a83d df34 283f
00000020: a287 d9be 67f7 d4be 4ab6 413e d40e 1abe
00000030: fb0e e03d e8fc 133f 671f eebd f62b 8f3e
00000040: a439 9f3e 5986 213f f558 a8be c125 dabe
00000050: 5de4 a93e 8ab8 3a3f 4d86 babd a552 a93e
00000060: a150 2b3f 07b4 b1be 35a1 e3be 0886 3d3f
00000070: f3dd 133e 3a9a 163f 1504 1f3f 25f5 883d

weight f4 [16, 32]
0.039622374 -0.11621374 0.13212606 0.27878192 0.24728155 0.2046761 0.02336606 -0.0661389
-0.21191016 0.018837802 0.159783 0.246174 0.09900833 -0.092913225 0.21822692 -0.012747376
-0.07591074 -0.1510274 -0.042677592 -0.0029916216 -0.013735174 -0.2764455 -0.14106238 0.02405855
-0.024713343 -0.26526737 -0.2556706 -0.12835313 0.12619986 -0.23135601 0.25200486 -0.0041572163
0.11427515 -0.0615329 -0.115111075 -0.11831061 -0.035331577 -0.025042314 -0.081727676 0.09945051
0.09549033 -0.151914 0.064577416 -0.1418591 -0.041597318 0.2900138 -0.10208345 -0.0010717764
0.13164553 -0.017416855 -0.17618807 -0.017957969 0.22624688 0.09838698 0.21921885 -0.3159399
-0.11793975 0.19323094 0.23895545 0.25580618 -0.13244914 0.096603855 -0.017642254 0.0078009604
0.15015797 0.028063146 -0.14777787 -0.12961538 -0.15665336 -0.25167596 0.019417942 -0.02758714
0.044464193 -0.15143362 0.021669434 -0.025883097 -0.344501 0.24728847 -0.10018102 0.28928378
0.036453117 0.28776 -0.20459852 -0.1303369 0.17447075 0.2519351 0.23203161 -0.011397599
-0.13082708 0.24290468 0.31153664 0.114553735 -0.13260886 0.124007024 -0.17041977 0.15654635
-0.20655875 -0.14748469 0.35969827 0.16568522 0.262309 0.321772 0.30909795 -0.13845561
-0.043450225 0.37577397 0.16589734 0.23825121 0.27500692 -0.16777417 0.28997025 -0.13042727
-0.3663883 -0.2951122 0.3211249 -0.11169807 -0.19875683 -0.32153574 0.0061666504 0.26939487
0.07503832 -0.022427803 -0.17228587 -0.1850494 0.10483044 -0.18607189 0.19186084 -0.05089075
-0.02301513 -0.018586216 0.31395584 0.15670279 0.28366563 0.21187796 0.15277363 -0.27926743
0.07955834 0.35130236 0.20666897 0.1762129 0.12509458 -0.2954187 0.09159783 -0.19985275
-0.10426256 -0.029900206 0.21145754 -0.014543825 -0.103805356 -0.22296257 -0.045236267 0.06162945
0.013925655 -0.19639972 -0.23496903 0.029886609 0.18907534 -0.20885497 0.20251252 -0.19581418
0.19421902 0.16016033 -0.2135289 -0.050581235 -0.13509752 -0.1288652 0.059811357 -0.020346116
0.10058074 -0.07367504 -0.07445771 -0.04352081 -0.14965802 0.0062175523 -0.21134606 0.2518158
-0.0017426932 0.015495078 -0.14136992 -0.021428373 0.16620699 0.05422203 0.31701934 -0.08797274
-0.027222501 0.10479323 0.16778389 0.23597278 -0.0939624 0.24966758 0.04372326 0.17895141
0.07252644 0.21431458 -0.1909429 -0.23073459 0.020336505 -0.13277695 -0.08171252 0.21490139
0.35217047 -0.1144935 -0.19806923 0.007861558 -0.26241013 0.1426886 -0.14750636 0.23734742
0.054919764 0.03671905 -0.04185448 -0.0463306 0.14524545 0.07995141 0.21394777 -0.26718718
-0.028211396 -0.08411561 0.18406461 0.19376774 -0.012140304 0.09783942 0.058415547 0.32799226
-0.28002846 -0.19050713 0.4171158 0.14535393 0.31696114 0.19802791 0.23648378 -0.28993765
-0.0063968888 0.08908339 0.29348505 0.041929666 0.24832995 -0.1405568 0.2534262 -0.2315988
-0.15166692 -0.24188782 0.18005694 -0.1580708 -0.09754454 -0.12538001 0.058856674 0.30301002
0.23127384 -0.12749793 -0.13062526 -0.041106686 0.17020054 -0.29656604 0.1888638 -0.07847647
00000000: 124b 223d 7801 eebd 0e4c 073e 81bc 8e3e
00000010: 6037 7d3e 9d96 513e 2e6a bf3c d573 87bd
00000020: fafe 58be bc51 9a3c 289e 233e 0915 7c3e
00000030: e1c4 ca3d 4a49 bebd e176 5f3e 5fda 50bc
00000040: 1777 9bbd eda6 1abe b3ce 2ebd 150f 44bb
00000050: 7f09 61bc 448a 8dbe a872 10be 7016 c53c
00000060: a373 cabc 20d1 87be 42e7 82be 016f 03be
00000070: 893a 013e 97e8 6cbe c806 813e 4239 88bb
00000080: 1709 ea3d ec09 7cbd 5bbf ebbd d54c f2bd
00000090: d8b7 10bd 8a25 cdbc d760 a7bd b6ac cb3d
000000a0: 6f90 c33d 588f 1bbe 2a41 843d 8343 11be
000000b0: f361 2abd b07c 943e 2111 d1bd d97a 8cba
000000c0: 16ce 063e cbad 8ebc a56a 34be 971c 93bc
000000d0: 43ad 673e 1d7f c93d e87a 603e e0c2 a1be
000000e0: 658a f1bd 55de 453e bdb0 743e 07f9 823e
000000f0: bfa0 07be 3ed8 c53d 7d86 90bc 339f ff3b
00000100: 03c3 193e afe4 e53c 1553 17be e5b9 04be
00000110: bd69 20be acdb 80be 6012 9f3c 6dfe e1bc
00000120: 1620 363d 6a11 1bbe 1984 b13c ca08 d4bc
00000130: 6f62 b0be 3039 7d3e b52b cdbd 011d 943e
00000140: dd4f 153d 4755 933e 4682 51be 0977 05be
00000150: 76a8 323e a3fd 803e b299 6d3e ffbc 3abc
00000160: 89f7 05be 01bc 783e bb81 9f3e 269b ea3d
00000170: 9eca 07be 65f7 fd3d 8582 2ebe b04d 203e
00000180: 2384 53be 3a06 17be 5f2a b83e 63a9 293e
00000190: 5e4d 863e 4dbf a43e 1642 9e3e 4fc7 0dbe
000001a0: ddf8 31bd 7265 c03e fee0 293e 20f8 733e
000001b0: b5cd 8c3e fecc 2bbe fb76 943e ba8e 05be
000001c0: 3f97 bbbe f218 97be 7c6a a43e f5c1 e4bd
000001d0: e986 4bbe 55a0 a4be 9d11 ca3b 20ee 893e
000001e0: b1ad 993d 83ba b7bc b56b 30be 977d 3dbe
000001f0: 57b1 d63d a189 3ebe 2b77 443e d272 50bd
00000200: 3a8a bcbc 1f42 98bc d2be a03e b276 203e
00000210: 9f3c 913e 89f6 583e b170 1c3e 24fc 8ebe
00000220: 7cef a23d e7dd b33e 08a1 533e 2871 343e
00000230: cb18 003e 1f41 97be a597 bb3d 33a6 4cbe
00000240: 9c87 d5bd 47f1 f4bc 5388 583e 3949 6ebc
00000250: e797 d4bd 4d50 64be aa49 39bd 2a6f 7c3d
00000260: 6e28 643c 021d 49be b99b 70be c3d4 f43c
00000270: f79c 413e 14de 55be 715f 4f3e 8383 48be
00000280: 5ae1 463e 1201 243e 52a7 5abe 452e 4fbd
00000290: 0157 0abe 3df5 03be c1fc 743d e6ac a6bc
000002a0: 46fd cd3d f0e2 96bd 497d 98bd e042 32bd
000002b0: f43f 19be 9cbc cb3b 1a6b 58be 00ee 803e
000002c0: 156b e4ba 11df 7d3c 47c3 10be 8e8a afbc
000002d0: 2a32 2a3e eb17 5e3d 5c50 a23e 0d2b b4bd
000002e0: b901 dfbc d59d d63d 8acf 2b3e d9a2 713e
000002f0: 5c6f c0bd dca8 7f3e 2917 333d 0a3f 373e
00000300: be88 943d 4875 5b3e 8986 43be b045 6cbe
00000310: be98 a63c aef6 07be e558 a7bd 1c0f 5c3e
00000320: b04f b43e 917b eabd a9d2 4abe c4cd 003c
00000330: 9f5a 86be f61c 123e e80b 17be 340b 733e
00000340: 8cf3 603d b766 163d 9a6f 2bbd 28c5 3dbd
00000350: 39bb 143e 91bd a33d 2015 5b3e c2cc 88be
00000360: 961b e7bc ce44 acbd 6f7b 3c3e 0d6b 463e
00000370: 20e8 46bc 0960 c83d 2445 6f3d 9aee a73e
00000380: e45f 8fbe 4d14 43be 3490 d53e a9d7 143e
00000390: bb48 a23e d4c7 4a3e ce28 723e b572 94be
000003a0: fe9c d1bb 5a71 b63d ac43 963e 71be 2b3d
000003b0: 354a 7e3e 1fee 0fbe 14c1 813e 3c28 6dbe
000003c0: 934e 1bbe 71b1 77be d960 383e 50dd 21be
000003d0: 6fc5 c7bd 9e63 00be b213 713d 2124 9b3e
000003e0: 0dd3 6c3e d18e 02be a1c2 05be 7c5f 28bd
000003f0: 0d49 2e3e 81d7 97be 8365 413e 46b8 a0bd

bias f4 [16]
0.20002457 0.3419628 0.2865528 0.07674527 0.20944624 0.011036824 0.09089391 -0.023042722
-0.1075217 0.03273354 0.23415743 0.21264906 0.26881263 0.13599542 0.04401775 0.015866172
00000000: 3ed3 4c3e c015 af3e 0cb7 923e a02c 9d3d
00000010: 1379 563e ccd3 343c 9626 ba3d 17c4 bcbc
00000020: 5634 dcbd 9b13 063d f7c6 6f3e adc0 593e
00000030: cfa1 893e 6242 0b3e f54b 343d c6f9 813c

weight f4 [1, 16]
0.33384404 -0.20960477 -0.2968329 0.19747286 0.2631041 -0.35442567 -0.19371065 0.24597138
0.20381151 -0.28908083 0.30544958 0.37244898 -0.20849948 0.2596413 -0.24585915 0.34569243
00000000: 9bed aa3e a2a2 56be 7bfa 97be 5336 4a3e
00000010: 95b5 863e 4877 b5be 165c 46be ecdf 7b3e
00000020: f7b3 503e 6702 94be e363 9c3e a2b1 be3e
00000030: e380 55be b4ef 843e 80c2 7bbe 99fe b03e

weight f4 [16, 1]
0.8696355 0.6071555 0.587692 0.3089768 0.65378886 0.30486107 0.74222237 0.40423337
-1.0498635 0.09832083 -0.13370146 0.6923016 -0.5711458 -0.02577701 0.75810915 -0.44616926
00000000: 6fa0 5e3f 8b6e 1b3f fc72 163f 3532 9e3e
00000010: b55e 273f c016 9c3e 4902 3e3f adf7 ce3e
00000020: ed61 86bf 6e5c c93d 09e9 08be ad3a 313f
00000030: 9c36 12bf 4f2a d3bc 7113 423f 4c70 e4be

bias f4 [16]
-0.55572337 0.68287235 -0.5220181 0.33964998 1.1217016 -0.37106183 0.3915907 -0.054762397
0.8177178 -0.4731339 -0.19358143 0.33364013 -0.5473836 0.9043272 -0.30501553 0.4540367
00000000: e343 0ebf b9d0 2e3f faa2 05bf 9ae6 ad3e
00000010: eb93 8f3f d1fb bdbe 947e c83e 894e 60bd
00000020: f455 513f 9b3e f2be 363a 46be e1d2 aa3e
00000030: 5521 0cbf fd81 673f ff2a 9cbe 8077 e83e

weight f4 [32, 16]
-0.21921003 0.22222291 -0.12054572 0.27081206 0.05905367 -0.19121166 -0.022615269 -0.17910747
-0.44374216 -0.20247707 0.011560728 0.04302708 -0.35904998 0.04806883 -0.30180478 -0.22919348
-0.27060956 -0.06931597 -0.06390861 0.16137241 -0.10448539 -0.1653043 0.1945131 0.20082755
0.053195294 -0.12971433 0.28771424 -0.18630892 0.06297912 -0.12238117 -0.16733527 0.23494662
0.25564742 0.07146146 -0.024251282 -0.13445398 -0.046176117 0.17936449 0.18590839 -0.17774752
-0.1983086 0.16912745 -0.15167947 -0.057846185 0.056648824 0.27563167 -0.05663616 -0.2542443
-0.17529312 0.18795253 -0.04085792 0.020257233 -0.028508717 -0.10480401 -0.11543498 0.087469764
-0.06904696 -0.013134107 0.09069406 -0.07721819 -0.23128605 -0.085689574 0.25529078 -0.012709471
0.082750514 -0.285823 -0.09506205 0.10734383 0.012875818 0.07886606 -0.1212666 -0.13787039
0.23760723 -0.004508796 0.3853712 0.090376556 0.49396703 -0.018424517 0.050182953 0.16396695
-0.22364882 0.04709786 -0.051553007 0.10494481 -0.014521988 0.18499912 0.16117689 -0.1290161
0.22289123 0.01946372 -0.1536417 -0.24078697 0.17061713 0.008793199 0.13179642 0.030496635
-0.039292328 -0.22000206 -0.25596657 -0.18592682 0.14457135 0.15062296 0.09547683 0.004305884
-0.36394823 -0.20777544 -0.19858469 -0.0646255 0.06139691 0.11364878 0.09692185 -0.34778428
0.1520112 0.14114933 -0.1334984 0.10794189 -0.22288407 0.098504156 0.0371471 0.09644762
0.265056 -0.326798 0.12689231 0.22055438 -0.07924314 0.13459308 0.082074985 -0.047917847
-0.35993296 -0.28311786 -0.094622515 -0.1589888 -0.100955084 -0.26983392 -0.38145673 -0.07784116
-0.0266341 -0.28030044 -0.12532696 -0.43547913 -0.29992437 -0.0059837173 -0.012192964 -0.10064299
-0.023541138 -0.16365035 0.15049295 -0.18714441 -0.18853158 0.17502782 -0.10243285 0.076245174
-0.05142676 -0.17644726 0.038769364 -0.2265365 0.11310965 0.16507618 -0.01015516 0.06340359
-0.19491668 -0.09513685 -0.24236958 0.06663675 -0.01000965 -0.12128079 0.15886196 -0.016570533
0.25134388 -0.08951947 0.07077983 -0.10364688 -0.077456295 0.06611554 0.0109724 -0.16412829
-0.002691896 0.18629913 0.13840969 0.057364024 0.267407 0.13278922 0.2798971 -0.12513049
-0.09125406 -0.14746623 0.12232601 -0.014674582 -0.107567206 0.00472258 -0.21055384 0.08413636
-0.0052901492 0.0060699815 -0.28616193 0.021992393 0.10562067 0.16712521 0.05344591 -0.039283983
0.055139672 0.12778781 -0.08994157 0.047993436 -0.13686366 0.18612371 -0.30533484 -0.16126318
-0.40912068 -0.4798209 -0.13324504 -0.29229358 -0.08154729 -0.23884022 -0.4603695 -0.24756461
-0.087507755 -0.09241625 -0.18182363 -0.18475936 -0.26297238 0.14842469 -0.1947144 -0.01905587
0.030888112 0.12544188 0.037608508 0.103515685 0.1449673 -0.19966838 0.049799383 -0.18872467
0.04100218 -0.0014899399 -0.012384896 0.12863255 0.16185968 -0.03723353 -0.18552297 -0.11518905
-0.08663376 -0.16494633 -0.24658501 -0.22518176 0.08339431 -0.25734323 -0.26455593 -0.1425567
0.019417467 -0.026858866 0.16531754 -0.24082898 0.10950228 0.07242989 -0.32634613 -0.026502376
00000000: 9878 60be 678e 633e ade0 f6bd e1a7 8a3e
00000010: 43e2 713d fdcc 43be a843 b9bc f367 37be
00000020: 2c32 e3be 2656 4fbe 3569 3d3c 2a3d 303d
00000030: 66d5 b7be d2e3 443d 2886 9abe b2b1 6abe
00000040: 568d 8abe 88f5 8dbd 84e2 82bd cf3e 253e
00000050: 70fc d5bd 8845 29be 712e 473e bda5 4d3e
00000060: 4fe3 593d d5d3 04be 484f 933e c4c7 3ebe
00000070: 32fb 803d fba2 fabd f059 2bbe d995 703e
00000080: 38e4 823e 635a 923d a0aa c6bc 4eae 09be
00000090: 2b23 3dbd 53ab 373e c55e 3e3e 7203 36be
000000a0: 6911 4bbe bf2f 2d3e dd51 1bbe 1ff0 6cbd
000000b0: 9908 683d 981f 8d3e 51fb 67bd 4f2c 82be
000000c0: 0a80 33be a176 403e a25a 27bd 7ff2 a53c
000000d0: 1d8b e9bc 7ca3 d6bd 2d69 ecbd 5923 b33d
000000e0: 7e68 8dbd 7030 57bc cfbd b93d 9224 9ebd
000000f0: 40d6 6cbe 047e afbd 79b5 823e 633b 50bc
00000100: 1a79 a93d 6457 92be e4af c2bd 15d7 db3d
00000110: 18f5 523c 8784 a13d a05a f8bd e52d 0dbe
00000120: 4f4f 733e 86be 93bb 604f c53e 5817 b93d
00000130: 3fe9 fc3e 03ef 96bc a48c 4d3d f4e6 273e
00000140: 3204 65be b0e9 403d 3f29 53bd 4eed d63d
00000150: a2ed 6dbc 6970 3d3e 8e0b 253e cc1c 04be
00000160: 993d 643e 6172 9f3c 4054 1dbe dc90 76be
00000170: 42b6 2e3e 5a11 103c a4f5 063e 14d4 f93c
00000180: fef0 20bd 3848 61be 0d0e 83be 9a63 3ebe
00000190: 830a 143e e83c 1a3e 5b89 c33d 5f18 8d3b
000001a0: 6c57 babe 16c3 54be c959 4bbe 605a 84bd
000001b0: 547b 7b3d b1c0 e83d f77e c63d c810 b2be
000001c0: d3a8 1b3e 7389 103e ceb3 08be a310 dd3d
000001d0: b93b 64be 8cbc c93d 8f27 183d 5486 c53d
000001e0: 6cb5 873e 1152 a7be 0ff0 013e 02d9 613e
000001f0: 3a4a a2bd c5d2 093e ee16 a83d 8145 44bd
00000200: 2249 b8be d3f4 90be 73c9 c1bd f6cd 22be
00000210: 8ac1 cebd ac27 8abe 4c4e c3be 306b 9fbd
00000220: c22f dabc 8a83 8fbe b655 00be 1ff7 debe
00000230: b08f 99be 0f13 c4bb ffc4 47bc e91d cebd
00000240: 58d9 c0bc f593 27be d31a 1a3e c9a2 3fbe
00000250: 6c0e 41be 7e3a 333e 50c8 d1bd 6e26 9c3d
00000260: dea4 52bd 97ae 34be a0cc 1e3d 2ff9 67be
00000270: 08a6 e73d bb09 293e d461 26bc bed9 813d
00000280: 3d98 47be 1cd7 c2bd bb2f 78be d978 883d
00000290: 84ff 23bc 1062 f8bd b6ac 223e edbe 87bc
000002a0: 25b0 803e fc55 b7bd 04f5 903d d144 d4bd
000002b0: 68a1 9ebd 9667 873d 95c5 333c 3f11 28be
000002c0: 856a 30bb 33c5 3e3e 45bb 0d3e 8af6 6a3d
000002d0: 92e9 883e e6f9 073e ac4e 8f3e 3522 00be
000002e0: 69e3 babd 6301 17be 0f86 fa3d a86d 70bc
000002f0: 324c dcbd dfbf 9a3b 6d9b 57be af4f ac3d
00000300: fd58 adbb b2e6 c63b d183 92be 6429 b43c
00000310: a64f d83d df22 2b3e 19ea 5a3d 3ee8 20bd
00000320: 23da 613d cfda 023e 4933 b8bd c494 443d
00000330: fd25 0cbe 3797 3e3e d954 9cbe 2d22 25be
00000340: 4478 d1be 16ab f5be 6371 08be 81a7 95be
00000350: 4402 a7bd 8892 74be 8db5 ebbe 9481 7dbe
00000360: 4437 b3bd bb44 bdbd f92f 3abe 8f31 3dbe
00000370: 51a4 86be a4fc 173e 3663 47be 0e1b 9cbc
00000380: 1109 fd3c d673 003e 610b 1a3d 0800 d43d
00000390: 4f72 143e de75 4cbe 70fa 4b3d 0a41 41be
000003a0: e7f1 273d 164a c3ba 05ea 4abc 40b8 033e
000003b0: 8bbe 253e 3082 18bd bcf9 3dbe 3de8 ebbd
000003c0: 0a6d b1bd b1e7 28be c880 7cbe 0c96 66be
000003d0: a3ca aa3d 7ec2 83be e073 87be 62fa 11be
000003e0: 6111 9f3c 2007 dcbc 0049 293e df9b 76be
000003f0: bb42 e03d 1f56 943d d716 a7be 831b d9bc

bias f4 [32]
-0.16915919 0.12030608 0.09374725 0.24234143 -0.19218408 0.059416894 -0.15395702 0.23177263
0.26698393 -0.062944286 -0.25615653 0.044219095 0.12099908 0.17525859 -0.053247873 0.029961582
-0.056578614 -0.041505836 0.21528739 -0.11324887 0.4111191 0.11834434 -0.13184918 -0.26722267
0.08058107 -0.060540374 0.066121094 -0.17541784 0.20127645 0.078546934 0.13927913 -0.28750876
00000000: 1138 2dbe 0963 f63d 8ffe bf3d 5a28 783e
00000010: e7cb 44be 215f 733d e9a6 1dbe ce55 6d3e
00000020: 1eb2 883e efe8 80bd f326 83be 151f 353d
00000030: 5ece f73d fd76 333e 711a 5abd fe71 f53c
00000040: fabe 67bd 0602 2abd 4c74 5c3e 06ef e7bd
00000050: 347e d23e 845e f23d 7903 07be 69d1 88be
00000060: b007 a53d 2ff9 77bd 7f6a 873d bca0 33be
00000070: 6a1b 4e3e 37dd a03d 309f 0e3e 5934 93be

weight f4 [2, 32]
0.17200518 0.003076292 0.11046362 0.06302176 0.07820108 0.028590465 0.18473741 0.15269527
-0.3152602 -0.10360657 -0.09064434 0.11473521 -0.059398882 -0.22700723 0.007166528 -0.2086301
-0.13785188 -0.101058155 -0.018583793 -0.06572761 -0.5655161 0.04654584 -0.16605051 -0.020449495
0.1695538 0.08013599 0.078976095 -0.16582452 0.112822 -0.11275326 -0.20697674 0.31304672
0.14779595 0.09512584 -0.07720574 -0.07712109 0.17427962 0.19219749 0.111357674 -0.054994
-0.12729898 0.16284667 0.2416391 -0.039575234 -0.08940562 -0.17217098 0.0760787 0.099821664
0.22152682 0.19843897 0.20368631 0.06935257 -0.46040013 0.039733708 -0.117285065 0.05516896
-0.021874938 0.22768429 -0.00073929084 0.14733455 -0.03005733 0.053006653 -0.10343037 0.18807344
00000000: 2022 303e 9e9b 493b c03a e23d 8d11 813d
00000010: e327 a03d 8d36 ea3c ce2b 3d3e 265c 1c3e
00000020: c969 a1be ae2f d4bd bda3 b9bd 4bfa ea3d
00000030: 3e4c 73bd 9574 68be 32d5 ea3b 21a3 55be
00000040: 0b29 0dbe 94f7 cebd 0a3d 98bc 329c 86bd
00000050: aac5 10bf daa6 3e3d 2509 2abe b385 a7bc
00000060: 839f 2d3e 571e a43d 38be a13d e7cd 29be
00000070: 390f e73d 2eeb e6bd b6f1 53be a947 a03e
00000080: d257 173e 56d1 c23d 0b1e 9ebd a9f1 9dbd
00000090: 5b76 323e 6bcf 443e 7e0f e43d 6341 61bd
000000a0: aa5a 02be 47c1 263e 3d70 773e a419 22bd
000000b0: 4b1a b7bd 974d 30be 26cf 9b3d 4d6f cc3d
000000c0: edd7 623e 9633 4b3e 2593 503e b808 8e3d
000000d0: 91b9 ebbe d0bf 223d 2733 f0bd d9f8 613d
000000e0: 1233 b3bc 1226 693e f8cc 41ba dede 163e
000000f0: ca3a f6bc 811d 593d 4dd3 d3bd 5396 403e

bias f4 [2]
-0.118200205 -0.120991796
00000000: f312 f2bd 8cca f7bd
