docs/notebooks/paper_experiments/results/unsupervised/iter_7/model_autoencoder_7.pt (torch, 32391 bytes, 13 tensors)

mean f4 [2]
00000000: 167a 26bf 0ebc 953f
-0.6503004 1.1698015

range f4 [2]
00000000: fbf9 b53e 2918 cd3e
0.35542282 0.40057495

weight f4 [20, 2]
00000000: abb1 db3e ff1e a33e b92c c63e 5761 2abf
00000010: 4ea3 ee3d 1372 cebd 89d7 0d3f 59b4 c23e
00000020: 4353 233f 3736 c63e 7e0b 9c3e 7eee 843e
00000030: 789f 83be fa8d 5d3e 35f3 85be a699 a73e
00000040: e616 223f c6f5 30bf 0850 903d 70e2 c23e
00000050: c8d2 08bf 0651 07bf e2d0 a4be 966f 0d3f
00000060: cb77 a53e d6d6 df3e edb5 c7be ebec 32bf
00000070: 8461 f43e b5d9 ac3e 0040 30bf 1090 993e
00000080: 5e0e 25bf 90ff df3e 5e78 5abe 17c4 893e
00000090: 2d0c 063f e557 05be 1cc4 a2be 494b 353f
0.42908987 0.31859586 0.38705996 -0.6655478 0.11652242 -0.10080352 0.55407006 0.3802822
0.6379892 0.38713238 0.30477518 0.25963205 -0.25707603 0.21636191 -0.26162115 0.32734412
0.6331619 -0.6912502 0.07046515 0.38063383 -0.53446627 -0.52858007 -0.32190615 0.5524839
0.32317957 0.43718594 -0.39005986 -0.6989276 0.4773065 0.33759847 -0.68847656 0.29992723
-0.6447505 0.43749666 -0.21334979 0.26907417 0.5236233 -0.1302181 -0.31790245 0.70818

bias f4 [20]
00000000: 4070 a9be 2420 1abf e4b8 26bf 1fc6 01bf
00000010: f75f 1f3f e835 05bf 1186 163f e432 babe
00000020: c530 97be 53e5 83be d3fa 1bbf 61fd bcbe
00000030: 4a73 c4bd 4cfe fbbe 65b5 29bf d451 fe3e
00000040: 2b05 9c3e 1d39 c9be 32e1 303f 1c06 03be
-0.33093452 -0.6020529 -0.6512587 -0.50692934 0.62255806 -0.5203538 0.5879832 -0.3636695
-0.29529396 -0.25760898 -0.609296 -0.36912063 -0.09592302 -0.4921745 -0.6629241 0.49671805
0.30472693 -0.39301386 0.6909362 -0.127953

weight f4 [20, 20]
00000000: caa8 473e e220 79bc db86 4bbc d177 2c3e
00000010: c4fc 35be 63f0 483e 1a25 1d3c 81b2 a93d
00000020: f025 40be 324a 34be 9979 46bd 9599 073e
00000030: 0060 eabc 1293 483d 8dce 343e b379 a23b
00000040: 836e 3c3d d9af d03d 0446 233e 6e91 b7bd
00000050: 0e65 27bd b2dc 333e e632 533e a204 b63d
00000060: 7e3f 163e 7683 2e3e 2706 223e e436 133e
00000070: 6477 35be 5710 c2bc e844 e03d 4b23 143e
00000080: 75f6 183e f7c5 2f3d 8287 213e 9d81 52be
00000090: 9286 76be 9bfa 263e ddf8 e7bd 667b 4b3e
000000a0: a6ea 4fbe a541 85bd b1c0 173e 63db ebbd
000000b0: 8fcf 17be 0283 45be 108f 45be ad37 78bd
000000c0: 4c82 86bd 1c14 8abc b82e 24be 1122 2a3e
000000d0: 97f9 153e f278 4f3e 2f4a 38be 3c23 6cbe
000000e0: ed86 dabd 796f 73be 3e96 363e 268a 47bc
000000f0: 34d5 923d 196a 243e 65b4 443e 5377 cfbd
00000100: 4731 25be 4edc f13d 8604 823d 6990 6bbe
00000110: b54e abbd 5944 39be 864b c43d 728b 23be
00000120: 6b7b 3a3e c795 54bd 5f09 b7bc ac19 bd3d
00000130: cbbc 283e 4bbb 743d 2e45 95bd 1393 fa3c
00000140: d372 653c daf2 4cbd 57f2 8dbb 90d6 013e
00000150: 8269 933d 545f 1e3e 45d7 3fbe 5f27 243e
00000160: 6415 babd 1667 72bc ae82 1fbe 8ac3 e73d
00000170: 6bd2 95bd 5cb8 323e 2c39 42bc f6fa 30be
00000180: c7db c3bd 5f5b d23d de14 f5bd e05c 4c3d
00000190: 9013 04be 0117 9bbd ce7e 0cbe 18b3 033e
000001a0: 0014 afbd 4ca8 0ebe 8e88 dcbc 64fa 75bc
000001b0: d6ff 2f3e 267c a53c d8d2 f53d 0e23 20bc
000001c0: d7f9 1f3e 7d02 ed3d 63d6 3bbd a293 d6bd
000001d0: c69e 23be 7e06 30be abbf 66be a7fb c03d
000001e0: fb15 283e b5a6 34be b3f5 22bd 4b91 3e3e
000001f0: 9a58 2bbe ec66 cebc 9fdf 19be 4063 163d
00000200: 93e4 923d a7b0 d6bd ecf6 483e 5c53 e63d
00000210: c50e 4e3e 597a e83d 1286 4c3e 2864 73be
00000220: 2122 0dbc 6289 903c caeb c73c 758e 09bd
00000230: 7848 de3b 288d fc3d eac8 393e 1cc8 1c3d
00000240: 5456 8e3d 9e21 1dbd 6964 bc3d 92fd 9abc
00000250: bb13 b6bd fe5f 10bd 2f5d d23d b3fb 3abe
00000260: 0fea e53d 6e2e 59be 4511 4abe bee9 f43d
00000270: 3540 cbbd 36f1 84bd 241f 8ebc c7b4 993d
00000280: 407d 003e 6bbb 2a3e 977c 273d 0c26 be3d
00000290: 23be 14be 3c6d 9b3b c3f9 dfbd 30a7 8ebc
000002a0: 7c63 193d 6cc5 5abd c413 34be 6f9a 213e
000002b0: df44 f33d b899 73be ae6e 683d 036f ccbd
000002c0: 46ca e0bd 5957 6ebd f4f8 133e b616 2e3e
000002d0: ebee b13d 4072 60be 8126 0a3d 594e 3f3c
000002e0: ebed d0bd 5eb0 12be 33af c9bc 133b 3e3e
000002f0: 4e36 343e 6bc5 e5bd 4fe6 113e 9940 503e
00000300: 87a9 d1bd 31b6 af3c 12a7 17be 406d 453e
00000310: 7496 273e 662b 893d 5da3 133c e01a 553e
00000320: 0429 4b3e 311f 13bd 7f34 a83d 0de6 d0bd
00000330: 1614 fa3d 8dbf 233e 1443 98bd 7333 ad3d
00000340: db79 063e 9522 35be d4a1 19be 7027 16be
00000350: 6649 53be 7b79 c43d 9bd7 ba3d d4da 613c
00000360: 2c83 60bd 4c5a 113e 4739 f8bc e8fc 1ebe
00000370: 596f 66bc 21ed 303e 1e6f dabd 8aba 2cbe
00000380: fb4f 583d bf65 1a3d 12a5 df3d d996 2c3e
00000390: 54af 8cba e7aa 2e3e 5ccb fa3d 44fa 3d3d
000003a0: 58f3 103e 0837 09be d1fd cebd 4310 51be
000003b0: 5e98 45be 46d8 903d 6bbc 003e 0d74 863d
000003c0: a125 6dbe b5d8 f7bd 804f 533e e55a 07be
000003d0: d5a9 4bbe 1861 16be 9c19 c73c 4e8d e7bc
000003e0: 26b5 573e 4330 d8bd 8841 683e 766a 3abe
000003f0: fae9 313e 0eb3 073e 52ce 26be 6b09 3d3e
0.19497982 -0.015205594 -0.012422289 0.16842581 -0.17772204 0.1962295 0.009591365 0.08286
-0.18764472 -0.17606428 -0.04845581 0.1324218 -0.02861023 0.048968382 0.17656918 0.0049583553
0.04600383 0.1018979 0.15944678 -0.089632854 -0.040867858 0.17564657 0.20624885 0.088876024
0.14672658 0.17042336 0.1582266 0.14376408 -0.17721325 -0.023689432 0.10950643 0.14466588
0.14937766 0.042913403 0.15774348 -0.20557256 -0.24074772 0.16306536 -0.11326764 0.19871292
-0.20304355 -0.06506661 0.148196 -0.11516454 -0.14825271 -0.19288257 -0.19292855 -0.06059997
-0.06567821 -0.016855292 -0.16033447 0.16614558 0.14645992 0.2026098 -0.17997049 -0.23060316
-0.10670266 -0.23772992 0.1783075 -0.012178933 0.071695715 0.16056098 0.1920944 -0.10130181
-0.16132079 0.11809598 0.06348519 -0.23004307 -0.083646215 -0.18092479 0.095847175 -0.15971163
0.18211143 -0.05190065 -0.022343336 0.09233412 0.16478269 0.05974893 -0.072885856 0.030587709
0.014004427 -0.05003629 -0.0043318677 0.12679505 0.071978584 0.15466052 -0.18734463 0.16030644
-0.09086111 -0.014795085 -0.15577194 0.11316593 -0.07315525 0.1745314 -0.011854451 -0.17283234
-0.095634036 0.10271334 -0.11966871 0.04989326 -0.12898088 -0.07572747 -0.13720247 0.12861288
-0.085487366 -0.13931388 -0.026920583 -0.015013311 0.17187437 0.0202008 0.12003106 -0.009773983
0.1562265 0.1157274 -0.045858752 -0.104773775 -0.15978536 -0.17189977 -0.22534053 0.09422999
0.16414635 -0.17641719 -0.0397851 0.18610112 -0.16733018 -0.025195561 -0.15026711 0.036715746
0.07172503 -0.104829125 0.19625443 0.11246368 0.20122822 0.11351461 0.19973019 -0.23768675
-0.008614094 0.017643634 0.024404425 -0.033583123 0.0067835413 0.12331611 0.18143049 0.038276777
0.069500595 -0.038362138 0.09198839 -0.01891974 -0.08890482 -0.035247795 0.102716796 -0.18260078
0.11226284 -0.21209118 -0.1973315 0.11958645 -0.09924356 -0.0649132 -0.017348833 0.07505184
0.12547779 0.16673057 0.040890303 0.092846006 -0.14525656 0.0047432464 -0.1093631 -0.017413706
0.03744839 -0.053410932 -0.17585665 0.15781568 0.118783705 -0.23789108 0.056746177 -0.09982111
-0.109760806 -0.05818877 0.14450437 0.17000851 0.08688148 -0.21918583 0.033728126 0.011676394
-0.10201629 -0.14325091 -0.024619674 0.18577223 0.1759884 -0.11219295 0.14248012 0.20337142
-0.10237413 0.02144918 -0.14809826 0.19279957 0.16365987 0.06697731 0.009011117 0.20811033
0.19839865 -0.03591842 0.08213138 -0.10200129 0.12210862 0.1599104 -0.07434669 0.08457079
0.13132422 -0.17688973 -0.15003139 -0.14663482 -0.20633468 0.09593483 0.09123155 0.013785083
-0.054812595 0.14194602 -0.03030075 -0.15526164 -0.014064633 0.17277957 -0.10665725 -0.16868034
0.05281065 0.03769469 0.109201565 0.16854419 -0.0010733404 0.17057382 0.12245819 0.04638125
0.14155328 -0.13399899 -0.101070054 -0.2041636 -0.19296405 0.07072501 0.12571876 0.06565104
-0.23158886 -0.121018805 0.20635796 -0.13218267 -0.19889005 -0.14685476 0.024304204 -0.028265622
0.21065196 -0.1055608 0.22681248 -0.18204674 0.17374411 0.13251898 -0.16289642 0.18460624

bias f4 [20]
00000000: 5f8b fe3b b060 2a3e da46 b73d 0da8 9a3d
00000010: 84fd 22be 06a5 66be 9f0a f93a ad3c c8bb
00000020: ecb8 8d3c 0e91 df3d ed5b ecbd 7025 033e
00000030: cea3 10be 199b 1fbe f626 f03d 4870 21be
00000040: e885 afbc 07c9 2f3e eff3 2f3d be31 67bd
0.007768079 0.16638446 0.08949061 0.075515844 -0.15917021 -0.22523889 0.0019000358 -0.0061107487
0.017300092 0.10916339 -0.11540971 0.1280725 -0.14124987 -0.15586509 0.11726181 -0.15765488
-0.021426156 0.1716653 0.042957243 -0.056443922

weight f4 [1, 20]
00000000: dd0a 253e 77a5 06be c477 3cbe b983 a1bd
00000010: c9d9 da3b 6e6c 343e 6afd 44bd 9f05 1c3e
00000020: 7653 423d 6bae 013e 16da 76be aa19 8dbd
00000030: c6e3 03be e65b bc3c ca54 0a3d 2bc1 f93d
00000040: 62c8 843d 8de0 18bd 6610 f03d 96d2 5e3d
0.16117425 -0.13149057 -0.18405062 -0.07886452 0.006678794 0.17619488 -0.048093237 0.1523652
0.047442876 0.12664191 -0.2410663 -0.06889661 -0.12879857 0.02299304 0.033772267 0.12195047
0.064835325 -0.037323523 0.11721878 0.05440005

weight f4 [20, 1]
00000000: 79ed 433d 9ecb 1f3f 757b 413f 4137 2dbe
00000010: fafe f1be 43ae b9be a871 9fbe becb 5a3f
00000020: 580f 193e f8f7 1b3f bdd1 4e3f 188d 1ebf
00000030: 1b52 843d 8f76 03be f9a8 ebbd a40f 023f
00000040: 5a6e 8a3e dbaa 603f 9a2a b2bc 86d4 20bf
0.047833893 0.6242007 0.75579005 -0.16915609 -0.47264844 -0.36265764 -0.311414 0.85467136
0.1494726 0.60925245 0.80788785 -0.6193404 0.06460973 -0.12838195 -0.11506838 0.50805116
0.27037317 0.87760705 -0.02174883 -0.62824285

bias f4 [20]
00000000: 11b6 443f f610 f2be b8e1 02bf a3c4 583f
00000010: cd39 fdbe 52b4 813e 368d 70bf 4dc7 b13e
00000020: 01de d3be 06e7 793f d237 ad3d f839 593e
00000030: b616 39bf 904b abbe 9033 23bf 5fca 473f
00000040: aa12 193e cde7 3bbf 8b85 0b3d d724 e6be
0.7684031 -0.47278565 -0.5112567 0.84675044 -0.4945816 0.25332886 -0.9396547 0.34722367
-0.41380313 0.9761814 0.084579125 0.2121352 -0.7230028 -0.33456087 -0.63750553 0.7804317
0.14948526 -0.73400575 0.034062903 -0.44949982

weight f4 [20, 20]
00000000: f8ed 26be 9f7a 03be b998 4e3d 7677 1d3e
00000010: 15e7 c53d 91af b23d c852 3c3d 8f40 5e3e
00000020: 34e7 39be 7afe d33c 0f6d 85bb 6240 2d3e
00000030: 71fe e03d c8a5 443e 44d7 62be 81e1 523e
00000040: 2b14 523e c4ef 253e 33f6 4ebd e2c8 80bd
00000050: 77b9 de3d 0b46 1b3e ae73 eabd 179a 233c
00000060: e416 9bbd 3a03 bb3d 3844 3fbe a8f0 f83a
00000070: 6ade 633e e038 4bbd 9605 d63d 3bc1 61be
00000080: f90a a2ba f009 883d 1804 e73d 7257 4bbe
00000090: 1f77 d2bd 784b b63d 3edc c63c 9f1a 0d3e
000000a0: 1597 d5bd 7c05 9b3d fd62 ac3c 7821 bbbd
000000b0: 572e 0f3e 3f34 07bd 57c0 b03d 9457 653d
000000c0: 1055 293d c9ec 3fbe e195 813d ec60 e63d
000000d0: 8173 2d3d 449c 81bd 4017 863d 23cf dcbd
000000e0: 48b5 0a3e 11e8 00bd f56e 1e3e 9a24 30bd
000000f0: e280 d2bd 0982 493e 4ee2 0a3e 8167 073d
00000100: 6ec8 10bd 929a 3dbe c1a7 083e d517 3cbc
00000110: 2536 133c 854d a13d cdf1 eabd a78e 203e
00000120: e778 923d 85d3 3dbd c602 c3bd 024a 30be
00000130: 9c08 d3bd e451 eabd 74df debd 4a6c f53d
00000140: 9b84 44be 3d92 91bb 06f3 c7bd e91f d83b
00000150: 042c 3b3e 731b 83bd 71bc b03d 9fb4 0cbd
00000160: 0b9c 9b3d 511a 123e c9bc 693e 96d3 d2bd
00000170: a525 0ebe 755f 7d3d 2e7a cc3d 711b 1d3e
00000180: e361 963a b6e9 8bbd 6f53 ed3d f0b5 c43d
00000190: ffb1 79bd d01b 78bd 78ab eabd 1c1d 40be
000001a0: 8926 f4bd a4c0 bdbd 7e20 fd3d f332 323e
000001b0: ff95 41bd d2fa 98bc e0e3 c4bd b7fa 54be
000001c0: daa9 033e 3ffa 75bd 8651 4bbd 9c0c f7bd
000001d0: ae78 65bd c149 363d 794d 62be 04c3 e73c
000001e0: f266 ae3d a925 de3d b2e4 41be c372 9ebd
000001f0: 9293 443e f6d5 ce3c 5a56 49bc ee91 34be
00000200: 9368 373e ed4a ce3d 1063 4abe 408c 41be
00000210: d8a5 f3bd c92f 093d b54d 063e 720e 123e
00000220: 4839 6bbe 2720 c43d 360d 993d 1088 b2bd
00000230: 176f 9b3c 028f 463e 9588 4bbd 4392 fa3c
00000240: fd2a fb3d 7d53 363e 0115 2cbd 6783 50be
00000250: a6e2 f5bd 51cd 0dbe 8019 45bd 2083 2abe
00000260: 4c93 723e 592a f7bd 7c96 29be ebb7 073e
00000270: a28b c03c 5972 fdbd 20a8 f0bc b5fe 1b3e
00000280: ef1f e1bd 134c e03d c91f 7bbd fd07 0c3d
00000290: 9472 333e b4f1 69bd 6748 61be 34fd 33be
000002a0: c2cd 123e 219d a63d 7f90 653d 0c3b de3d
000002b0: 1827 0b3d e508 053e 53aa c43c 2f17 4ebe
000002c0: f432 213e 205f 49be 59f2 aabd 36e1 353e
000002d0: 25d5 e5b9 a776 9abc a6e9 883d a70c 303e
000002e0: aaf6 0ebe 0027 ae3d b40c 0ebd 36ea b7bd
000002f0: c5df 2c3d 4f2b 31be b700 c3bd 84a2 4b3e
00000300: 3acf 653e 3206 d3bd ca2a 463e efb6 05be
00000310: b519 4c3e 7a41 1d3d bfff 2a3e be03 d63d
00000320: 341e 723d 532c d5bd 985c bb3d 2324 1dbe
00000330: ccf3 85bc 5bdc babc b020 063e 5805 0d3c
00000340: fa0f 553c 06af 493e 1942 2b3e 989f a6bc
00000350: 0a48 833d e8ee 80bc d610 61be 0d91 1fbb
00000360: c5de 6ebe 9e8e cebd 5d1a 3e3e b7ba 5abc
00000370: 0108 b3bd 599a b83d 1079 ddbd aa75 fc3b
00000380: ea67 263e 6835 49be 6e34 03be 62b0 e1bd
00000390: 0031 243e 43e4 3abe b291 1cbe 8409 00be
000003a0: 85c6 463e 6e6c 3abe a422 86bd 6957 123e
000003b0: a10b 743d 3740 86bd 670f d8bd 198f c0bb
000003c0: 3983 65bd 4ae9 b8bd 0e06 0abe 8994 debd
000003d0: 30e1 cf3d e272 07be 4483 203e dcf1 123e
000003e0: d1c6 163e c6b6 bebc 904a 47be 8e39 19bd
000003f0: 5c65 12bd f8ae 61bd e67e 713e 3d4f 913c
-0.16301715 -0.12839745 0.050438616 0.15377602 0.09663216 0.08724893 0.045977384 0.21704315
-0.18154603 0.02587818 -0.0040718387 0.16919091 0.10986031 0.19203866 -0.2215243 0.20593835
0.20515506 0.16204745 -0.050527763 -0.06288315 0.10875218 0.15163438 -0.114478454 0.009985468
-0.075727254 0.09131475 -0.18678367 0.001899262 0.22252813 -0.049614787 0.10450284 -0.22046368
-0.0012362889 0.066425204 0.11280078 -0.19857576 -0.10276627 0.08901113 0.024274942 0.13779686
-0.10429207 0.075694054 0.021043295 -0.09137243 0.13982521 -0.03300881 0.08630436 0.055991724
0.041340888 -0.1874267 0.06327415 0.11248955 0.04234648 -0.063286334 0.06547403 -0.10781696
0.13545716 -0.031471316 0.15472014 -0.043003656 -0.10278489 0.1967851 0.13562891 0.033057693
-0.035347395 -0.18515995 0.13345243 -0.011480291 0.008985077 0.07876114 -0.11471901 0.15679418
0.071519665 -0.0463443 -0.09522013 -0.17215732 -0.103043765 -0.11441401 -0.10882464 0.11983545
-0.1919121 -0.004442482 -0.0976315 0.006595601 0.1827851 -0.0640172 0.08629692 -0.03435194
0.07598122 0.14267851 0.22825922 -0.10294263 -0.13881548 0.061858613 0.099842414 0.153425
0.0011473264 -0.06831686 0.11588179 0.09605014 -0.060960766 -0.0605734 -0.11458486 -0.18761104
-0.119214125 -0.09265259 0.12359713 0.17402248 -0.047262188 -0.018674288 -0.09613776 -0.20798765
0.12857762 -0.060053106 -0.049638294 -0.12062952 -0.056023292 0.04450393 -0.22099866 0.028291233
0.08515729 0.10847027 -0.18934897 -0.07736733 0.19196919 0.025248509 -0.012288654 -0.17633793
0.17910986 0.10072885 -0.19764352 -0.18901157 -0.118968666 0.033492837 0.1311558 0.14263323
-0.2297107 0.09576445 0.07473223 -0.08717358 0.01897387 0.1939049 -0.0496908 0.030587321
0.12264059 0.17805286 -0.04201222 -0.20362626 -0.120061204 -0.13847853 -0.04812002 -0.16651583
0.23689002 -0.12068624 -0.16561311 0.13253753 0.023504082 -0.12375326 -0.029377043 0.15233882
-0.10992419 0.1095201 -0.06130961 0.034187306 0.17524177 -0.05711527 -0.22000276 -0.17577058
0.14336303 0.08135439 0.056046005 0.10851106 0.03397283 0.12991674 0.024006998 -0.20126031
0.15742093 -0.19665194 -0.083470054 0.17761692 -0.0004383709 -0.018855406 0.0668519 0.17192326
-0.13961282 0.085035324 -0.034680083 -0.08980219 0.04220559 -0.17301677 -0.09521621 0.19886214
0.22442332 -0.10303916 0.1935226 -0.13058065 0.19931681 0.03839252 0.16699122 0.104499325
0.059110835 -0.10408845 0.0914852 -0.15345816 -0.016351603 -0.022810152 0.13098407 0.008607231
0.013004297 0.19695672 0.16724433 -0.020339772 0.06410225 -0.01573892 -0.21979079 -0.0024347932
-0.23327167 -0.10085796 0.18564744 -0.01335018 -0.08741761 0.090138145 -0.108141065 0.0077044563
0.16250578 -0.19649279 -0.12812969 -0.110199705 0.16034317 -0.18251137 -0.15289953 -0.1250363
0.19411667 -0.18205425 -0.06549576 0.14291157 0.059581403 -0.06555217 -0.10549813 -0.0058764336
-0.056033347 -0.09028871 -0.13478872 -0.108681746 0.10150373 -0.13227418 0.15675074 0.14350075
0.1472428 -0.023280513 -0.19462037 -0.037408404 -0.035741195 -0.055098504 0.23583564 0.01773798

bias f4 [20]
00000000: 9e59 4f3e 98d4 f83d a37a 4ebe eae3 053e
00000010: c37f 13bd e3b1 cdbd 280a 4dbe ca90 993d
00000020: de5e bcbd 2507 57bd 1115 e0bd 7e9e 6b3e
00000030: 35c1 fa3d 0be2 12be 840e 463e 8d9c 71be
00000040: 8f87 d33b 2171 9e3d 6bca 2bbd 2049 56be
0.2024903 0.12149924 -0.2016397 0.13075224 -0.036010515 -0.10043695 -0.20023406 0.074983194
-0.09197782 -0.052497048 -0.10941518 0.23009679 0.122438826 -0.14344041 0.19341475 -0.23594876
0.006455369 0.077364214 -0.041941088 -0.20926332

weight f4 [2, 20]
00000000: ed10 93bb 49ef 573e ac59 513e 19e4 463e
00000010: 5d1d 44be d2d4 15be e4dc 1bbe dbae 1f3d
00000020: 7cee e53d ac6b ee3b a7be 253e f5cd 3b3e
00000030: ca39 033d 4311 383d 6288 533e 8402 b5bc
00000040: 44a5 aebd cfe5 12be 0758 febc 2ea2 c23d
00000050: f692 ff3d 355a 3ebe cd57 2c3e 6cbd a93c
00000060: 6865 113d c04e 36be 1db9 1bbe 7fe3 35bd
00000070: a8b1 223d 795a 72be 9e8d 81bd 5f7e 443e
00000080: ebb9 97bd ad4a dcbd e662 373e 3238 45be
00000090: af0c 71be d661 50be f7a6 9f3d 61d3 573e
-0.0044881017 0.21087374 0.20444363 0.1942295 -0.19151826 -0.14631966 -0.15220982 0.038985115
0.11227128 0.007276019 0.1618601 0.18340285 0.032037534 0.044938337 0.20657495 -0.022095926
-0.08527616 -0.14345478 -0.031047834 0.095035896 0.124792024 -0.18589099 0.16830368 0.020720206
0.0354971 -0.17803478 -0.15207334 -0.04440641 0.039720207 -0.23667325 -0.063258395 0.19188832
-0.07408508 -0.10756431 0.1790882 -0.19259718 -0.23539995 -0.20349821 0.07795518 0.21076728

bias f4 [2]
00000000: 6d76 fabc fe65 05be
-0.030574048 -0.13027188
