docs/notebooks/paper_experiments/data/unsupervised/iter_6/model_autoencoder_6.pt (torch, 32391 bytes, 13 tensors)

mean f4 [2]
0	0xbf2279d5	-0.6346715
1	0x3f979fb2	1.184561

range f4 [2]
0	0x3eafd0e1	0.3433905
1	0x3ece54fe	0.4029922

weight f4 [20, 2]
0	0x3dc631b2	0.096774474
1	0x3fa58d25	1.2933699
2	0xbf751429	-0.95733887
3	0xbef1fc29	-0.47262695
4	0x3ecc2f3d	0.3987979
5	0x3f80110d	1.0005203
6	0xbfc6c419	-1.5528594
7	0xbd953534	-0.07285538
8	0xbfc4a10a	-1.5361645
9	0x3c74c4dd	0.014939514
10	0xbf7cbd16	-0.9872602
11	0xbe415363	-0.18879466
12	0x3e795c70	0.24351668
13	0x3f1695bb	0.5882222
14	0x3e44a774	0.19204503
15	0x3fa12af3	1.2591232
16	0x3ee1d91c	0.44110954
17	0x3ece7406	0.40322894
18	0xbf00cc08	-0.50311327
19	0xbe5a4292	-0.21314457
20	0x3f394ac3	0.723797
21	0xbe617310	-0.22016549
22	0x3ea617ac	0.32439935
23	0x3f96e511	1.1788656
24	0xbf86bafd	-1.0525814
25	0xbf5887bf	-0.8458213
26	0x3f32d85b	0.6986138
27	0xbf2a7d4b	-0.6659743
28	0x3e9ae7ec	0.30255067
29	0x3f6ee972	0.9332496
30	0xbf8bb726	-1.0915267
31	0xbf3fdb49	-0.7494398
32	0x3ef319aa	0.47480518
33	0x3f2a3df1	0.66500765
34	0xbf3929ed	-0.723296
35	0xbef51423	-0.47866926
36	0x3f981d74	1.1883988
37	0xbfa20a8c	-1.2659469
38	0x3f21814b	0.6308791
39	0xbc638a8d	-0.013888014

bias f4 [20]
0	0x3f00ca38	0.5030856
1	0xbee7472c	-0.45171487
2	0x3fb82772	1.4387038
3	0x3ea19d8a	0.31565505
4	0x3df6cb23	0.12050464
5	0xbf18c043	-0.5966837
6	0x3f90faed	1.1326576
7	0x3f150b5e	0.5822047
8	0x3e8db4be	0.27676958
9	0x3f0a3c71	0.53998476
10	0x3f4e1f79	0.80516773
11	0x3fb8e2d7	1.4444226
12	0xbe07a1d6	-0.1324533
13	0x3fb90295	1.4453913
14	0x3f4ec736	0.8077272
15	0xbf34f6c2	-0.7068902
16	0x3ea34060	0.31885052
17	0x3e03de35	0.12877734
18	0xbeaba223	-0.33522138
19	0x3b91d4bd	0.004450409

weight f4 [20, 20]
0	0xbe1cdcd3	-0.15318613
1	0x3e0830d0	0.1329987
2	0xbdca104c	-0.0986639
3	0x3e0ca880	0.13736153
4	0x3e5ab360	0.21357489
5	0x3ea10920	0.31452274
6	0xbec89e1c	-0.39183128
7	0xbd1db42f	-0.038501915
8	0xbe2926d5	-0.1651872
9	0x3d464ee0	0.048415065
10	0x3d4a9d59	0.049466465
11	0xbe027a47	-0.12741958
12	0x3e309cc1	0.17247297
13	0xbdc6fc65	-0.09716109
14	0xbe8ad06a	-0.27112132
15	0x3eb78ecb	0.3585113
16	0xbe9d71ff	-0.30751035
17	0x3e3539d1	0.17697836
18	0xbe4371c6	-0.1908637
19	0x3c4982bc	0.012299236
20	0xbef95896	-0.48700398
21	0x3eae65b7	0.34061977
22	0xbe0a44da	-0.13502827
23	0x3ed67f8d	0.4189419
24	0x3e2f0444	0.17091471
25	0x3e9c29d2	0.30500656
26	0xbdb559d3	-0.08855023
27	0xbdef830c	-0.11694917
28	0xbe066c25	-0.13127191
29	0x3e0df52c	0.13863057
30	0xbd2f642d	-0.042820144
31	0xbd292300	-0.041293144
32	0x3daf9d91	0.08574975
33	0xbee4e05f	-0.44702432
34	0xbe97e1e6	-0.29664534
35	0x3efb05ce	0.49027866
36	0xbb693583	-0.0035584874
37	0x3e533a69	0.2062775
38	0xbcf76ec5	-0.030204186
39	0xbdb3e440	-0.087837696
40	0xbe3d3148	-0.1847583
41	0x3eaae093	0.33374462
42	0xbebabec3	-0.36473665
43	0x3d7b2e66	0.061323546
44	0x3e8ff315	0.28115144
45	0x3e7ce008	0.24694836
46	0xbeac471f	-0.3364801
47	0xbeb5c4e9	-0.35501793
48	0xbe72524a	-0.23664203
49	0x3ea933de	0.33047384
50	0xbdcd2cc3	-0.10018303
51	0xbec40172	-0.38282353
52	0x3e07c25a	0.13257733
53	0xbe6a4061	-0.22876121
54	0xbec1e74a	-0.37871772
55	0x3d495d83	0.049161445
56	0xbe88422a	-0.2661298
57	0x3e137b5f	0.14402531
58	0xbd931583	-0.071818374
59	0xbe314648	-0.17311966
60	0xbe2d3887	-0.16916095
61	0x3e292947	0.16519652
62	0xbe9963f3	-0.29959068
63	0x3d1f013a	0.03881953
64	0x3dea13fb	0.11429592
65	0x3e9b2600	0.3030243
66	0xbcdc537e	-0.02689528
67	0xbea2019a	-0.31641847
68	0xbe8cf00d	-0.27526894
69	0x3e8ff66c	0.28117692
70	0x3c44a9ee	0.012003405
71	0x3cfc966e	0.03083345
72	0x3e923ab9	0.28560427
73	0xbde50886	-0.11183266
74	0xbde1a9c0	-0.11018705
75	0x3ce81362	0.028329555
76	0x3cbd261d	0.023089463
77	0x3dc1d136	0.09463732
78	0xbe01d552	-0.12679031
79	0xbd29d6c9	-0.0414646
80	0xbf11be04	-0.56930566
81	0x3ed354c6	0.41275615
82	0xbf253013	-0.6452648
83	0x3f4f0eb5	0.80881816
84	0x3f65f2a7	0.89823383
85	0x3f221a34	0.6332123
86	0xbf43d0f7	-0.7649073
87	0xbec65641	-0.38737682
88	0xbedcf67c	-0.43156803
89	0x3e2e06a4	0.1699472
90	0xbe4a9536	-0.19783482
91	0xbe9dc669	-0.30815437
92	0x3ec6cec5	0.38829628
93	0xbf8eaa5c	-1.114574
94	0xbef4923d	-0.4776782
95	0x3ed9de97	0.42552635
96	0xbdb34943	-0.08754208
97	0x3f109422	0.5647603
98	0xbf0b7533	-0.54475707
99	0xbec13eea	-0.37743312
100	0xbde14182	-0.10998823
101	0x3e9e6574	0.30936778
102	0xbdfce96d	-0.1234921
103	0x3e91a0fc	0.28443134
104	0x3e851b6a	0.25997478
105	0x3e9ef5c3	0.31046876
106	0xbec32377	-0.38112995
107	0xbedfbe40	-0.43699837
108	0x3df0ee85	0.11764244
109	0x3eb02794	0.34405196
110	0xbd50b4c3	-0.050953638
111	0x3ba4c48e	0.005028314
112	0x3e9d21bd	0.30689803
113	0xbf1e6ea6	-0.61887586
114	0xbe00d792	-0.12582234
115	0x3dd17591	0.10227502
116	0xbe8aee0d	-0.27134743
117	0x3e83182e	0.25604385
118	0x3dab54d8	0.08365792
119	0x3d3930b0	0.045212448
120	0x3f7e9d5f	0.9945888
121	0xbeaad55a	-0.333659
122	0x3f15dd71	0.5854102
123	0x3ec6a95c	0.38801086
124	0x3e456dc3	0.19280152
125	0xbeca95bc	-0.39567363
126	0x3f7c28a1	0.98499495
127	0x3f230f9d	0.636957
128	0x3e80854c	0.25101697
129	0x3ec63508	0.38712335
130	0xbd4c12d6	-0.04982265
131	0x3f4b3dc6	0.79391134
132	0xbeed83cb	-0.46389613
133	0xbe32cc4b	-0.17460744
134	0x3f15426a	0.58304465
135	0xbefad5af	-0.48991153
136	0x3ebfe390	0.37478304
137	0x3db3fc64	0.08788374
138	0xbfb8dce5	-1.4442412
139	0xbe9947be	-0.29937547
140	0xbe3578e2	-0.17721894
141	0x3f29fd7a	0.664024
142	0xbeaf0354	-0.34182227
143	0x3f119d6b	0.56880826
144	0x3f17e128	0.59327936
145	0x3ef782b2	0.483419
146	0xbf2f0ef6	-0.68382204
147	0xbe8519e8	-0.25996327
148	0xbca91a78	-0.020642504
149	0x3daa0e04	0.083034545
150	0xbe71d6ec	-0.23617142
151	0xbeb4181d	-0.35174647
152	0x3ee402b7	0.4453332
153	0xbf7b8e32	-0.9826385
154	0xbda083c5	-0.07837633
155	0x3efc8531	0.49320367
156	0xbbaca884	-0.005269112
157	0x3ee69f23	0.45043287
158	0xbe33aa03	-0.17545323
159	0x3e0d9bc3	0.1382895
160	0xbe95db3d	-0.29268828
161	0x3ef72d75	0.48276868
162	0xbee2fbfe	-0.4433288
163	0x3eed7dc2	0.46385008
164	0x3f56ebec	0.8395374
165	0x3f584301	0.8447724
166	0xbf094118	-0.5361495
167	0xbe9a0295	-0.30080095
168	0xbecc3f79	-0.39892176
169	0xbd56ebba	-0.0524709
170	0xbeb4366a	-0.35197765
171	0xbf080505	-0.5313266
172	0x3efce6bd	0.4939479
173	0xbf5d980c	-0.8656013
174	0xbefdf87e	-0.49603647
175	0x3f00dc27	0.50335926
176	0xbca00dac	-0.01953777
177	0x3e94884e	0.29010242
178	0xbec07f06	-0.3759691
179	0xbdb21673	-0.08695688
180	0xbe4916f0	-0.19637656
181	0x3f03f999	0.5155273
182	0xbe7d2cfb	-0.2472419
183	0x3f092615	0.53573734
184	0x3f314b84	0.6925585
185	0x3f0e0f1e	0.55491817
186	0xbf072d47	-0.5280346
187	0xbe12db96	-0.14341578
188	0xbd9d10e8	-0.0766924
189	0x3e88b1c8	0.26698136
190	0xbe119c8e	-0.14219877
191	0xbeaf765a	-0.34269983
192	0x3f060c8f	0.5236291
193	0xbf4a3748	-0.789906
194	0xbeb4e1f5	-0.35328642
195	0x3ee81a3b	0.45332512
196	0x3aa222e7	0.0012370021
197	0x3e806874	0.2507969
198	0xbe45a440	-0.19300938
199	0xbe4c8567	-0.19972764
200	0xbe3ff3e2	-0.18745378
201	0x3ecb8de9	0.39756706
202	0xbe871ca1	-0.2638903
203	0x3ef9adc3	0.48765382
204	0x3f076cf3	0.5290062
205	0x3f1a969a	0.6038605
206	0xbe8cbf1f	-0.27489564
207	0xbeb67f77	-0.35644123
208	0xbd813a5d	-0.0630996
209	0x3c6d8a79	0.0144983465
210	0xbe4d83da	-0.20069829
211	0xbe9e8fb7	-0.3096902
212	0x3e9be422	0.3044749
213	0xbf5c3287	-0.860146
214	0xbd13980e	-0.036033683
215	0x3ee5b898	0.44867396
216	0xbcdce78d	-0.02696588
217	0x3ed2c353	0.41164646
218	0xbd8a0dde	-0.06740926
219	0x3e1d59e0	0.15366316
220	0xbe18a03d	-0.14904876
221	0x3e8727a1	0.26397422
222	0xbf10842a	-0.56451666
223	0x3ecadf35	0.39623418
224	0x3eee8430	0.46585226
225	0x3ee0cfe8	0.4390862
226	0xbf0746e4	-0.52842546
227	0xbe843a11	-0.2582555
228	0xbe455ea9	-0.19274391
229	0x3e1167c2	0.14199737
230	0xbedbefdc	-0.42956436
231	0xbe894379	-0.2680929
232	0x3e45f07b	0.19330017
233	0xbf473188	-0.77809954
234	0xbe8c2db8	-0.2737863
235	0x3eccd3e3	0.40005407
236	0xbec7a37d	-0.3899192
237	0x3ea5bc26	0.32370108
238	0xbe4b2533	-0.19838409
239	0xbe79cddb	-0.24394934
240	0xbe4126d5	-0.1886247
241	0x3ec24898	0.3794601
242	0xbe18e108	-0.14929593
243	0x3eae51f5	0.34046903
244	0x3f0b606b	0.54444
245	0x3e624e9a	0.22100297
246	0xbee27af6	-0.44234437
247	0x3afc456e	0.0019246766
248	0xbe59a5e6	-0.21254691
249	0x3e2c7f3b	0.1684541
250	0xbeed5879	-0.46356562
251	0xbdffa735	-0.12483064
252	0x3ee7b25c	0.45253265
253	0xbf16f923	-0.589739
254	0xbe0c9fb7	-0.13732801
255	0x3eddad2b	0.4329618

bias f4 [20]
0	0xbbf14566	-0.0073630093
1	0xbe8014d5	-0.25015894
2	0x3d1393c8	0.036029607
3	0xbe8946a1	-0.26811698
4	0xbf268142	-0.6504098
5	0xbe9e6f68	-0.3094437
6	0x3f2bdf29	0.6713739
7	0xbe5ea50d	-0.2174265
8	0xbe5d6646	-0.21621045
9	0xbed17418	-0.40908885
10	0xbdc0eec6	-0.094205424
11	0xbdccc531	-0.09998549
12	0xbecb2cd1	-0.3968263
13	0xbdbc4a56	-0.09193866
14	0x3bc86a84	0.0061162133
15	0x3ea9b8f8	0.33148932
16	0xbe89b917	-0.26899025
17	0x3eb3db7b	0.35128388
18	0x3e8588a0	0.260808
19	0x3ed5f3e9	0.4178765

weight f4 [1, 20]
0	0xbeb83bae	-0.35983032
1	0xbec7b5d5	-0.39005914
2	0xbea8b555	-0.32950845
3	0xbec0c984	-0.37653744
4	0xbf083551	-0.53206354
5	0xbea8f12c	-0.329965
6	0x3f219d36	0.6313051
7	0xbedd2880	-0.43194962
8	0xbeb14ffe	-0.34631342
9	0xbe9f9808	-0.31170678
10	0xbed6adcf	-0.4192948
11	0xbeb1d0eb	-0.34729704
12	0xbed3a859	-0.41339377
13	0xbe9da9e1	-0.3079367
14	0xbea84349	-0.32863835
15	0x3ee1a60d	0.44072
16	0xbe8ef805	-0.279236
17	0x3f44eca6	0.76923597
18	0x3f3be81d	0.7340105
19	0xbef7b56c	-0.483806

weight f4 [20, 1]
0	0x3f1d09b7	0.6134295
1	0xbe544652	-0.2072995
2	0x3e78b397	0.24287258
3	0xbf34b4dc	-0.7058847
4	0x3ef5d060	0.4801054
5	0xbfc2a7fa	-1.5207512
6	0xbfe93dff	-1.8222045
7	0x3ebeacea	0.37241298
8	0xbe383a53	-0.17990999
9	0x3e321531	0.17390896
10	0xbf2232b1	-0.633586
11	0x3f611761	0.879263
12	0x3edd2c9a	0.4319809
13	0x3e0ee546	0.13954648
14	0x3f7434f3	0.95393294
15	0xbf9d687e	-1.2297513
16	0xbf55cca8	-0.83515406
17	0xbfa25818	-1.2683134
18	0xbf75e8f7	-0.960586
19	0xbfbf2efa	-1.4936211

bias f4 [20]
0	0xbf8061c8	-1.002984
1	0xbfb7eb48	-1.4368677
2	0x3f97c8c1	1.185814
3	0x3f242fc3	0.6413538
4	0xbf8436b7	-1.0329198
5	0xbee2af2a	-0.44274265
6	0x3e9ec561	0.31009963
7	0x3f1d444e	0.6143235
8	0xbeec0085	-0.46094146
9	0x3f9072f1	1.1285077
10	0xbf26def8	-0.65183973
11	0x3e7ca81e	0.24673507
12	0x3f57c2cc	0.8428161
13	0x3e42e18c	0.19031352
14	0x3f891490	1.07094
15	0xbf1a9813	-0.60388297
16	0x3e4035b4	0.18770486
17	0xbed7b430	-0.4212966
18	0xbced9ddf	-0.029005943
19	0xbf55b911	-0.83485514

weight f4 [20, 20]
0	0x3de8bdf3	0.11364355
1	0x3e4dd2ca	0.20099941
2	0xbd35b78d	-0.0443645
3	0xbc18938d	-0.009312523
4	0x3daa4c12	0.083152905
5	0xbe979dc9	-0.29612568
6	0xbea0a984	-0.3137933
7	0xbcc675a4	-0.024226017
8	0x3d5ab075	0.05339094
9	0xbe3e5632	-0.18587568
10	0xbdffdd4b	-0.1249338
11	0x3de7d377	0.113196306
12	0xbd949f3c	-0.07256934
13	0x3e851b9a	0.2599762
14	0x3db8e417	0.0902788
15	0xbe415861	-0.1888137
16	0x3b0dac99	0.0021617769
17	0x3d9b3204	0.07577899
18	0x3d5834a7	0.05278459
19	0xbc6746fb	-0.014116044
20	0xbcae320b	-0.021264097
21	0x3e492a93	0.19645147
22	0x3d7fdc4c	0.06246595
23	0xbe5a5948	-0.2132312
24	0x3d2a427e	0.04156732
25	0x3de899bc	0.113574475
26	0xbe60a6cc	-0.21938628
27	0xbcd7883a	-0.026310075
28	0x3db038da	0.086045936
29	0x3decfc01	0.115715034
30	0xbdb72326	-0.08942251
31	0x3b820be2	0.0039687017
32	0xbdd58603	-0.10425951
33	0x3d001bf9	0.031276677
34	0xbe286e6c	-0.16448373
35	0xbe8fc7c7	-0.28082106
36	0x3dd3f598	0.10349578
37	0x3e3a7403	0.18208317
38	0x3e5d93cf	0.21638416
39	0xbe0ee619	-0.13954963
40	0xbe240d5d	-0.16020723
41	0xbebaee32	-0.36509854
42	0x3eba01f6	0.3632962
43	0xbdf73ae0	-0.120717764
44	0xbec61136	-0.38685006
45	0xbe83f919	-0.25775984
46	0xbd921ef0	-0.07134807
47	0xbcdc8e2e	-0.026923265
48	0xbe9aa2d1	-0.30202344
49	0x3e14ec14	0.14543182
50	0xbeaf6853	-0.3425928
51	0x3e35665e	0.17714831
52	0x3dddcd35	0.10830156
53	0x3db81560	0.08988452
54	0xbe180e23	-0.14849143
55	0xbeb73170	-0.35779905
56	0xbe1f5b78	-0.15562236
57	0xbd19f84a	-0.037590303
58	0xbe9d3206	-0.30702227
59	0xbe545580	-0.2073574
60	0xbd4fa7c5	-0.050697107
61	0x3d86bb0f	0.06578647
62	0xbec9203c	-0.39282405
63	0xbdee82ac	-0.116460174
64	0x3e962d4c	0.29331434
65	0xbea2933f	-0.31752965
66	0xbc5af324	-0.013363633
67	0xbd872e5d	-0.0660064
68	0xbe36cf74	-0.17852575
69	0xbdca8dc8	-0.09890324
70	0xbddc1849	-0.107468195
71	0x3e61d8e0	0.22055387
72	0xbd9a5755	-0.075361885
73	0x3e7435f4	0.23848706
74	0xbe3d6b75	-0.18498023
75	0xbea1671d	-0.31523982
76	0x3bc1f022	0.0059185186
77	0x3c8cfaaa	0.01720937
78	0xbe275c8c	-0.16343898
79	0xbd66b2ed	-0.05632298
80	0xbcafdc1d	-0.021467263
81	0xbdb96863	-0.09053113
82	0xbd805e17	-0.06267946
83	0xbe8d6681	-0.27617267
84	0xbedc464c	-0.43022382
85	0xbe8596e1	-0.26091674
86	0xbe1b5a40	-0.15171146
87	0x3d8d167f	0.068890564
88	0xbe1a83d6	-0.15089354
89	0x3e26b2de	0.1627917
90	0xbe5b0c20	-0.21391344
91	0xbd0f4ce9	-0.034985457
92	0xbe59ea5f	-0.21280812
93	0x3deb53a0	0.114905596
94	0xbe473d25	-0.19456919
95	0xbdd3ea8e	-0.10347472
96	0x3d61a427	0.05508819
97	0xbeafcc6a	-0.34335643
98	0xbe2d60da	-0.16931477
99	0xbe96b060	-0.29431438
100	0xbea45bb0	-0.32101202
101	0xbf2bc683	-0.6709978
102	0x3f35d5b8	0.71029234
103	0xbd69f137	-0.057114806
104	0xbecb22d2	-0.39675003
105	0xbf8472c4	-1.0347524
106	0xbf984515	-1.1896082
107	0x3f0fa62b	0.5611293
108	0xbf6dcadd	-0.9288767
109	0x3f24ab32	0.64323723
110	0xbf2e91bc	-0.68191123
111	0xbe09265f	-0.13393544
112	0x3f4176f1	0.75572115
113	0x3f0ced16	0.55049264
114	0x3dbf47ba	0.09339853
115	0xbf84a03d	-1.0361401
116	0xbee0e43c	-0.4392413
117	0xbf763edd	-0.9618967
118	0xbf33172c	-0.6995723
119	0xbf9561b0	-1.1670437
120	0xbd3c1cf4	-0.04592605
121	0x3d2154a0	0.039387345
122	0xbe8cc2fa	-0.27492505
123	0xbd9e231e	-0.07721542
124	0xbd9ffc2f	-0.07811772
125	0xbe8018ec	-0.25019014
126	0xbe8dc73e	-0.27691072
127	0xbdf8ace7	-0.121423535
128	0x3e21a38f	0.15785049
129	0x3e0fee11	0.14055659
130	0x3bc13f6f	0.0058974545
131	0xbdeea08b	-0.11651715
132	0x3cb2f6f7	0.021846278
133	0x3d502114	0.050812796
134	0x3e05ff59	0.13085689
135	0xbd9cd7c1	-0.07658339
136	0xbe5325c4	-0.20619875
137	0xbc7f65f1	-0.01558827
138	0xbe5e48f1	-0.21707512
139	0x3c66eb7c	0.01409423
140	0xbe62c957	-0.22147118
141	0xbd04676a	-0.032325186
142	0xbd476856	-0.048683487
143	0x3e7c3863	0.24630885
144	0xbe6087d0	-0.21926808
145	0x3e951e09	0.29124478
146	0x3e60b5ca	0.21944347
147	0xbe992e67	-0.29918215
148	0xbd3843cd	-0.044986535
149	0x3dc69a1b	0.09697362
150	0x3d92a121	0.07159639
151	0xbdbc3a87	-0.09190851
152	0xbeac199a	-0.33613282
153	0x3cd3bec7	0.025847806
154	0xbe83871c	-0.25689018
155	0xbd86e3aa	-0.06586392
156	0x3e301367	0.17194901
157	0x3e827275	0.2547795
158	0x3e637b8e	0.22215101
159	0x3e8a615a	0.27027398
160	0xbe9d55e0	-0.3072958
161	0x3cf6f1d5	0.030144611
162	0x3e153447	0.14570723
163	0x3ec17e02	0.3779145
164	0xbd98c763	-0.07459905
165	0xbe7b3761	-0.24532844
166	0x3e37ec7b	0.17961304
167	0x3e2bbf5c	0.16772217
168	0xbd6b558a	-0.057454623
169	0xbe40efed	-0.18841524
170	0x3f0a25ba	0.53963816
171	0xbe804328	-0.25051236
172	0x3ea5b59f	0.32365128
173	0xbe3ca0a0	-0.18420649
174	0xbec41771	-0.38299134
175	0x3eeee08c	0.4665569
176	0x3e633416	0.22187838
177	0x3ea02737	0.3127992
178	0x3eb99e04	0.3625337
179	0x3e818405	0.25296035
180	0xbe42e519	-0.19032706
181	0x3d2cfda0	0.042234063
182	0x3e98c572	0.2983814
183	0x3e88c711	0.26714376
184	0xbe9a0e5d	-0.30089083
185	0x3e9a24de	0.30106252
186	0x3da1a557	0.07892864
187	0xbe979c85	-0.29611602
188	0x3e9cf503	0.3065568
189	0x3e093b47	0.13401519
190	0xbd7e7536	-0.0621235
191	0xbdecafc6	-0.115569636
192	0xbe6514d3	-0.22371225
193	0xbe2564ef	-0.16151784
194	0xbe405ac7	-0.18784629
195	0x3e0f632b	0.14002673
196	0x3e100160	0.14063025
197	0x3d926651	0.071484216
198	0x3eaf90fb	0.342903
199	0xbc55d120	-0.013050348
200	0xbdb6f5ea	-0.08933623
201	0xbd821d47	-0.063532405
202	0x3c93e857	0.018055124
203	0xbcef0009	-0.029174821
204	0x3e89148e	0.26773494
205	0xbd7862ca	-0.060641088
206	0xbe232cb8	-0.15935028
207	0xbd8d5f99	-0.069029994
208	0xbd1372da	-0.035998203
209	0xbdecfa16	-0.115711376
210	0xbe4ddfec	-0.2010495
211	0x3e1f07d6	0.15530333
212	0x3e466860	0.19375753
213	0x3e43b894	0.1911338
214	0x3e007c69	0.12547459
215	0xbe1402f2	-0.14454249
216	0xbda9e406	-0.08295445
217	0xbe290aea	-0.1650807
218	0xbe50e6f9	-0.20400609
219	0xbe2b9527	-0.16756116
220	0x3db978bb	0.09056231
221	0x3e39f8cd	0.18161316
222	0xbe343752	-0.17599228
223	0x3b08f3a8	0.0020897184
224	0x3e2297b7	0.15878187
225	0x3d6dc2b6	0.05804702
226	0xbebb9fe1	-0.36645415
227	0xbdf3aac7	-0.118978076
228	0x3ca3d66c	0.019999705
229	0xbe807713	-0.25090846
230	0xbe662664	-0.22475582
231	0x3d2ced51	0.04221851
232	0x3e4f9441	0.20271398
233	0x3e68f948	0.22751343
234	0xbde48f90	-0.11160195
235	0xbe5b4b01	-0.2141533
236	0xbe41dcf7	-0.18931948
237	0x3cc720b7	0.024307592
238	0x3d5159ed	0.05111115
239	0xbe08e4d0	-0.13368535
240	0xbee3f2ce	-0.44521183
241	0xbf666907	-0.9000401
242	0x3f5c5243	0.8606302
243	0xbd5bd676	-0.053671323
244	0xbf1e4489	-0.61823326
245	0xbea5bd23	-0.32370862
246	0x3eb3f0b9	0.35144594
247	0x3f089a8e	0.5336083
248	0xbf61250b	-0.8794715
249	0x3f9989b4	1.1995149
250	0xbf8533bb	-1.0406412
251	0x3a9753fc	0.0011545415
252	0x3f3b3c04	0.7313845
253	0x3ec706bf	0.38872334
254	0x3e3768b1	0.1791103
255	0xbf37eb91	-0.7184382

bias f4 [20]
0	0xbe4d4888	-0.200472
1	0x3e24063d	0.16018005
2	0x3d170423	0.03686918
3	0xbdbf2eb2	-0.09335078
4	0x3e8821cb	0.26588282
5	0x3f2b5ade	0.6693553
6	0x3c59165e	0.013249962
7	0xbe2328a3	-0.1593347
8	0xbddcade6	-0.10775356
9	0xbd950cb4	-0.072778136
10	0xbd0f7e5d	-0.03503262
11	0x3c441d88	0.011969931
12	0x3f61900a	0.8811041
13	0x3d83b97c	0.06431863
14	0x3d72f2e5	0.059313674
15	0xbcd52238	-0.026017293
16	0xbdd80ae6	-0.10548954
17	0x3dbaf997	0.09129637
18	0x3db624fa	0.088937715
19	0xbe246d16	-0.16057238

weight f4 [2, 20]
0	0x3d793176	0.060838185
1	0xbe86aa8a	-0.26301986
2	0x3ebc158b	0.36735186
3	0x3e45a59f	0.1930146
4	0x3e81b8a3	0.2533618
5	0xbf62f561	-0.8865567
6	0x3de52c8d	0.11190138
7	0xbe581d57	-0.21104942
8	0x3eaa81c4	0.33302128
9	0xbe27bc67	-0.16380464
10	0x3c7e05ac	0.015504282
11	0x3e426de7	0.18987237
12	0x3f2d1478	0.6760936
13	0xbd80c05d	-0.062866904
14	0x3e85780b	0.26068148
15	0x3e652582	0.2237759
16	0x3da371ce	0.07980691
17	0xbe759759	-0.23983516
18	0xbded0409	-0.11573035
19	0xbe355173	-0.17706852
20	0x3e7fe25f	0.24988697
21	0xbdd271e9	-0.10275633
22	0xbcea107b	-0.028572312
23	0x3e498c0e	0.19682333
24	0x3d93c321	0.07214952
25	0x3ec6c0be	0.38818926
26	0x3d53ddca	0.051725186
27	0x3d4a45a2	0.049382813
28	0xbdadcfcf	-0.08486902
29	0x3d6b4286	0.05743649
30	0x3e7f8b1a	0.24955407
31	0x3de822bc	0.1133475
32	0xbef1494f	-0.47126243
33	0xbe25f612	-0.1620715
34	0xbb431078	-0.0029764455
35	0x3d8ee772	0.069777384
36	0x3c896630	0.01677236
37	0xbdaba0a8	-0.08380252
38	0x3c21a4c5	0.009865944
39	0xbd43b763	-0.047782313

bias f4 [2]
0	0x3e21cd5c	0.15800995
1	0xbe8e6eb1	-0.27818826
