docs/notebooks/paper_experiments/results/multitask/decoder_stats/decoder_model_1.pt (torch, 19541 bytes, 8 tensors)

weight f4 [16, 1]
0.73329 -0.8445739 0.86824214 -0.53643334 -1.0551485 0.19848305 0.8193808 -0.74138576
0.59930044 0.021229101 0.9009807 -0.78930634 0.73182696 -0.47463807 0.5046859 0.8251759
00000000: e5b8 3b3f ff35 58bf 1e45 5e3f b253 09bf
00000010: 1b0f 87bf 243f 4b3e f1c2 513f 75cb 3dbf
00000020: c16b 193f a7e8 ad3c aca6 663f fb0f 4abf
00000030: 0359 3b3f c303 f3be 1833 013f ba3e 533f

bias f4 [16]
-0.6869033 -0.9161358 0.123837076 0.3102555 0.26540995 1.0086468 0.19299467 -0.98882735
0.95197433 0.5286558 -0.050057847 0.877565 0.85977334 -0.5100393 0.1026884 -0.24675861
00000000: e5d8 2fbf e087 6abf 4b9e fd3d cfd9 9e3e
00000010: d0e3 873e 571b 813f 65a0 453e ca23 7dbf
00000020: 97b4 733f fd55 073f 7509 4dbd 1aa8 603f
00000030: 1b1a 5c3f f091 02bf 4c4e d23d 4aae 7cbe

weight f4 [32, 16]
0.15824392 0.1191567 0.13554369 0.22042663 -0.1264801 -0.029296093 -0.15775007 -0.013956795
-0.24349546 -0.11522085 -0.32063892 0.11856261 -0.17626783 -0.014642279 0.0758743 -0.2934671
-0.18459892 0.13799916 -0.018550988 -0.07919798 0.2579183 -0.24771169 0.12256139 -0.17442022
0.0831933 0.18666276 -0.07953427 -0.17347884 -0.16227983 -0.0743656 -0.03426209 -0.27222824
0.14961074 0.19338694 -0.21640113 -0.27350298 -0.32342523 0.13358936 -0.041613746 -0.14021851
0.20470046 -0.2246167 0.07235101 -0.1513378 0.17008732 -0.1402667 0.06042322 -0.14850847
0.23697501 0.17786351 -0.07548262 -0.15139744 -0.024757475 0.074906364 0.15974168 0.1915287
0.0025585003 -0.29644433 0.2785423 -0.07981077 -0.033462975 -0.007122414 0.21175954 0.035661805
-0.04754874 -0.017046144 0.037576485 -0.1988993 -0.021734813 -0.027804768 0.059906963 -0.23246618
-0.06688555 -0.16133554 0.050951734 0.28428993 -0.0730961 0.2258305 0.24933946 0.18281393
-0.2820864 -0.14519534 0.018657906 -0.04645449 0.2081189 0.091716126 -0.17944446 -0.05895711
0.04775328 -0.17143218 0.1733421 0.07123663 0.07616191 0.103890926 -0.21613158 -0.088347085
0.16257259 -0.11181883 0.06315148 0.016441103 0.1366359 -0.089439854 0.20813142 -0.0020769222
-0.20661007 -0.099104784 -0.023763156 0.19964035 0.04435011 -0.18396491 -0.24545506 0.07732757
-0.117922924 -0.06209138 0.203047 -0.188564 -0.109339096 0.010540583 -0.0061525195 -0.1839893
0.06874393 -0.03550242 0.13867584 0.14219293 0.17613111 0.024329204 0.054155424 -0.06484009
-0.18918076 -0.18830208 -0.018594017 -0.12515934 -0.03683466 0.06721671 -0.10159336 -0.008125948
0.06757964 -0.20052673 -0.0927243 -0.17014489 -0.17573336 -0.096868165 0.22575152 0.113645695
-0.31219435 -0.08592659 -0.19690564 0.20073926 -0.0033098294 0.08572736 -0.07568591 0.10911647
-0.051414285 -0.18130533 0.07499073 0.19057585 0.105730064 0.0035787951 -0.19001138 -0.24531874
0.09042746 -0.14965929 -0.026898645 -0.054741383 -0.0845684 -0.2605637 -0.32759136 -0.00811075
-0.07499811 -0.19144517 -0.28878418 0.17909165 -0.2713366 0.020382239 -0.3305223 -0.36027855
-0.1022348 -0.31300077 -0.31721404 0.46418515 0.044497266 -0.2858054 -0.41119206 -0.05446321
-0.414661 0.25719893 -0.324306 0.26323304 -0.41273588 0.16997057 -0.54619783 -0.17230405
0.1278584 0.121882915 -0.048865996 0.14622019 0.0085406825 0.106759556 -0.12930398 -0.21928056
-0.07195309 0.1480226 -0.17934173 0.19592531 -0.0021605492 0.10397442 0.18391559 0.026710039
-0.09968133 0.17748198 0.03977706 -0.28921866 -0.2920501 -0.022698367 -0.1590819 0.033066485
0.23561543 0.07510745 -0.16201626 -0.24487814 0.09757293 -0.21043661 -0.057584643 0.068064496
-0.030695176 0.05869793 -0.15542671 0.19137934 -0.09634208 0.21475756 0.0021851985 0.17530581
-0.19255301 0.07925172 -0.33390167 0.16445841 -0.21653213 -0.16457509 0.09608955 0.14013915
0.0871191 -0.081031755 0.09493844 0.04715197 -0.13538328 -0.23470008 0.19749372 0.022933677
0.022357222 0.0854942 -0.042829838 -0.008656669 0.2130444 -0.07020804 -0.22837564 -0.1567505
00000000: b20a 223e 6e08 f43d f7cb 0a3e 85b7 613e
00000010: 0084 01be 5cfe efbc 3c89 21be 0bab 64bc
00000020: e056 79be e9f8 ebbd c92a a4be f4d0 f23d
00000030: 8e7f 34be 2be6 6fbc fc63 9b3d 5241 96be
00000040: 8007 3dbe a74f 0d3e 3ef8 97bc 8d32 a2bd
00000050: de0d 843e 22a8 7dbe 7701 fb3d 379b 32be
00000060: 4061 aa3d 8624 3f3e dde2 a2bd 70a4 31be
00000070: af2c 26be fe4c 98bd 6856 0cbd 8061 8bbe
00000080: 8f33 193e 3a07 463e 4298 5dbe 9508 8cbe
00000090: fe97 a5be a6cb 083e 2d73 2abd 7195 0fbe
000000a0: ff9c 513e ec01 66be c42c 943d 4cf8 1abe
000000b0: 5f2b 2e3e 13a2 0fbe 577e 773d 9b12 18be
000000c0: 94a9 723e da21 363e a296 9abd ee07 1bbe
000000d0: 30d0 cabc 8268 993d 5393 233e 1920 443e
000000e0: 83ac 273b 8dc7 97be 199d 8e3e d473 a3bd
000000f0: 7910 09bd 2463 e9bb 7ed7 583e 1d12 123d
00000100: 78c2 42bd 5ba4 8bbc cde9 193d 42ac 4bbe
00000110: 350d b2bc d3c6 e3bc 0161 753d 9d0b 6ebe
00000120: 4bfb 88bd 2535 25be c4b2 503d 738e 913e
00000130: 68b3 95bd 1c40 673e d852 7f3e 9333 3b3e
00000140: a16d 90be 16ae 14be 77d8 983c 1047 3ebd
00000150: 1f1d 553e aad5 bb3d 4ac0 37be 037d 71bd
00000160: f198 433d eb8b 2fbe 9780 313e 83e4 913d
00000170: c7fa 9b3d c4c4 d43d 9951 5dbe 51ef b4bd
00000180: 6e79 263e 4501 e5bd 9055 813d 7eaf 863c
00000190: 48ea 0b3e 3e2c b7bd 6720 553e f91c 08bb
000001a0: 9791 53be 73f7 cabd f3aa c2bc 856e 4c3e
000001b0: 76a8 353d 4c61 3cbe 9258 7bbe eb5d 9e3d
000001c0: 9381 f1bd 8853 7ebd 8eeb 4f3e ec16 41be
000001d0: 2ded dfbd 69b2 2c3c 139b c9bb b167 3cbe
000001e0: 9ec9 8c3d fc6a 11bd 0a01 0e3e 069b 113e
000001f0: b75b 343e 0a4e c73c 14d2 5d3d e2ca 84bd
00000200: 9ab8 41be 43d2 40be 7b52 98bc c529 00be
00000210: f1df 16bd eaa8 893d 2e10 d0bd b222 05bc
00000220: 3267 8a3d e156 4dbe 3de6 bdbd 763a 2ebe
00000230: 72f3 33be d162 c6bd 682b 673e 13bf e83d
00000240: f0d7 9fbe 48fa afbd a2a1 49be 988e 4d3e
00000250: b9e9 58bb d391 af3d 3701 9bbd 7578 df3d
00000260: c997 52bd 1ba8 39be bd94 993d 5126 433e
00000270: 0189 d83d 388a 6a3b 5892 42be d634 7bbe
00000280: 0832 b93d 4940 19be 8c5a dcbc 8038 60bd
00000290: 3332 adbd 9b68 85be 0eba a7be f3e2 04bc
000002a0: 9c98 99bd 340a 44be 85db 93be cd63 373e
000002b0: a1ec 8abe a7f8 a63c 383a a9be 6e76 b8be
000002c0: 7b60 d1bd a341 a0be e169 a2be ada9 ed3e
000002d0: c442 363d 1655 92be c487 d2be d114 5fbd
000002e0: 724e d4be 94af 833e 700b a6be 7bc6 863e
000002f0: 1e52 d3be c40c 2e3e 9fd3 0bbf 7970 30be
00000300: 50ed 023e c09d f93d b627 48bd bfba 153e
00000310: 38ee 0b3c c1a4 da3d 4368 04be 158b 60be
00000320: 245c 93bd 3d93 173e 5ca5 37be a5a0 483e
00000330: 0098 0dbb 8af0 d43d 5e54 3c3e 03cf da3c
00000340: ba25 ccbd d6bd 353e 45ed 223d 7814 94be
00000350: 9787 95be edf1 b9bc 5ee6 22be b970 073d
00000360: 2c45 713e efd1 993d 97e7 25be 56c1 7abe
00000370: 51d4 c73d b27c 57be e0dd 6bbd 6665 8b3d
00000380: 7374 fbbc 3e6d 703d 2e28 1fbe f2f8 433e
00000390: ff4e c5bd 68e9 5b3e 8c35 0f3b 5e83 333e
000003a0: 9e2c 45be ba4e a23d 29f5 aabe c967 283e
000003b0: 99ba 5dbe 5f86 28be 99ca c43d a380 0f3e
000003c0: 806b b23d faf3 a5bd 166f c23d 6d22 413d
000003d0: eaa1 0abe 3855 70be cb3b 4a3e 68df bb3c
000003e0: 7e26 b73c 9517 af3d 576e 2fbd b4d4 0dbc
000003f0: 5028 5a3e 3cc9 8fbd 4edb 69be 3483 20be

bias f4 [32]
-0.060979236 0.19954447 0.019722769 0.14162906 0.093277976 -0.12848926 -0.05726632 0.01918387
0.23994198 0.16713545 -0.06961471 -0.071984895 -0.12390139 -0.049132958 0.10176816 -0.1809184
-0.1110144 -0.40647662 0.052768577 0.037575167 -0.12583967 -0.49459773 0.020770848 0.017907023
-0.13457258 0.063468285 -0.1470292 0.01226066 0.13848941 -0.23972751 -0.21464486 -0.06625104
00000000: 5dc5 79bd 6355 4c3e a591 a13c 3507 113e
00000010: 8608 bf3d b092 03be 1790 6abd 7e27 9d3c
00000020: 5ab3 753e 8e25 2b3e 2892 8ebd d16c 93bd
00000030: 03c0 fdbd a43f 49bd d36b d03d ac42 39be
00000040: 855b e3bd b41d d0be dd23 583d 6be8 193d
00000050: 1ddc 00be ea3b fdbe a027 aa3c c0b1 923c
00000060: 65cd 09be a9fb 813d d38e 16be efe0 483c
00000070: 2bd0 0d3e 217b 75be ddcb 5bbe a0ae 87bd

weight f4 [2, 32]
-0.10632073 -0.14654295 0.2383561 -0.11800079 -0.0478659 -0.08888825 -0.1375717 0.09093259
0.13686363 -0.09991461 -0.19797093 -0.31666172 -0.11082774 0.2650364 -0.18535054 -0.07704384
-0.011911672 0.27563468 0.14501207 -0.21729296 0.13740857 0.23139241 0.15109536 0.08960853
-0.08777103 0.14493372 0.21699344 -0.043843057 -0.11603443 -0.16847931 -0.0012900966 -0.25622475
0.07517965 0.072789095 -0.13706061 0.0036024465 -0.15733236 0.12468384 0.10036491 -0.021091573
-0.0090032155 0.041845046 -0.014900729 -0.2259382 0.1270982 -0.14256983 0.08369947 0.07256369
0.14386004 0.23439898 0.063374 -0.17117763 -0.20304115 0.18229553 0.008844701 0.051875655
0.06894689 -0.11056162 0.16948411 -0.12500572 -0.09652042 0.11397786 -0.12823881 -0.08588621
00000000: afbe d9bd 5b0f 16be 9f13 743e 66aa f1bd
00000010: 090f 44bd 0b0b b6bd 99df 0cbe de3a ba3d
00000020: fb25 0c3e 08a0 ccbd e4b8 4abe 7c21 a2be
00000030: a7f9 e2bd dab2 873e 88cc 3dbe 29c9 9dbd
00000040: 2c29 43bc fd1f 8d3e 0b7e 143e 0c82 5ebe
00000050: d5b4 0c3e 22f2 6c3e beb8 1a3e ad84 b73d
00000060: 4cc1 b3bd 8169 143e 8733 5e3e c794 33bd
00000070: 76a3 edbd d785 2cbe 7518 a9ba e42f 83be
00000080: caf7 993d 7312 953d 9e59 0cbe 0617 6c3b
00000090: bc1b 21be 3e5a ff3d 1e8c cd3d 3cc8 acbc
000000a0: 3982 13bc b665 2b3d 3022 74bc 585c 67be
000000b0: 0826 023e d3fd 11be a16a ab3d 469c 943d
000000c0: 0c50 133e 4906 703e 3aca 813d 3049 2fbe
000000d0: 05ea 4fbe aeab 3a3e 5de9 103c 917b 543d
000000e0: 0734 8d3d 216e e2bd 3e8d 2d3e 8001 00be
000000f0: 7fac c5bd 396d e93d 0951 03be 1ce5 afbd

bias f4 [2]
0.05312336 -0.1770441
00000000: e197 593d 0c4b 35be

mean f4 [2]
0.031624533 0.6879169
00000000: ba88 013d 521b 303f

range f4 [2]
0.71266115 0.57853127
00000000: f670 363f a01a 143f
