docs/notebooks/paper_experiments/results/multitask/decoder_stats/decoder_model_3.pt (torch, 19541 bytes, 8 tensors)

weight f4 [16, 1]
000000 e0 21 87 3d 4c 52 19 3f 80 81 a7 be 58 a2 dd 3e
       0.06598258 0.598912 -0.32715988 0.4328792
000010 5e 1b 9a 3b 0b 30 56 bf b3 ee 89 3c 69 f7 79 bf
       0.0047029695 -0.8366706 0.016837453 -0.9764314
000020 94 32 3b 3d 54 3e 85 3d 20 72 0b bf d7 54 61 3f
       0.045702532 0.06506029 -0.54471016 0.8802008
000030 f3 45 67 3f c7 1e 6a bf 17 b9 0b bf e6 e1 2c be
       0.9034111 -0.9145321 -0.545793 -0.16883048

bias f4 [16]
000000 40 51 c0 be b6 68 2f 3e f1 06 47 3f eb e8 10 3f
       -0.3756199 0.17129788 0.77744967 0.56605405
000010 cb f5 86 3e 3f c1 65 be 37 25 05 bf dc ee 73 bf
       0.263594 -0.22436999 -0.5200991 -0.95286345
000020 f9 75 d2 3e 79 42 96 3f 62 dc 78 bd d0 96 b4 be
       0.4110563 1.1739036 -0.06075705 -0.3527131
000030 e1 fa 93 3e 2f c7 5a 3f 29 31 5b 3f ea 91 40 bf
       0.28902343 0.8546018 0.8562189 -0.7522265

weight f4 [32, 16]
000000 ab 81 3b be 7c c2 06 be b3 88 19 be 0b 0e 4a 3e
       -0.18311183 -0.13160127 -0.14993553 0.1973192
000010 e7 47 ab 3d 85 27 c3 3d fb 5b 1b 3e 93 f9 f5 3d
       0.08363324 0.09529022 0.15171807 0.12010493
000020 4a 7f 18 3d b8 3f 33 3e d0 01 d8 bb 2f d0 3d be
       0.037230767 0.17504776 -0.006592013 -0.18536447
000030 1f 7f 1d 3e 8c c4 88 be c4 a1 53 3e d1 2b 2f 3e
       0.15380524 -0.26712453 0.20667177 0.17106558
000040 13 a3 d1 3d 9e 1b 81 3c c3 b6 89 be ad 33 06 be
       0.10236182 0.01576024 -0.2689725 -0.1310565
000050 40 ad bc 3d 15 c7 a2 3c c3 30 9a 3d 0a 02 36 be
       0.09212732 0.01987032 0.07528832 -0.17774215
000060 6c 73 a5 bc 1b ec 73 3e 80 51 c9 3c 29 ee 43 be
       -0.020196639 0.23820536 0.024574995 -0.1913382
000070 9b 72 13 3d d7 aa b1 be 1f c8 ae be 2e 2e 39 3e
       0.03599797 -0.34700653 -0.34137055 0.18084022
000080 b7 87 c2 bc 82 e5 48 be e1 08 72 be b5 63 5f be
       -0.023746355 -0.196188 -0.236362 -0.21815379
000090 ff 32 4a 3e 2a bd 84 bd 17 a3 2a 3d ba 0b 4e bd
       0.19746016 -0.06481393 0.04165944 -0.050304152
0000a0 0d 1d 18 bd ac 5d 71 3e 04 7c 12 3d 14 7d 17 3d
       -0.03713708 0.23570889 0.0357628 0.03698452
0000b0 73 90 22 3e ab 69 4f 3e 9e 5b 4a bd f1 c6 50 be
       0.15875416 0.20255153 -0.04940378 -0.2038839
0000c0 2b 8f 23 be 58 89 cb bd 25 00 5b be c8 9e 79 3e
       -0.15972583 -0.099383056 -0.21386774 0.24376976
0000d0 99 e7 af 3c 67 c0 92 3d b5 41 b8 3d aa 17 81 3b
       0.021472739 0.07165604 0.089969076 0.0039395886
0000e0 e7 43 69 3e 73 e8 30 be a8 6c 10 be 08 51 97 3e
       0.22779809 -0.17276172 -0.14103949 0.2955401
0000f0 5d 94 93 3e 6c 0c d5 bc 95 68 29 3e fa 11 15 3e
       0.2882413 -0.0260069 0.16543801 0.14557639
000100 31 24 8e 3d 5a 56 35 3e 7a b7 0e 3e 1b fc 33 3e
       0.06940497 0.17708722 0.13937178 0.1757664
000110 93 ea 67 3e 6c 9b ab be 29 be c6 3a 00 4c be 3c
       0.22648077 -0.33517015 0.0015162873 0.023229599
000120 c6 63 d0 bd 31 b4 6f 3c 2f e6 12 bd 1f ed 1a be
       -0.1017528 0.014630363 -0.03586405 -0.15129517
000130 c9 d3 4a 3e 52 fd 72 be 6a a6 8d be 3d bc 8d be
       0.19807352 -0.23729447 -0.27666026 -0.27682677
000140 df 86 7e 3c 2f 9e 6a 3e bf de 8d 3d 7f f7 0c be
       0.015535085 0.22911905 0.06927251 -0.13766287
000150 99 21 58 3c 17 4b d1 3b fa 76 59 be b6 58 a4 be
       0.013191604 0.0063871252 -0.21236792 -0.3209893
000160 29 17 0b be 15 99 d9 3d 63 bf 83 be e9 c3 0f 3e
       -0.13583054 0.10624901 -0.25731954 0.14039578
000170 a5 bc 47 be f8 67 9d be 85 eb 37 be 33 7b 99 bd
       -0.19505556 -0.30743384 -0.17960937 -0.074942015
000180 0f 66 c5 bd 6d e0 ef bc 76 48 1b 3d 25 6b 6e bd
       -0.09638607 -0.02928182 0.0379109 -0.05820765
000190 91 98 39 3e d3 be 10 be b0 2e 5a be 90 41 2e 3d
       0.18124606 -0.14135294 -0.21306872 0.042542994
0001a0 c5 75 9e 3d c0 6e 15 be 04 6d a7 3d 18 f2 9b be
       0.077373065 -0.14593029 0.0817509 -0.3045814
0001b0 86 e1 1c 3e 70 9e 02 be d3 be 6b 3e f2 62 05 3e
       0.15320405 -0.12755752 0.23022012 0.13026026
0001c0 92 b9 0c 3d 7e a2 2a 3e 6f 5d aa bd e3 2a 24 3d
       0.03435666 0.16663548 -0.08318602 0.040079962
0001d0 fa b0 7e bd ec 08 f2 bd 5b fc 92 3c fc 75 77 be
       -0.062180497 -0.11818108 0.017942598 -0.24166101
0001e0 08 a9 a7 bd 4d 7b c3 3d 16 1b ea bd 2b 81 2b be
       -0.08186537 0.09545002 -0.114309475 -0.16748492
0001f0 84 15 0d 3e 2f 6c 9c be 1f 76 5e bc 13 ff fb 3d
       0.13777739 -0.30551288 -0.013577967 0.12304511
000200 91 13 d8 bd 42 29 d9 3c a3 48 37 3e 8c b3 42 3e
       -0.10550607 0.026508931 0.17898802 0.19013804
000210 60 d2 4c be d8 8d 54 3e 8b 7a 1b 3e 88 d8 b5 3c
       -0.20002127 0.20757234 0.15183465 0.022197977
000220 7f 5a 59 3e d0 6b 39 be 68 f7 19 be d6 4c 5c 3e
       0.21225928 -0.18107533 -0.15035784 0.21513686
000230 7f 7c 2b be c1 32 50 be ac 53 7c 3e 08 9e 59 3d
       -0.1674671 -0.20331861 0.24641293 0.053129226
000240 35 03 4c 3e f1 94 46 3d d3 c8 a6 bd 7e 5d 5f 3e
       0.19923098 0.048481885 -0.08143773 0.21813008
000250 cb 39 41 3e 03 2f 0c 3d 45 f6 16 be 6f d4 34 be
       0.18869703 0.03422452 -0.14742382 -0.17659162
000260 db 2a 16 bd 8e 8d 0b 3e c2 9f 59 be e5 63 19 be
       -0.036661964 0.13628218 -0.21252349 -0.14979513
000270 04 e1 f6 bd 3f ad c0 be 39 4f 51 3d a6 d8 4c 3d
       -0.12054637 -0.37632176 0.051100943 0.0500113
000280 80 fb 2d 3e 65 6a 3b 3e 05 a7 b0 bd 8a 3a 02 be
       0.16990471 0.18302305 -0.086256064 -0.12717643
000290 1c c7 71 3e db d7 1a 3e e3 36 60 be b6 02 14 be
       0.2361111 0.15121405 -0.21895938 -0.14454159
0002a0 3c 66 a9 3d 3f 34 89 3d 85 c3 30 be 4c 6f bc 3e
       0.08271453 0.06699418 -0.17262085 0.36803663
0002b0 73 29 36 3e 96 79 fc 3d 86 80 3c 3d e3 d3 08 3e
       0.17789249 0.12327878 0.046021007 0.13362078
0002c0 c8 fd 28 3d ca ec 30 3e 98 b2 41 3e 3a ef d1 3d
       0.04125765 0.17277828 0.18915784 0.10250707
0002d0 7f a9 d9 3d 84 e0 c1 3d 29 aa 03 be 6a 16 20 bd
       0.10628032 0.09466651 -0.1285788 -0.039083876
0002e0 96 00 9c 3e d4 e1 2f bd 56 16 2e be 47 83 02 3e
       0.30469197 -0.042939976 -0.17000708 0.12745391
0002f0 0a b5 88 3d fa d8 87 be 74 5d 61 be 86 fb b9 bd
       0.066751555 -0.26532727 -0.22008306 -0.090811774
000300 d2 f6 9c be 11 ac ae bd c7 1e 3c 3d 48 c8 e5 bd
       -0.3065706 -0.08528913 0.04592779 -0.11219841
000310 63 20 ca 3d 8b 93 b9 be 91 df 4d be 03 d4 42 be
       0.098694585 -0.3624538 -0.20104815 -0.19026189
000320 72 7e b2 bd 6f 97 15 be ff e3 a7 be 8a 99 29 3e
       -0.08715524 -0.14608549 -0.32791135 0.16562477
000330 f4 90 22 be 0c 17 28 be a1 e8 30 be e5 db d7 bd
       -0.15875608 -0.16415042 -0.17276241 -0.105399884
000340 8e 1d 69 3e 65 da 88 3d 43 e0 ee 3d 1a 1e df bd
       0.2276518 0.066822805 0.11663868 -0.10894413
000350 d8 dd a9 3d ff e8 6f 3e 5e b8 92 3d 35 93 d7 3e
       0.082942665 0.23428725 0.071640715 0.42104498
000360 be b5 70 ba 0e 51 63 be c2 e2 dd 3c 38 bd 10 3c
       -0.0009182355 -0.22198889 0.027085666 0.008834176
000370 c1 91 cb bd 55 9c d6 3b 5a 3b 0b bd ec ef 9b 3e
       -0.0993991 0.006549398 -0.03399215 0.30456483
000380 b7 1e ba bc 03 8c ab 3b 17 b3 0c 3d 14 5e 2d 3e
       -0.022719724 0.0052351966 0.03435048 0.16930419
000390 88 fd 27 be 7d 6b 0a 3e fa c2 28 3e 14 53 80 bd
       -0.16405308 0.13517566 0.16480628 -0.06265846
0003a0 bb 50 33 bd 00 54 31 be f3 7b 85 3c 5f fe 2a be
       -0.043778162 -0.173172 0.016294455 -0.16698597
0003b0 fc 0e d1 bd 47 24 67 3e 63 ab 7f 3e 66 98 63 3d
       -0.10207936 0.22572432 0.24967723 0.05556526
0003c0 ec 4f 58 be 30 24 0d be 49 ab 49 be 51 04 d4 bc
       -0.21124238 -0.13783336 -0.19694246 -0.025880964
0003d0 9b d4 5a bd 02 e6 21 3e e6 b8 66 3e 70 7b c6 bd
       -0.053425413 0.15810397 0.2253147 -0.096915126
0003e0 8c d8 80 3e f9 d9 62 3e c2 08 71 3d e2 27 53 bd
       0.25165212 0.22153462 0.058846243 -0.051551707
0003f0 4e 34 a7 bc 5e 10 39 be 10 e1 06 3e 43 16 69 bc
       -0.020410683 -0.1807265 0.13171792 -0.014226499

bias f4 [32]
000000 36 28 0e 3e 84 b9 90 3e f8 8e dc 3c 9c a0 69 bd
       0.13882527 0.28266537 0.026923642 -0.057037935
000010 05 ce 20 3e ad 07 41 3e 18 e4 84 bc 68 10 36 3e
       0.1570359 0.18850584 -0.016222045 0.17779696
000020 1d 58 a6 3d 41 be 6f 3d 4c 52 da 3d 92 35 b3 bc
       0.08122275 0.05853105 0.10660228 -0.02187613
000030 ad 15 16 be da 57 f3 3d 3d 70 75 3e de f7 02 be
       -0.14656706 0.11881991 0.23968597 -0.12789866
000040 6a 04 82 be 24 3c 86 be 2d ff 2b 3e 1e 65 02 3e
       -0.25393993 -0.2621776 0.1679656 0.12733886
000050 59 ec 0a 3e c6 ec 77 be 8a 54 34 be 3a b7 66 bd
       0.13566722 -0.24211416 -0.17610374 -0.056327082
000060 02 40 a6 bd b6 f5 8d 3e 1a 71 8b 3e 9a 23 5b 3e
       -0.08117677 0.27726525 0.27234727 0.214003
000070 47 8a ee 3d cf 59 cd bd 7f cf f6 bd 82 f9 20 be
       0.11647468 -0.10026895 -0.120512955 -0.1572018

weight f4 [2, 32]
000000 2a c1 30 3d 6f 28 84 3e 8a 3f 2a be 8b 18 6b bd
       0.043152966 0.25812098 -0.166258 -0.057396453
000010 ec c5 7a 3e 3e aa 2c 3e 27 7d e8 bd 28 8b 3a 3e
       0.24489564 0.16861817 -0.11351996 0.18217146
000020 cb 0c c3 3d aa 70 3d 3e 84 49 dd bd eb 26 9e 3d
       0.095239244 0.18500009 -0.108050376 0.07722267
000030 39 2f 99 3e 09 b5 e5 3d 3a f8 b1 bd 96 e2 24 bc
       0.2991884 0.1121617 -0.086899236 -0.010063788
000040 94 ad 81 3e 38 71 04 3e 31 cd 30 be 6b 6f 2c 3d
       0.25327742 0.12933815 -0.17265774 0.042098444
000050 36 56 b6 3d 15 88 15 3d 68 19 1e be 0d ba 16 be
       0.08903162 0.03650673 -0.15439379 -0.1471941
000060 d8 c7 54 3e be 37 48 3e 1d cc fa 3d 69 11 11 be
       0.2077936 0.19552514 0.12245963 -0.14166798
000070 86 f7 5d be 78 71 ce 3d 27 ac f6 bd 14 1a 77 3e
       -0.21676454 0.10080236 -0.12044554 0.24131042
000080 c8 22 87 bd 57 44 05 3d 24 3a 0c bd 84 07 45 be
       -0.06598431 0.032535877 -0.034235135 -0.19241148
000090 eb 09 4a bd c7 c9 11 3b 17 cc 27 3e d7 96 2f be
       -0.049325865 0.0022245513 0.16386448 -0.17147385
0000a0 24 18 17 3c ca 45 b8 3d 6c 1c 87 bd 78 22 cc bc
       0.009222064 0.08997686 -0.06597218 -0.02491878
0000b0 32 c1 aa bc 71 da 67 3e fb 51 a6 3b b8 83 c6 3c
       -0.020844076 0.22641923 0.005075691 0.02423273
0000c0 d5 88 8a 3e b8 cf 17 3d cf b4 8b 3d 53 36 37 3e
       0.2705752 0.03706333 0.06821596 0.17891817
0000d0 00 51 f0 3b 38 99 cd bb 11 12 92 3d f9 f2 43 bd
       0.0073338747 -0.0062743686 0.07132352 -0.04783914
0000e0 fb 23 21 3d 48 9a af bb 01 cd 0e 3c 02 6d f0 3d
       0.039340954 -0.005358968 0.008715869 0.117395416
0000f0 2e 2b 68 bd 76 8a 13 be 42 a3 47 be 78 3e 86 3d
       -0.056681804 -0.14408287 -0.19495872 0.06554884

bias f4 [2]
000000 5c 28 52 bc 09 12 63 be
       -0.012827005 -0.22174849

mean f4 [2]
000000 ba 88 01 3d 52 1b 30 3f
       0.031624533 0.6879169

range f4 [2]
000000 f6 70 36 3f a0 1a 14 3f
       0.71266115 0.57853127
