docs/notebooks/paper_experiments/results/multitask/decoder_stats/decoder_model_0.pt (torch, 19531 bytes, 8 tensors)

weight f4 [16, 1]
000000 db 21 3b 3f b1 36 43 3e cd 48 fe 3e ed 40 89 be
       0.73098534 0.19063832 0.49664918 -0.26807347
000010 0d d0 50 bf fe e4 8b bd 54 c4 1a 3f 50 a9 20 3f
       -0.8156746 -0.06830786 0.6045582 0.6275835
000020 05 6e 20 bf 82 69 42 3f 4e bb c4 be a0 22 63 bf
       -0.62667876 0.7594224 -0.38424152 -0.8872471
000030 fe 03 89 3f ea a3 0b 3b 28 59 80 bf 2d 07 54 bf
       1.0704343 0.0021307417 -1.0027208 -0.8282345

bias f4 [16]
000000 73 e5 d9 be 80 14 7d bf b4 0b 38 bf 7c a1 28 3e
       -0.42557868 -0.98859406 -0.7189286 0.16467851
000010 0d 32 26 3f 6e 7d 0d 3f d8 17 51 3f eb f2 0d 3f
       0.6492012 0.55269516 0.8167701 0.5544879
000020 00 a0 6d 3e b9 0b 04 3f 03 9d 5b 3d 52 06 4c 3f
       0.23205566 0.5158039 0.053616535 0.79697144
000030 f6 69 bb 3d 14 bf f4 be aa 92 8b bf ef 95 96 be
       0.0915107 -0.4780203 -1.0904133 -0.29411265

weight f4 [32, 16]
000000 d8 d8 00 3e 81 73 f3 3d 8e 02 06 3e b1 ad a4 3c
       0.1258272 0.11887265 0.13086912 0.020102354
000010 2f a0 45 3e 04 ab 7b be 46 49 57 bd 38 d7 94 bc
       0.19299386 -0.24576956 -0.052560113 -0.01816903
000020 4b da 45 3e 4d cf 14 3c 5e 63 57 3e 5b 22 e9 3d
       0.19321553 0.0090826275 0.21034 0.11383506
000030 49 87 0d 3e ab d0 bf 3e c9 5f 13 3f 3d 97 2c 3e
       0.13821138 0.3746389 0.5756803 0.16854568
000040 50 f5 c7 bd 38 90 93 bd b3 94 b0 3d f6 8a bd 3d
       -0.097635865 -0.07205242 0.08622112 0.0925502
000050 47 4d df 3d 57 08 4f 3e 0e f9 aa bc c7 23 51 3d
       0.10903411 0.20218025 -0.020870712 0.05105951
000060 7f 58 05 3d 9c 0c 82 bd b0 98 9f 3d ac 3d 1b 3e
       0.0325551 -0.06350061 0.07792795 0.15160245
000070 59 be 90 bd 38 76 f2 3d 36 dc 6c be 41 60 00 3d
       -0.07067556 0.11838955 -0.23130879 0.031341795
000080 a3 4c 59 be cb c9 99 be e7 b0 5a be 6d d4 fc bc
       -0.21220641 -0.30036768 -0.21356545 -0.030863011
000090 ec 99 1d be 3a 3e 44 bd 16 e9 c3 b8 42 5e 8a 3e
       -0.15390748 -0.047910906 -9.34174e-05 0.27025038
0000a0 ee da 8d 3e ca 0f d2 bd 0b 44 5a 3c f3 0a 43 be
       0.27706093 -0.10256918 0.013321887 -0.19047146
0000b0 2a b4 eb 3d 91 48 b6 be 26 73 92 bd 92 8c 16 3e
       0.11508973 -0.3560224 -0.07150869 0.14702061
0000c0 60 33 b2 3d a5 4a bd 3b ae b6 85 3e d0 c3 81 be
       0.08701205 0.0057767206 0.26115936 -0.25344706
0000d0 a3 4a d2 bd f5 5b 02 3e f6 aa 1c bd be cb f0 bd
       -0.10268142 0.12730391 -0.03824898 -0.11757611
0000e0 2f 91 4a bd b0 45 98 3d 81 f6 40 3e 84 9b 65 3e
       -0.049454864 0.07435167 0.18844034 0.22422606
0000f0 6c c6 19 3e 5b b5 1b be 7f 6a 33 bd ee 85 cd 3c
       0.15017098 -0.152059 -0.043802734 0.025088277
000100 8b 11 fd 3e 39 00 49 3e ed bd 8d 3e d4 a5 70 be
       0.49427447 0.19628991 0.27683964 -0.23500758
000110 11 34 2a 3e 3e b1 29 be d2 d8 cf 3d 7e c5 32 3e
       0.16621424 -0.16571519 0.10148777 0.1745815
000120 7a 73 55 be 34 8f 68 bc 61 e4 ac bb c2 71 0f 3e
       -0.20844832 -0.014194299 -0.0052762483 0.14008239
000130 fa 75 4c 3e 8c 35 5e 3d 2e 7b 60 3d 7b 75 21 be
       0.1996688 0.054250285 0.054804973 -0.15767471
000140 78 a4 8a 3e b0 20 2b be d7 1b 51 3d d5 1a 8d be
       0.27078605 -0.16711688 0.05105194 -0.27559534
000150 53 97 6c bc 76 da 25 be b6 f4 68 bd fa 47 ab bd
       -0.014440375 -0.16196617 -0.056874 -0.08363338
000160 2f 4c 2a be e9 90 90 3d fe 33 d4 3d b5 6b 95 3d
       -0.16630624 0.070588894 0.10361479 0.07295934
000170 6d d4 cf 3d 6a 65 84 be 5d 08 f5 bd 75 23 07 3e
       0.10147939 -0.25858623 -0.11964486 0.1319712
000180 a0 74 46 3e 03 10 a2 bb 3b f9 18 be a0 45 48 be
       0.19380426 -0.0049457564 -0.14938824 -0.1955781
000190 c9 bc f3 bc f7 b3 15 3e ab 97 75 3e c2 6b 7a 3d
       -0.029753106 0.14619432 0.23983638 0.061137922
0001a0 d9 c6 5b 3e 0e 6c 8d 3d 73 43 bf 3d b2 86 29 3e
       0.21462573 0.069053754 0.09339037 0.16555288
0001b0 1a 9d 0a be 95 6e 60 bd b9 24 35 3e 95 41 1d be
       -0.13536492 -0.05479296 0.1768979 -0.15357049
0001c0 a3 bf 55 3e 8d 44 91 be 53 b1 53 be 35 a9 7a be
       0.20873885 -0.28372613 -0.20673113 -0.2447861
0001d0 2a 61 80 be 02 77 80 3e 4d f3 92 3d b5 4e 8c 3e
       -0.2507413 0.25090796 0.07175312 0.274038
0001e0 d7 e7 d3 3c af 5e 82 3e 1e 80 41 bd b1 94 e5 3c
       0.025867386 0.25462863 -0.047241323 0.028025003
0001f0 92 07 d1 3d 1c f9 b0 3c 30 a9 87 bb 2d d2 18 3c
       0.10206522 0.02160316 -0.004140042 0.009327454
000200 02 27 a1 3d 61 d9 18 bd 2d f9 8f bd 9c f6 52 3e
       0.07868768 -0.037316684 -0.070299484 0.20601887
000210 2e 2e c4 bd 35 7d fa bd 3f 60 0b 3d f4 54 87 be
       -0.095791206 -0.122309126 0.034027334 -0.26432002
000220 0e 84 1c 3e 9f 3d f9 bb 73 b0 4e bc cf 1e 1e be
       0.1528475 -0.0076062228 -0.012615311 -0.1544144
000230 4a 68 27 3e 7e a1 4d 3e b8 95 98 3d d5 5c 13 bc
       0.16348377 0.20081136 0.074504316 -0.008994301
000240 e0 59 78 3d 17 94 f3 bc 68 fe d3 3d 4c ea e7 3d
       0.060632586 -0.0297337 0.103512585 0.113239855
000250 29 b6 2b be 67 10 06 3d 71 a5 c8 3c fe fb ee bd
       -0.16768707 0.032730486 0.024492951 -0.116691574
000260 71 8a 48 bd b1 1a 11 3e 9c 3e 59 be e5 d5 99 be
       -0.048960153 0.14170338 -0.2121529 -0.30046
000270 48 07 11 be 39 5f e3 bd cf cd 13 be d1 64 b8 bd
       -0.14162934 -0.11102147 -0.14433978 -0.09003604
000280 ef 78 d5 be 1c 88 fa 3c 3f 67 92 be 97 79 68 3c
       -0.41693828 0.03058248 -0.28594396 0.0141891455
000290 c8 e8 c3 3d a0 ac dc 3d 77 71 78 be f7 4a a9 be
       0.09565884 0.10775113 -0.24262033 -0.33065006
0002a0 4c 40 8b bd 0d 4f cc be ba 6d 21 be d7 59 a5 3e
       -0.06799373 -0.3990406 -0.15764514 0.32295105
0002b0 a0 85 99 be c4 40 c6 3d a0 b5 8e be 6f cc 4b bc
       -0.2998476 0.09680322 -0.27872944 -0.0124388775
0002c0 4a 6a 72 be d5 bf 2e be 1e e1 82 3d 70 15 b4 bd
       -0.23673359 -0.17065366 0.06390594 -0.087931514
0002d0 dc 1e 92 be 62 7c 05 3e ef 57 33 be 39 0e 49 3e
       -0.2853917 0.1303573 -0.17514013 0.19634332
0002e0 c8 6e be be 93 ba db bd 28 bf 52 be 6a 4e 8b be
       -0.37193894 -0.107289456 -0.20580733 -0.27208263
0002f0 e0 11 1f bd ca f8 47 3d a1 a0 d9 3d 48 dd 5f be
       -0.038835406 0.048821248 0.10626341 -0.21861756
000300 c1 32 5d be 0c a2 f6 3d 33 2d 58 bb 86 83 39 3d
       -0.21601392 0.12042627 -0.0032985925 0.045291446
000310 d6 2d 2c be f4 1b d4 bd 4e 6c 9f be c8 0d 45 3c
       -0.1681436 -0.10356894 -0.31137317 0.0120272115
000320 cd 49 98 3c 9f 00 5e be 11 ca 18 3e 37 42 aa 3d
       0.018589878 -0.21679924 0.14920832 0.08313411
000330 7b c9 7e be f7 b4 b5 bc 83 62 cc bc 51 a8 bb bd
       -0.24881546 -0.022181017 -0.024949318 -0.09162963
000340 ce b8 47 bd 2a 31 f2 3c 2a cd aa be 7b 0e 32 3e
       -0.048760228 0.029564459 -0.33359653 0.17388336
000350 ba 07 1e 3e 72 7d 37 be 8d 94 9b be d0 36 ac be
       0.15432635 -0.17918947 -0.30386773 -0.3363557
000360 c1 24 dd bd 50 f0 a7 be 42 c3 16 3e c6 67 10 bd
       -0.10798026 -0.3280053 0.14722922 -0.035255216
000370 e4 28 a3 be 1d e0 29 bd b2 40 dc 3b d1 07 e0 3d
       -0.31867135 -0.041473497 0.0067215795 0.10938991
000380 dc e4 ec be f2 13 9f be c7 73 bc 3c 79 69 27 3e
       -0.46268356 -0.31069905 0.023004426 0.16348828
000390 96 fc f3 3c 66 7e a3 3e 8d 9e b5 be 22 9a 8b be
       0.029783528 0.31932372 -0.35472527 -0.27266032
0003a0 4a f7 83 3e d4 a8 3f be 1f d0 ae bd 2d d8 c7 bd
       0.25774604 -0.18716747 -0.0853579 -0.09758029
0003b0 e1 c7 fd be 56 94 10 bd 78 21 aa bd 4c d5 4e 3d
       -0.49566558 -0.035297714 -0.08307165 0.050496385
0003c0 da 58 54 3d ab 2a 80 3e e8 e6 77 3d a2 90 a8 bd
       0.051842548 0.25032553 0.060522944 -0.082307115
0003d0 4c 7c 99 bd a1 3d bc bc c5 60 91 bd db dd 0c 3e
       -0.07494411 -0.022978606 -0.070985354 0.13756506
0003e0 d3 d1 ba be 1c 7d 0e be 13 0b 95 be be df ea bd
       -0.36488208 -0.13914913 -0.2911001 -0.11468457
0003f0 3b 26 1d be 19 9d 59 bc 22 22 4e be b4 ce 84 bd
       -0.15346615 -0.013282084 -0.20130208 -0.06484738

bias f4 [32]
000000 11 54 55 be f0 8a da 3d 3c c9 6c 3e eb f7 90 3e
       -0.2083285 0.106710315 0.2312364 0.28314146
000010 88 3f 5b 3e 21 51 06 be 85 36 0e be fe 17 19 3e
       0.21410954 -0.13116886 -0.13887985 0.14950559
000020 4d 24 43 be 1e 95 f1 bd 1e a6 8a bd f0 ef 83 bc
       -0.19056816 -0.1179602 -0.067699656 -0.016105622
000030 ad 64 f2 3d 8b b8 05 3e d7 cb 22 3e 82 40 0e be
       0.11835609 0.13058679 0.15898071 -0.13891795
000040 c0 68 b4 bd e7 47 34 3e 2b a7 94 bd e2 76 22 bd
       -0.08809042 0.17605554 -0.07258447 -0.039664157
000050 f6 34 fe bd ce fc 23 bd 86 41 11 be c3 af 53 3e
       -0.12412445 -0.040036015 -0.14185151 0.20672517
000060 4f bd 77 bd 35 40 8a be 06 67 28 bc 45 8c 65 3e
       -0.060483273 -0.2700211 -0.010278469 0.2241679
000070 f2 a1 2a bc c9 ef 14 be c4 e3 51 be 4b 85 4c 3d
       -0.010414587 -0.14544596 -0.20497042 0.049931806

weight f4 [2, 32]
000000 9b 87 54 3e b6 cc a4 bd 97 2a 3f 3d b8 37 ff bc
       0.20754854 -0.08046858 0.046671476 -0.031154498
000010 16 e1 2f be 79 6f 47 3d 21 23 3c 3e 05 2a e0 3d
       -0.17175707 0.048690293 0.18372776 0.109455146
000020 b6 2f 53 bd 1c 27 68 3e 09 91 a5 be da 01 53 3e
       -0.051559173 0.22671169 -0.32337216 0.20606175
000030 37 e4 67 be ef 24 26 be c1 0f cc be fb ad 25 3e
       -0.22645651 -0.16225027 -0.3985577 0.1617965
000040 7d 35 0b 3e 3c be 2b 3e a0 14 f0 bb 6d fa 8d bd
       0.13594623 0.16771787 -0.0073266774 -0.069325306
000050 96 67 49 be ec 65 57 bd d9 d0 24 be 83 1e 7a 3e
       -0.19668421 -0.052587435 -0.16095294 0.24425702
000060 f8 20 45 be 88 ae 72 3e 04 14 22 be a0 e2 02 be
       -0.19250858 0.23699391 -0.15827948 -0.12781763
000070 9a 9d 14 3e ac 21 02 be 47 7d 13 be a3 8a 8e 3e
       0.14513245 -0.12708157 -0.14403258 0.27840146
000080 8b 02 57 3e 4d dc 63 bd 79 ae 43 be 29 d1 19 be
       0.20997064 -0.055630017 -0.19109525 -0.15021195
000090 64 4a 26 bd e3 2a bb bd 31 eb 9a 3c ae 03 a1 bd
       -0.04059829 -0.09139039 0.018910976 -0.0786203
0000a0 b4 bb 89 3d f5 96 aa 3d 5e b7 11 be a1 67 2d 3e
       0.06725255 0.08329574 -0.14230105 0.16934063
0000b0 a0 9d b4 3d db f9 e9 bd 7d 79 37 be 0f e0 fd 3d
       0.08819127 -0.11424609 -0.17917438 0.123962514
0000c0 a5 1f 20 3d c2 21 0c be 94 51 fb 3d 85 3d 52 3e
       0.03909268 -0.13684753 0.12271419 0.2053128
0000d0 13 4f 88 3c af 73 a1 3d ac 44 d0 3d 66 3e a0 bd
       0.016639268 0.07883393 0.10169348 -0.078244016
0000e0 0f cb 70 3e 42 20 89 3e e0 81 a7 bc dc 2a 50 bd
       0.2351496 0.26782423 -0.020447671 -0.050822124
0000f0 39 d7 4f bd d8 29 37 3e 45 a7 ac bd 78 55 f8 3c
       -0.05074236 0.17887056 -0.08430342 0.030314192

bias f4 [2]
000000 51 dc 06 be a0 70 43 3d
       -0.13169982 0.04771483

mean f4 [2]
000000 ba 88 01 3d 52 1b 30 3f
       0.031624533 0.6879169

range f4 [2]
000000 f6 70 36 3f a0 1a 14 3f
       0.71266115 0.57853127
