docs/notebooks/paper_experiments/results/multitask/decoder_stats/decoder_model_2.pt (torch, 19541 bytes, 8 tensors)

weight f4 [16, 1]
00000000: 4c2a 24bf 7d47 b13d fb5f 33bf d625 2e3e
00000010: e9e0 5f3e ac6f df3e 8b3e bd3d 925d 943f
00000020: 7abe e63d bdf6 a0bd 52f6 7dbf 3922 883f
00000030: 4971 523f ed72 96bd b181 5e3f 2c0b 923e
-0.6412704 0.086562134 -0.7006833 0.17006621 0.2186314 0.43639886 0.09240445 1.1591055
0.11266799 -0.078595616 -0.9920398 1.0635444 0.8220411 -0.07346139 0.86916643 0.28524148

bias f4 [16]
00000000: 1e0b 6d3f 76d3 033f ff32 993d 8943 7e3e
00000010: 581c 58be 97cc 9bbe 53b0 89bf 2e8c 753f
00000020: ffd3 8a3e d25a 2cbc a4a8 1cbf 3887 583e
00000030: 4f7c dd3e faf5 683e c88c 8fbe 9ad2 933e
0.9259509 0.5149454 0.0748043 0.2483045 -0.21104562 -0.30429527 -1.0756935 0.9591702
0.27114865 -0.0105197 -0.61194825 0.21145332 0.43258902 0.22750083 -0.28037095 0.28871614

weight f4 [32, 16]
00000000: 69b4 74bd afbc e13d a51d cb3d afc6 583e
00000010: 92d9 cdbd 6350 603e ca5f 1e3e 67bf 4cbe
00000020: 20d1 7dbd 48af 6cbe bbb2 9fbd 541d e8bc
00000030: d7df 193e 1b38 33be a60e 063e d0f1 71bc
00000040: 7b6c 613e 8747 6cbe 1891 233e a053 04bd
00000050: 350d d43d 4894 fa3c f2be a03d 0960 d93c
00000060: 5cc6 793d d3d6 b63d 8e07 50bd 59be d93d
00000070: 532c a2be 12cf 7d3e fde7 2fbe f558 84bd
00000080: cdbc 493e dcbb 233e 9bae 97bd aa9b 053e
00000090: 44fb e33d 3861 413a b53b 69bd cc33 14be
000000a0: 7da4 e4bd 382c b63c c84f 313e 5618 05be
000000b0: 6eda 1b3e 9671 0b3e e2ba b1bd 004e 44be
000000c0: d847 813e 01df a7bc 2ce0 833e b219 fe3d
000000d0: 6bc6 ef3c 5989 5fbe 8b1c 8f3e bb54 abbc
000000e0: 08fe fe3d 9600 1e3b b30a dbbd 0d5f f3bc
000000f0: 3fb7 d7bd 93d8 533e edc0 c6bc 35d3 e7bd
00000100: 83ed 713e 5864 933b e89d 643e 5bde d9bc
00000110: 8fc0 4d3c 0e32 c4bd 4cf6 13be 34a2 a9be
00000120: 8672 523e f656 c1bd a112 48be 349d 98be
00000130: cb97 17be 5ed7 5b3e 2591 e3bd 19b2 debd
00000140: 22a0 7b3e 898c 993d 931b 483e 3f9f e8bc
00000150: 132b c53d f886 0fbe fca0 8ebd 4e8f 5abe
00000160: 16de efbd fc0f 13be cd35 42be 6d79 32be
00000170: b094 88be e8d0 373e 1134 73be 8cbf a43d
00000180: 4608 ae3d e19b 313e 92a7 053e 8040 acbd
00000190: 8be5 433e c6ad f43d 5c62 2c3e ca08 5bbe
000001a0: 42ab 01be a087 d8bd bc59 5bbd b271 7ebe
000001b0: fe79 9cbe 6469 c73d b742 a1be e060 96bd
000001c0: d4f8 1f3e b282 58bc ae39 cb3d 0d5a 1abd
000001d0: 9293 973d 7de9 a4be 9546 af3d 6f9c 96be
000001e0: 9d6d 873d 29c5 5a3e c624 55be f9f8 4bbe
000001f0: 7014 5dbe ae71 15bd 7a81 9fbe 4904 cdbd
00000200: ce8f 5f3d b62e 5cbe 87b5 053e a3ea d93c
00000210: dc39 613d 2321 88be 74da 3f3e f883 5abe
00000220: 96cd 343d e7f8 373e d912 94bd 2d8c a73d
00000230: 3bce 5abe af4f 13be a860 e43d 750c f9bd
00000240: eaff cf3d 985e fb3b 48e2 d83c 501c 2cbe
00000250: 70db efbc f6d6 d0bd 2482 f1bd 2d69 c2bd
00000260: 4a6d a9be ab5b 423e db8e 203e 09ed 1e3e
00000270: 980e 83bd 627c f43d d9f4 a7bd 4511 b63d
00000280: 45a2 14be e65b 323d 098c 543e 119b d13d
00000290: 5aa4 1e3e f6a3 523c 0851 b53c 0983 24be
000002a0: d1d3 39be 44cf 5b3e 31c8 78bd 75d1 15be
000002b0: 9e14 c5bd 1b47 43be 8b89 723c b1fe 1f3e
000002c0: a197 bcbc e020 88bd e912 1bbe 4645 13be
000002d0: af1c 523e 023f 0d3d 2a5d 7c3e 3842 cebd
000002e0: 0d41 f33d e879 e7bb 8492 8cbe aaa5 823d
000002f0: e661 093c 2f05 023e 0503 64bd 71ee 60bd
00000300: f5ff 543e eef7 c4be d266 f03d 4e5c 8dbe
00000310: 4d80 ee3d 54a4 613e 013f 793e afd1 c0bd
00000320: adee 84be 24b6 f0bd c50b 0ebc 3500 22bd
00000330: f61e 073e 69d0 973d 9510 05be 6d18 e53d
00000340: b7b1 24bd c0e3 1a3e a725 83bd f163 88be
00000350: 62b4 d53d 0476 afbe 0522 75be ad89 a8be
00000360: d076 9dbd 3810 123e c825 ee3d 4efc c8be
00000370: a4db 8fbe a4de 263d 7e46 15be 582a 81bc
00000380: e13c 4abe 46a2 253c 7ea5 dabe 35bf adbc
00000390: 372e 023e 6d48 593d 9525 1abd 7204 e3bd
000003a0: 552b 6b3e b5be a0be 8538 d1be 63e6 3abe
000003b0: 6362 b9bd 0e48 78be d4e3 9abd 6e56 0b3e
000003c0: e739 0bbe fa25 1cbd e90f 77be 615b 29bd
000003d0: 93c5 793e 8b2e 473e 4e89 43be 1935 603c
000003e0: 506d 12be ca24 c6bd eb92 22be 8729 3cbe
000003f0: b969 923e 5919 11be 73cc 11be 95f3 00be
-0.059742365 0.11022317 0.099177636 0.21169542 -0.10051264 0.21905665 0.15466228 -0.19994889
-0.061967015 -0.2311374 -0.07797762 -0.028334297 0.15026794 -0.17501871 0.13091525 -0.014767125
0.22014038 -0.2307416 0.15973318 -0.032306314 0.103540815 0.030588284 0.0784892 0.026535051
0.060980186 0.08927693 -0.050788455 0.10632009 -0.31674442 0.24786022 -0.1717834 -0.0646228
0.19700928 0.15989631 -0.0740635 0.13047662 0.111319095 0.00073768524 -0.056941707 -0.14472884
-0.11164186 0.022237882 0.1731559 -0.12997565 0.15220043 0.13617548 -0.08678223 -0.1917038
0.25250125 -0.020492079 0.25756967 0.12407245 0.029269418 -0.21829738 0.27951464 -0.020914426
0.12450796 0.0024109236 -0.106954 -0.02970841 -0.10532998 0.20688085 -0.024261916 -0.113195814
0.2362576 0.004498046 0.22325861 -0.026595285 0.012558117 -0.0957986 -0.14449424 -0.33131564
0.205515 -0.094404146 -0.19538356 -0.29807436 -0.14803998 0.21468875 -0.111116685 -0.10873813
0.24572805 0.07497508 0.19541769 -0.028396247 0.096273564 -0.1401633 -0.06964299 -0.21343729
-0.117122814 -0.14361566 -0.18965836 -0.17429133 -0.2667594 0.17950785 -0.2375033 0.08044347
0.08497672 0.1734462 0.13052204 -0.0841074 0.19130532 0.11947207 0.16834396 -0.21390072
-0.12662986 -0.105727434 -0.053552374 -0.24848059 -0.30561823 0.097368985 -0.31496212 -0.07342696
0.15622264 -0.013214754 0.09923111 -0.037683535 0.07401194 -0.32209387 0.08558384 -0.29416224
0.06612704 0.21364273 -0.20814809 -0.19919194 -0.21589828 -0.036485367 -0.3115347 -0.10010583
0.054580502 -0.21502194 0.13057528 0.026601141 0.05498682 -0.2658778 0.18735677 -0.21339405
0.044141375 0.17966042 -0.072301574 0.08181033 -0.21367733 -0.14385866 0.11151248 -0.12160579
0.101562336 0.0076711886 0.026475087 -0.16807675 -0.02927944 -0.101972505 -0.117924005 -0.09492717
-0.33091193 0.18980281 0.15679495 0.15520109 -0.06399268 0.11937787 -0.08200998 0.08890013
-0.14515026 0.043544672 0.20756544 0.10234655 0.15492383 0.012856474 0.022133365 -0.16065611
-0.18147208 0.21465784 -0.060737792 -0.14630683 -0.09623073 -0.19070093 0.014803301 0.15624501
-0.023021521 -0.066468954 -0.15143932 -0.14381894 0.20518754 0.034483917 0.24644914 -0.10071224
0.11877642 -0.007064093 -0.27455533 0.06379254 0.008385157 0.1269729 -0.055666942 -0.054914895
0.20800765 -0.38470405 0.117383614 -0.27609485 0.11645565 0.22035342 0.2434044 -0.09414994
-0.25963345 -0.117534906 -0.008669798 -0.03955098 0.13195404 0.07412798 -0.12994607 0.111862995
-0.040208545 0.15125942 -0.06403666 -0.2663875 0.10434796 -0.34269726 -0.23938759 -0.32917538
-0.07688677 0.14264 0.116283 -0.39254993 -0.2809726 0.04073967 -0.14577672 -0.015767261
-0.19749786 0.01010949 -0.42704386 -0.021209339 0.12712942 0.053047586 -0.037633497 -0.11084832
0.22965749 -0.31395498 -0.40863433 -0.18251948 -0.09051969 -0.24246237 -0.07562986 0.13607189
-0.13596307 -0.038122155 -0.24127163 -0.04134691 0.24391775 0.19451348 -0.19095346 0.0136845345
-0.14299512 -0.09674986 -0.15876357 -0.18375216 0.28596285 -0.14169826 -0.14238147 -0.12592919

bias f4 [32]
00000000: 99e9 51bc d981 843d eb3b 063d a9c6 343d
00000010: 6cda 0d3d c6e9 a03d 3f2d db3c c1c9 75bd
00000020: dff2 f83d 3ff6 bdbd f139 28be ccfa 323e
00000030: 0160 9abb b119 8abd 45b4 903e 1667 d8bd
00000040: a082 573e 2a55 32be 0413 653e 322c 55bc
00000050: 608d 3a3d 667e 0a3e 7f71 243e baa0 91be
00000060: 14c8 abbe 68b4 0fbc 9840 e1be 7842 15be
00000070: ef3b e93c 9d09 e2bb 13ee 12be c886 41be
-0.012812042 0.06470079 0.032771986 0.04413477 0.03463213 0.07857089 0.026754973 -0.06000686
0.12155699 -0.09275483 -0.16428353 0.17478484 -0.0047111516 -0.067431815 0.28262535 -0.10566537
0.21045923 -0.174153 0.22370535 -0.013011025 0.045544982 0.1352478 0.1605892 -0.28442937
-0.33551085 -0.00877104 -0.43994594 -0.14576137 0.028470961 -0.0068981186 -0.1434863 -0.18899071

weight f4 [2, 32]
00000000: ecb2 0c3e 448b 1fbe 2e58 01be 67fc a0bd
00000010: efdc 5ebe b6af a0bd 34ec 1abe 2c22 2dbe
00000020: d3cc aebd 6701 553d 4cdc 04be 3780 873d
00000030: 2a8b d03d 0698 2dbe b31f 443e e9d8 5b3e
00000040: 3f1e f4be 007f 08be 2c04 91bd 05e5 e33d
00000050: 95c7 123d 3975 f63c 7459 c3be 419d 00bd
00000060: 3b7e 253e b9bf 813d d2a1 b13e 34eb 12be
00000070: 5322 a23d fae3 c4bc 1c5b fd3d 774f 3a3e
00000080: b455 183d a149 193e 493d 9d3d 4067 2f3e
00000090: 6795 a23c 03c2 803d 26cb 263e cd18 a43d
000000a0: ce12 c0ba a542 233d 9d89 2f3d 1311 363d
000000b0: 145c 163e 042a 013c b74c 5c3e 45dc 7dbd
000000c0: fbab 9bbe 6d50 8dbc 4d37 7a3d 1bbc fc3c
000000d0: 4445 45bd 7f1d 44be 6968 09be af6a ae3d
000000e0: f196 613e d333 98bd ac2a 9f3e 8e6d a1bd
000000f0: dad4 483e 4955 213e adfd 26be fd5a b83e
0.13740128 -0.1558047 -0.12631294 -0.07860642 -0.21763967 -0.07846014 -0.15129167 -0.16907567
-0.08535161 0.05200329 -0.12974662 0.06616252 0.101827934 -0.16952524 0.19152717 0.21469463
-0.47679326 -0.13329697 -0.07080874 0.111276664 0.035834868 0.030085193 -0.38154185 -0.03139997
0.16161434 0.06335396 0.34693772 -0.14347535 0.07916703 -0.024034489 0.12370893 0.18194376
0.037191108 0.14969493 0.07677705 0.1712923 0.019846631 0.06287005 0.16288432 0.08012543
-0.0014654042 0.03985848 0.042855848 0.044449877 0.14683563 0.007883552 0.2151364 -0.061977644
-0.30404648 -0.017250264 0.061087895 0.030851414 -0.04816176 -0.19151877 -0.13418736 0.08516442
0.22030236 -0.0743176 0.31087244 -0.07882224 0.19612446 0.1575519 -0.16307707 0.3600692

bias f4 [2]
00000000: f350 a3bc 049c 09be
-0.01993606 -0.13438421

mean f4 [2]
00000000: ba88 013d 521b 303f
0.031624533 0.6879169

range f4 [2]
00000000: f670 363f a01a 143f
0.71266115 0.57853127
