docs/notebooks/paper_experiments/results/multitask/decoder_stats/decoder_model_6.pt (torch, 19541 bytes, 8 tensors)

weight f4 [16, 1]
0	0x3f2dfb46	0.6796154
1	0xbe929be0	-0.28634548
2	0xbd72305f	-0.05912816
3	0x3ee91c40	0.45529366
4	0x3d7d4630	0.061834514
5	0xbf2f64ba	-0.6851307
6	0x3f19e027	0.60107654
7	0xbf2795d6	-0.65463006
8	0x3f606e85	0.8766864
9	0xbf4d6cb4	-0.8024399
10	0x3db927fa	0.09040828
11	0xbec9a931	-0.39386895
12	0x3f85b52a	1.0445912
13	0xbf7d04d3	-0.98835486
14	0x3d8e658f	0.069529645
15	0x3f2e8a5f	0.6817989

bias f4 [16]
0	0xbedff107	-0.43738577
1	0x3e5318d5	0.20614941
2	0x3f3d0274	0.7383187
3	0xbf463a24	-0.77432466
4	0x3f35d0be	0.7102164
5	0xbe093add	-0.13401361
6	0xbce4447e	-0.02786469
7	0x3d579a92	0.052637644
8	0x3e151398	0.14558256
9	0x3f266c22	0.6500875
10	0xbe4a7a46	-0.19773206
11	0x3ec20b4c	0.37899244
12	0x3ea2e097	0.31811973
13	0x3e93a294	0.28834975
14	0xbebb05c2	-0.3652783
15	0x3f50fbc7	0.8163418

weight f4 [32, 16]
0	0x3d0b4fd0	0.034011662
1	0xbe8c8949	-0.2744849
2	0xbd4f494e	-0.05060702
3	0xbcadbc3d	-0.021207923
4	0x3e41b201	0.1891556
5	0x3d02d74f	0.031943616
6	0x3e638a53	0.22220735
7	0xbe3680bd	-0.17822547
8	0x3e1324ef	0.14369558
9	0xbe8561f7	-0.26051304
10	0xbca8d4c5	-0.020609269
11	0x3d254fd1	0.040359322
12	0xbe19da37	-0.15024649
13	0xbe3302c5	-0.17481525
14	0x3cdbe99b	0.02684479
15	0x3d981ebf	0.07427739
16	0x3e7e3412	0.24824551
17	0x3e9b3458	0.30313373
18	0xbed00d1a	-0.40634996
19	0x3eb340fe	0.35010523
20	0xbe27fa1c	-0.16404003
21	0x3f225dfa	0.63424647
22	0x3c82fcfc	0.015989773
23	0x3f0ce13a	0.5503117
24	0xbd17362c	-0.036916897
25	0x3e2b8b8b	0.1675245
26	0x3ee16057	0.44018814
27	0x3de5210b	0.11187943
28	0xbda3a1ac	-0.07989821
29	0x3e81b5c6	0.25333995
30	0x3ec88fe1	0.3917227
31	0x3e95f935	0.29291692
32	0xbd5a4136	-0.053284846
33	0xbc641791	-0.013921634
34	0x3e1a28ca	0.15054622
35	0xbeb70ea4	-0.35753357
36	0x3e7ebb9a	0.24876252
37	0xbea956da	-0.33074075
38	0x3d10573f	0.035239454
39	0xbec2e1bf	-0.38062856
40	0xbe4537fe	-0.1925964
41	0xbeb79e84	-0.35863125
42	0x3c841239	0.01612197
43	0xbdbfe5c1	-0.09369994
44	0x3d68719f	0.056748983
45	0xbe8e2599	-0.2776306
46	0xbe1d319e	-0.15350959
47	0x3dd9a673	0.10627451
48	0xbde16eb8	-0.11007446
49	0x3d84d139	0.064852186
50	0xbbd6352c	-0.0065371003
51	0x3d767e49	0.06017903
52	0x3e03d3c6	0.12873754
53	0x3dcce9ea	0.10005553
54	0x3e416d64	0.18889385
55	0xbe9469da	-0.28987008
56	0x3df4344c	0.11924037
57	0xbc1bd7ac	-0.009511869
58	0x3e0640d9	0.13110675
59	0x3e4ef32b	0.20209949
60	0x3e24dd2b	0.16099994
61	0x3dbc161d	0.09183905
62	0xbe9c7007	-0.3055422
63	0x3e27e4c0	0.16395855
64	0x3e6217f3	0.22079448
65	0x3e11a4a9	0.14222969
66	0x3d99ed91	0.07516015
67	0xbe18354a	-0.14864078
68	0xbe92c108	-0.28662896
69	0x3e0f10bf	0.13971232
70	0xbdac805c	-0.0842292
71	0xbd90287f	-0.07038974
72	0xbcfea8a7	-0.03108628
73	0x3db3222b	0.087467514
74	0xbd5e6a6b	-0.054300707
75	0x3d6039ab	0.054742496
76	0x3d05f016	0.032699667
77	0x3e08f306	0.13373956
78	0x3e0deffa	0.13861075
79	0xbd7cbb37	-0.06170198
80	0x3d85ad9d	0.06527255
81	0xbc3c4e01	-0.011493207
82	0x3e3c2f55	0.1837743
83	0x3e5cb59d	0.21553655
84	0x3cf03ff0	0.029327363
85	0xbdcb2705	-0.09919552
86	0x3e0a6a3b	0.13517086
87	0xbc5fefb6	-0.013667991
88	0xbe16f67a	-0.14742461
89	0x3e7a875b	0.24465697
90	0xbd9e2ac8	-0.077230036
91	0xbe42e246	-0.19031629
92	0x3db6a08d	0.089173414
93	0xbcf42907	-0.02980472
94	0x3e89ed63	0.26938924
95	0x3de588e5	0.11207751
96	0xbea24250	-0.31691217
97	0x3e10f48d	0.14155789
98	0x3e263b80	0.16233635
99	0xbbbb721f	-0.0057203914
100	0x3ca50fb8	0.020149097
101	0xbe2969a4	-0.16544205
102	0xbe665641	-0.22493841
103	0xbe375d3f	-0.17906664
104	0xbe0c2783	-0.13686948
105	0x3e42e634	0.19033128
106	0xbe1bf6f6	-0.15230927
107	0xbbfe8221	-0.0077669774
108	0xbeac46d2	-0.33647782
109	0x3e84a46b	0.2590669
110	0xbe3f43e0	-0.18678236
111	0xbe5b75a4	-0.21431595
112	0xbe2022d5	-0.15638287
113	0x3e923e8d	0.28563347
114	0x3e6aa870	0.22915816
115	0xbdd8c6a5	-0.105847634
116	0xbe4d7b35	-0.20066531
117	0x3df1906f	0.11795127
118	0x3cfda301	0.030961515
119	0x3e364172	0.17798403
120	0x3e05a758	0.13052118
121	0xbd8b9429	-0.06815369
122	0x3e43d869	0.19125523
123	0x3e7cc458	0.24684274
124	0x3dbaf42c	0.09128603
125	0x3e504a5f	0.2034087
126	0x3e4b2ba3	0.19840865
127	0xbe5f001c	-0.21777385
128	0x3ba185e4	0.004929291
129	0xbe0af2c2	-0.13569167
130	0x3e6cbe27	0.23119412
131	0xbc878029	-0.016540604
132	0x3da9bd3f	0.08288049
133	0xbececbf3	-0.40389976
134	0xbdefd9cb	-0.117114626
135	0xbee5a128	-0.44849515
136	0x3de0a914	0.10969749
137	0xbe68da9a	-0.2273964
138	0xbe3af8a9	-0.18258919
139	0xbe306caa	-0.17228952
140	0x3d4ff29a	0.050768472
141	0x3bed5ae0	0.007243499
142	0xbe490f7d	-0.19634815
143	0xbe493bc3	-0.19651704
144	0xbe2c8e77	-0.16851221
145	0x3e9e4988	0.30915475
146	0x3e38938f	0.18025039
147	0xbd168c1a	-0.036754705
148	0x3e53f453	0.20698671
149	0xbd28a252	-0.041170426
150	0x3d9bdda1	0.07610632
151	0xbd15bea5	-0.036558766
152	0x3dd1e9a6	0.10249643
153	0xbdc4c6db	-0.09608241
154	0xbe1443f9	-0.14479055
155	0x3e87dd7e	0.26536173
156	0xbe964a20	-0.29353428
157	0xbd17e314	-0.037081793
158	0x3e5a2a84	0.21305281
159	0x3c502a86	0.012705451
160	0xbdfced8c	-0.12349996
161	0x3e67a0c4	0.22619921
162	0x3dcfae2e	0.10140644
163	0x3c83def2	0.01609752
164	0x3dcf0e6c	0.10110173
165	0xbe421cfe	-0.18956372
166	0x3d5d72b5	0.05406447
167	0x3d03c9dd	0.032174934
168	0xbd816d4c	-0.06319675
169	0x3d7c4f24	0.061598912
170	0x3d31eb1c	0.04343711
171	0x3e1dbe3f	0.15404604
172	0x3e1208b1	0.14261128
173	0x3e83ae16	0.25718755
174	0xbe0e549b	-0.13899462
175	0xbdacf5ce	-0.08445321
176	0x3db5f1bb	0.08883997
177	0xbe289e10	-0.16466546
178	0xbe04beaa	-0.12963358
179	0xbe70c7d0	-0.23513722
180	0xbdfdfd95	-0.124018826
181	0xbe8143e0	-0.25247097
182	0x3e7a20fb	0.24426644
183	0x3e067482	0.13130382
184	0xbdc8ee9b	-0.098111354
185	0x3df101cd	0.117679216
186	0x3cb949e3	0.02261824
187	0x3dd2aa71	0.10286415
188	0x3e9062c7	0.2820036
189	0xbda1c9e7	-0.07899838
190	0xbe53107e	-0.2061176
191	0x3de3b5ed	0.11118684
192	0x3decacc4	0.1155639
193	0xbde47fd4	-0.11157194
194	0x3e241f2d	0.16027518
195	0xbc8415ac	-0.016123615
196	0xbd9db9a0	-0.07701421
197	0xba783a37	-0.0009469124
198	0x3e1eda3c	0.15512937
199	0xbe7a9b02	-0.24473193
200	0xbe4ea533	-0.20180206
201	0xbebfd5b1	-0.3746772
202	0x3dd5f1ec	0.104465336
203	0x3cb61c15	0.022230187
204	0x3df2ab85	0.11849121
205	0xbe9aec27	-0.30258295
206	0x3e0f749c	0.14009327
207	0xbe499030	-0.1968391
208	0xbdc34a57	-0.095356636
209	0xbe91fd67	-0.28513643
210	0x3e167e6d	0.14696665
211	0xbeb86715	-0.36016145
212	0x3da08997	0.07838743
213	0xbe9d0ab0	-0.30672216
214	0x3d9860d9	0.07440347
215	0x3d012865	0.031532664
216	0x3dbf635a	0.09345122
217	0xbdc4714d	-0.09591923
218	0xbdc2b752	-0.09507622
219	0xbbc4db8e	-0.0060076183
220	0x3ca9177e	0.020641085
221	0xbebef0c4	-0.37293065
222	0xbe008f26	-0.12554607
223	0x3e6977d9	0.22799625
224	0xbeddff22	-0.43358713
225	0x3e65c15f	0.22437046
226	0x3e221f1b	0.15832178
227	0xbe087f19	-0.13329734
228	0x3ab4801c	0.001377109
229	0xbd965e9f	-0.07342266
230	0xbe26f7d0	-0.1630547
231	0xbe488993	-0.1958373
232	0xb8f4aebf	-0.00011667376
233	0x3e9a91dc	0.30189407
234	0xbdc4696b	-0.095904194
235	0x3e621b61	0.22080757
236	0xbec9f888	-0.39447427
237	0x376d59da	1.4147221e-05
238	0xbdc40278	-0.095707834
239	0x3d825310	0.06363499
240	0x3e167525	0.14693125
241	0xbe45795f	-0.1928458
242	0x3ec093aa	0.3761266
243	0x3d8eaa78	0.06966108
244	0xbe14e89e	-0.14541861
245	0x3d7b743a	0.06139014
246	0x3e40ca15	0.18827088
247	0xbd07ab50	-0.03312236
248	0x3e8a6b39	0.2703493
249	0xbe5cbc88	-0.21556294
250	0xbe807477	-0.25088856
251	0x3e3ef9e1	0.18650009
252	0xbe321d9e	-0.1739411
253	0x3e193572	0.14961794
254	0xbe732bb8	-0.23747146
255	0x3db22f0e	0.08700381

bias f4 [32]
0	0x3a870581	0.0010301323
1	0xbe0415eb	-0.12898986
2	0xbd0567d0	-0.032569706
3	0x3e13bc74	0.14427358
4	0x3e18bec6	0.14916524
5	0x3d8f9c77	0.07012265
6	0x3e8b0783	0.27154168
7	0xbda4cb41	-0.0804658
8	0xbda9006d	-0.08252034
9	0xbe061a4c	-0.13095969
10	0x3d8fa3c2	0.07013656
11	0x3d864609	0.06556327
12	0xbe021db2	-0.1270664
13	0xbe1ba2c8	-0.15198815
14	0x3e9e7c75	0.30954328
15	0xbcd3b0dc	-0.025841169
16	0xbc54a110	-0.012977853
17	0x3e0711f1	0.13190438
18	0x3e97ce5e	0.29649633
19	0x3e376f49	0.17913546
20	0xbd33c212	-0.04388625
21	0x3e720239	0.2363366
22	0x3e624911	0.22098185
23	0xbe41c9b7	-0.18924604
24	0x3d31336c	0.04326193
25	0xbe0de2c4	-0.13856035
26	0xbd2c4ef1	-0.042067472
27	0xbdbbc171	-0.091677554
28	0x3e470ea0	0.19439173
29	0xbe57082b	-0.2099921
30	0x3da9a48c	0.08283338
31	0x3e6d5492	0.23176792

weight f4 [2, 32]
0	0x3e19c546	0.1501666
1	0x3e7b7ba8	0.2455889
2	0x3e8e113e	0.2774753
3	0xbd9d50a9	-0.076814
4	0x3dba519f	0.09097599
5	0xbdb33a37	-0.08751338
6	0xbe9ddc9b	-0.3083237
7	0xbdac33ca	-0.084083155
8	0x3e63767a	0.22213164
9	0xbddaecfd	-0.10689733
10	0xbdcd4713	-0.10023322
11	0x3d566a8c	0.052347705
12	0x3e78a60a	0.24282089
13	0x3e5334ea	0.20625654
14	0xbe49e7f9	-0.19717397
15	0xbd088000	-0.033325195
16	0x3e424785	0.18972595
17	0xbd39698b	-0.04526667
18	0xbe797066	-0.24359283
19	0x3e2936bd	0.16524787
20	0x3e0af9e1	0.13571884
21	0xbdfa3a6b	-0.122181736
22	0x3e1122fe	0.14173505
23	0x3d094096	0.03350886
24	0x3e19a41e	0.15004012
25	0xbcf152dc	-0.029458456
26	0x3d82cb5a	0.063864425
27	0x3ea17ddc	0.31541336
28	0x3ec4e051	0.3845239
29	0x3c2bf97d	0.010496494
30	0xbcfaaf5a	-0.030601192
31	0x3d6d1ea4	0.05789055
32	0xbd3f8c42	-0.04676462
33	0x3e2ca6d6	0.16860518
34	0xbcd2a12c	-0.025711618
35	0xbe4f08ac	-0.20218152
36	0xbcf8741b	-0.0303288
37	0x3bb8f600	0.00564456
38	0x3d9a09be	0.075213894
39	0x3e270429	0.1631018
40	0x3d7cdc96	0.061733805
41	0x3d96b201	0.0735817
42	0x3dcc18a1	0.09965635
43	0xbe53a824	-0.2066961
44	0xbbdfa71f	-0.0068253423
45	0xbd9988f6	-0.07496826
46	0xbe215461	-0.15754844
47	0xbdeb0e2a	-0.11477311
48	0x3e45f4e1	0.19331695
49	0x3d678bb7	0.056529727
50	0xbdee3be2	-0.116325155
51	0x3e6495f9	0.22322835
52	0x3c7e839a	0.015534306
53	0xbdce4d70	-0.10073364
54	0xbd36d0c7	-0.0446327
55	0x3e091872	0.13388231
56	0xbe23759c	-0.15962833
57	0xbcb8ad24	-0.022543497
58	0xbe4522dc	-0.19251579
59	0x3e27318e	0.16327497
60	0x3dff20b7	0.12457412
61	0x3e13192c	0.14365071
62	0x3df1ff56	0.118162796
63	0xbd592847	-0.053016927

bias f4 [2]
0	0x3d44752f	0.047963317
1	0xbe64f799	-0.22360076

mean f4 [2]
0	0x3d0188ba	0.031624533
1	0x3f301b52	0.6879169

range f4 [2]
0	0x3f3670f6	0.71266115
1	0x3f141aa0	0.57853127
