docs/notebooks/paper_experiments/results/multitask/decoder_stats/model_multitask_0.pt (torch, 30909 bytes, 13 tensors)

mean f4 [2]
00000000: ba88 013d 521b 303f
0.031624533 0.6879169

range f4 [2]
00000000: f670 363f a01a 143f
0.71266115 0.57853127

weight f4 [32, 2]
00000000: b9c9 29bf 3dbf 42be 098d fc3b 343f fdbe
00000010: 3a8b 14bf 21d5 693e 3808 e0be ca58 b63c
00000020: 9e8a b3be 523e 443f 28d4 a53e 1c5a 7ebe
00000030: d164 89bd 8ade 63bf 7434 3d3f 5e82 20bd
00000040: 03a3 14bf 32f3 7c3e 27bc 7b3e 2bf0 4e3f
00000050: 58b2 9ebe b6ff 523e b20e 46bf 7700 aa3e
00000060: f634 18bf 0dae a13e b832 713d 3ee4 d53e
00000070: b31d 5c3e 0620 213f 0c03 e03e 0b0c 51bf
00000080: 8f4a 95be 4436 843e 53a0 483f fc34 4cbf
00000090: f832 44bf f088 67be 5764 c5be 97aa 063f
000000a0: 9886 053f 5cc1 a8be 7c2d 5b3f 1b2a 18bf
000000b0: 02fe 033e 5d34 0d3f ce4e 7dbd 23f2 733e
000000c0: 02d0 29bf eb80 4d3f f2e6 a4bc 1795 733e
000000d0: c549 433e 1ada e9be 5eaa 20be c495 43bf
000000e0: 123c 073f bee8 0bbe 89ff 08bf 66e1 fb3d
000000f0: cad0 86bd 7cad 01bf 83ac 993d 6388 56bf
-0.6632343 -0.19018264 0.0077072424 -0.49462283 -0.5802494 0.22835208 -0.4375627 0.022259135
-0.35066694 0.76657593 0.32388425 -0.24839061 -0.06708682 -0.8901144 0.7390816 -0.039186828
-0.58061236 0.24702147 0.24583493 0.8083522 -0.3099544 0.20605358 -0.77366173 0.3320348
-0.5945581 0.31578103 0.05888626 0.41775697 0.21495704 0.6293949 0.43752325 -0.81659
-0.29158446 0.2582265 0.78369635 -0.7976835 -0.7664027 -0.22610831 -0.38553116 0.5260405
0.521585 -0.32960021 0.8561628 -0.5943925 0.12889865 0.55158025 -0.061842732 0.23822837
-0.6633302 0.8027484 -0.020129655 0.23787342 0.1907111 -0.4567421 -0.1568999 -0.764004
0.52826035 -0.13663003 -0.53514916 0.12298851 -0.06582792 -0.5065534 0.07503607 -0.8380186

bias f4 [32]
00000000: b0f4 523e 19ac 343f a97c 93bc bd16 03bf
00000010: 2271 fcbe 050d 9abe 308e 2b3f bb4f 89be
00000020: e698 babd 3275 593f c917 1d3f 19b3 193f
00000030: 6f66 aa3e 6cd9 fb3d a8f0 f13e 35fc 0e3f
00000040: f066 313f 3276 b63c fa5a 093e d8f3 0b3f
00000050: b663 243f a871 70be a19e 3d3f f723 34bf
00000060: 35cd 4f3f 1922 973d cd55 efbe b4cd 163f
00000070: 5475 db3e 467d 4a3e 053c 95be ca58 11be
0.20601153 0.705751 -0.018003779 -0.5120657 -0.49305063 -0.30088058 0.67013836 -0.26818642
-0.09111194 0.8494445 0.6136442 0.60038906 0.33281276 0.12297329 0.4725392 0.5585359
0.69297695 0.022273157 0.13413611 0.5466895 0.64214647 -0.23480856 0.74070174 -0.7036738
0.81172496 0.073795505 -0.46745148 0.5890763 0.42862952 0.1977435 -0.29147354 -0.14194027

weight f4 [16, 32]
00000000: cc11 293e 7148 48be b6d5 523e ea85 9fbd
00000010: c178 80bd 9231 4e3d 91a0 4fbe f69d 0b3e
00000020: 52d7 bf3d f71b 343c bf77 cd3d ad5e 433d
00000030: 9955 6e3d c4a5 893d 5a22 933e a423 4a3b
00000040: 96a0 9a3e 0e61 e73d d799 86bd 0e07 743e
00000050: 3a95 6fbd ee6a 27be 5b1e e63d 2438 87be
00000060: 7a70 3d3e 8eca 413e 1a49 1ebe 79fe 60be
00000070: 88f9 ea3d efee 7dbc 65b6 93be 31eb adbe
00000080: 327a 88bd e175 b13e f9d1 813d 8ea1 bb3d
00000090: 6bde 53be b208 bd3e 0ba0 3d3e 3d11 a13e
000000a0: 9e11 53bc dccc 8bbe 6fb0 11be df61 663d
000000b0: 7a6b c3bd 9588 48be c081 aabe 3a32 173e
000000c0: a3be 40be d78d 063d ee88 34bd d967 05bc
000000d0: 3032 043e 9658 a53e efd3 2ebe b554 793d
000000e0: 438e ecbd 4628 80be 96c1 c23e 6615 cf3d
000000f0: 718e 633e 464b 82be a984 4d3e e847 8e3e
00000100: ffa9 583e c4fe 4fbe dabf c63d 1019 bcbc
00000110: 36a2 7c3e e0c5 5dbe 21a4 9dbe f6c1 083c
00000120: 3332 543d f136 4a3e 3b2f e63d feec 8b3e
00000130: 45f1 8a3e 02b3 563e d914 383d 15cc ff3b
00000140: 10f6 e43d 996e f5bd a398 5e3e 72ac 25bd
00000150: 6224 93bd 6b2f 4abd cc87 1e3d 79c9 773d
00000160: 1917 8f3e a656 723d b84f 00be 0747 bbbd
00000170: 1b03 d93d 7dfe 05bd 04e0 6bbe b7ed 75be
00000180: e314 063e e836 1dbe d90f d83d 22f8 e9bd
00000190: ee76 5fbd d191 99bc c319 58bc 89f7 3fbc
000001a0: a0ed 3dbb c105 b13b 8359 283e 4cca c13d
000001b0: 1f07 073d 4215 073e 744d 79bc bc95 60be
000001c0: ffcd fc3d 7b16 07be 7177 c9bd 4cb2 773c
000001d0: df15 6f3c 7c44 4c3d 7b3f 103e b7fe 3d3d
000001e0: 31e8 003e 3df0 183e e54f 233d 44f2 853c
000001f0: 47ff c4bd baef abbc ede5 4cbe 900c 02be
00000200: 3013 4d3e 5fbc 88be 9205 543d 8024 04bd
00000210: 607b 49bd 1d95 87be 322d 66be 5021 023e
00000220: efa9 ea3c 7852 8bbc 131e b03d f486 863e
00000230: 6f28 e2bc a283 013d 5d74 803e 3a4b eebd
00000240: 057d 833e 587b 993d b8d9 853d f159 fe3d
00000250: 0ab1 e9bd e5c2 48be 2e10 413d 166d 01be
00000260: ba84 3b3e e7d4 133e 78ca f03c d1ad 84be
00000270: 45e3 a53d f22a 383e 92e1 5bbd 77d7 9abc
00000280: 64f8 ef3c 228a 8b3c c4e5 11be 769a 4dbe
00000290: fd8d 19be 00ff ba3e 6016 003e e638 473d
000002a0: bef6 65bd 9fd1 d4be 9ec8 52be 1139 85bc
000002b0: 3978 80be 0eaa a8be 7262 d2bd 0edb 7d3e
000002c0: a6db b4bd cff4 733e 3f0d 8d3d d525 85be
000002d0: ed9f bd3d 23ae 163e 0c0b 8ebe 0e06 68be
000002e0: 975e c6bc 0e42 4ebe 306d ee3d 055a b13e
000002f0: ec20 da3d f8ab c5bd beaf b43e 4324 a63e
00000300: add5 9bbd c3d2 f83d 5b77 b0bc ae35 a43d
00000310: a9f0 4e3d e3a5 2f3e beb5 a23e 0ec3 163e
00000320: 6e0a 883c 05f3 e1bd 1fb6 433c f510 3c3d
00000330: e71c 1fbe daf2 60be 2fd4 c3be 04ba 993e
00000340: 84e4 80bd 3afa a63d dfa3 95bd d902 18bc
00000350: e048 753e 59d8 773e ae3f 71bd cab4 87bd
00000360: f4fa 763c 16a6 77be 9349 c03e 436d 373e
00000370: 1e77 7a3e 8305 04be ec53 3d3e 0609 b33e
00000380: 0d13 643d 7ef6 54bd b3e8 4e3e e510 783b
00000390: 309c b23d 1496 693d e230 6a3c ba16 d53d
000003a0: 4873 f13d d20f 293e 9c88 923e 431a 0c3e
000003b0: 1494 8e3e 7c7b 803e f3fd 1d3e faaf 40be
000003c0: d355 963d 748a 583d 3eb9 44bc c0a5 783e
000003d0: f5ac 98bc 4e17 c5bd e39a f13d fb02 25be
000003e0: 8a76 853c 83bf 653e 0f86 c4bd 71fe 56be
000003f0: 7cba 9abd d986 fd3d 434e 8abe f841 793c
0.16510695 -0.19558884 0.20589337 -0.07789214 -0.06273032 0.050340243 -0.20276095 0.13634476
0.09367241 0.010992995 0.100326054 0.04769771 0.0581871 0.067210704 0.28737146 0.0030843997
0.30200642 0.112978086 -0.06572311 0.23830816 -0.058491923 -0.16349384 0.112362586 -0.2641002
0.18499938 0.18924925 -0.15457574 -0.21972074 0.114733756 -0.015498861 -0.28850093 -0.339685
-0.06663932 0.34660247 0.06338877 0.091616735 -0.20690314 0.36920696 0.18518083 0.31458464
-0.012882618 -0.27304733 -0.1422746 0.05624568 -0.09541984 -0.19583352 -0.33302116 0.14765254
-0.18822722 0.032850113 -0.0440759 -0.008142435 0.1290977 0.32294148 -0.17073034 0.0608718
-0.11550572 -0.25030726 0.3803832 0.10111503 0.22222306 -0.25448054 0.20070137 0.27789235
0.21158598 -0.20312029 0.097045615 -0.02296117 0.24671254 -0.21657515 -0.30789283 0.008347025
0.051805686 0.19747521 0.11239477 0.27329248 0.271372 0.20966724 0.044941757 0.007806311
0.11179745 -0.119839855 0.21737914 -0.04044766 -0.07184674 -0.049361628 0.038703725 0.060494874
0.2794731 0.059164666 -0.1253041 -0.09144407 0.105962954 -0.032713402 -0.23034674 -0.24016462
0.13093905 -0.15352976 0.10549898 -0.11424281 -0.05455678 -0.018746288 -0.013189736 -0.011716732
-0.0028980747 0.0054022972 0.16440396 0.09462413 0.032965776 0.13191703 -0.01521622 -0.21932119
0.12343978 -0.1319217 -0.09837235 0.015118193 0.014592617 0.04987 0.14086716 0.046385493
0.12588574 0.14935394 0.039871115 0.016350873 -0.09619003 -0.020988334 -0.20009585 -0.12700105
0.2002685 -0.26706216 0.051763125 -0.03226137 -0.049189925 -0.26480952 -0.22478178 0.1270802
0.028645484 -0.017007098 0.08599486 0.26274836 -0.02760717 0.031619675 0.25088778 -0.11635442
0.2568132 0.07494229 0.06535667 0.12419499 -0.11410721 -0.19605596 0.04713457 -0.12639269
0.1831235 0.14436685 0.02939342 -0.2591386 0.08099989 0.17985132 -0.053681917 -0.01890157
0.029293247 0.01703364 -0.14247805 -0.20078453 -0.1499557 0.36522675 0.12508535 0.048638247
-0.056143515 -0.41566178 -0.20584342 -0.016262563 -0.25091723 -0.3294224 -0.10272683 0.24790594
-0.08830957 0.23823856 0.06887292 -0.26005426 0.09259019 0.14714865 -0.27742803 -0.2265856
-0.024215026 -0.20142385 0.116419196 0.34638992 0.106508106 -0.09651941 0.3529033 0.3244954
-0.07609115 0.121495746 -0.021541288 0.08018051 0.05052248 0.17153125 0.31779283 0.14722845
0.016606536 -0.110326804 0.0119452765 0.04591461 -0.15538369 -0.2196764 -0.3824782 0.3002473
-0.06293586 0.08153196 -0.073066466 -0.009278023 0.23953581 0.24203624 -0.05889862 -0.0662628
0.01507448 -0.2418445 0.37556133 0.17912774 0.24459502 -0.12892728 0.18489045 0.34967822
0.05568223 -0.051992886 0.20205955 0.0037851867 0.08721197 0.05702789 0.014293881 0.104047254
0.11789566 0.16509941 0.2861985 0.13681893 0.2784735 0.2509421 0.15428905 -0.1881713
0.073405884 0.052866414 -0.012007056 0.24281979 -0.01863716 -0.09623586 0.117971204 -0.16114418
0.016291875 0.22436337 -0.09595882 -0.20995499 -0.075551 0.12379236 -0.27012834 0.015213482

bias f4 [16]
00000000: 2c3b 2c3e 4467 103d 1e3b 91bc 39f4 123e
00000010: 91f8 623e ec87 7f3d 82e7 83bd 1465 bc3d
00000020: 55c0 443d 48ce 6e3d 91c4 8f3d ecd6 333d
00000030: 9721 7f3e e117 b63d 5960 1bbd d1ad 6f3e
0.16819447 0.03525473 -0.017728385 0.14350976 0.22165133 0.062385485 -0.06440641 0.091989666
0.048034985 0.058302194 0.07019914 0.043906137 0.24915157 0.08891273 -0.03793368 0.2340615

weight f4 [1, 16]
00000000: a386 08be fe05 d23e d49c a7be a0a5 9ebe
00000010: 67ab a5be 68aa 903e 0cae a43e 210e 62be
00000020: c8ce a2be 3f16 3cbe 5eff bdbe 7356 c53e
00000030: 5d83 14be f474 95be f297 a43e 0f34 8c3e
-0.1333261 0.41020197 -0.32736838 -0.30985737 -0.32357332 0.2825501 0.32164037 -0.22075702
-0.31798387 -0.18367861 -0.37108892 0.38542518 -0.14503236 -0.2919079 0.32147175 0.27383468

weight f4 [16, 1]
00000000: db21 3b3f b136 433e cd48 fe3e ed40 89be
00000010: 0dd0 50bf fee4 8bbd 54c4 1a3f 50a9 203f
00000020: 056e 20bf 8269 423f 4ebb c4be a022 63bf
00000030: fe03 893f eaa3 0b3b 2859 80bf 2d07 54bf
0.73098534 0.19063832 0.49664918 -0.26807347 -0.8156746 -0.06830786 0.6045582 0.6275835
-0.62667876 0.7594224 -0.38424152 -0.8872471 1.0704343 0.0021307417 -1.0027208 -0.8282345

bias f4 [16]
00000000: 73e5 d9be 8014 7dbf b40b 38bf 7ca1 283e
00000010: 0d32 263f 6e7d 0d3f d817 513f ebf2 0d3f
00000020: 00a0 6d3e b90b 043f 039d 5b3d 5206 4c3f
00000030: f669 bb3d 14bf f4be aa92 8bbf ef95 96be
-0.42557868 -0.98859406 -0.7189286 0.16467851 0.6492012 0.55269516 0.8167701 0.5544879
0.23205566 0.5158039 0.053616535 0.79697144 0.0915107 -0.4780203 -1.0904133 -0.29411265

weight f4 [32, 16]
00000000: d8d8 003e 8173 f33d 8e02 063e b1ad a43c
00000010: 2fa0 453e 04ab 7bbe 4649 57bd 38d7 94bc
00000020: 4bda 453e 4dcf 143c 5e63 573e 5b22 e93d
00000030: 4987 0d3e abd0 bf3e c95f 133f 3d97 2c3e
00000040: 50f5 c7bd 3890 93bd b394 b03d f68a bd3d
00000050: 474d df3d 5708 4f3e 0ef9 aabc c723 513d
00000060: 7f58 053d 9c0c 82bd b098 9f3d ac3d 1b3e
00000070: 59be 90bd 3876 f23d 36dc 6cbe 4160 003d
00000080: a34c 59be cbc9 99be e7b0 5abe 6dd4 fcbc
00000090: ec99 1dbe 3a3e 44bd 16e9 c3b8 425e 8a3e
000000a0: eeda 8d3e ca0f d2bd 0b44 5a3c f30a 43be
000000b0: 2ab4 eb3d 9148 b6be 2673 92bd 928c 163e
000000c0: 6033 b23d a54a bd3b aeb6 853e d0c3 81be
000000d0: a34a d2bd f55b 023e f6aa 1cbd becb f0bd
000000e0: 2f91 4abd b045 983d 81f6 403e 849b 653e
000000f0: 6cc6 193e 5bb5 1bbe 7f6a 33bd ee85 cd3c
00000100: 8b11 fd3e 3900 493e edbd 8d3e d4a5 70be
00000110: 1134 2a3e 3eb1 29be d2d8 cf3d 7ec5 323e
00000120: 7a73 55be 348f 68bc 61e4 acbb c271 0f3e
00000130: fa75 4c3e 8c35 5e3d 2e7b 603d 7b75 21be
00000140: 78a4 8a3e b020 2bbe d71b 513d d51a 8dbe
00000150: 5397 6cbc 76da 25be b6f4 68bd fa47 abbd
00000160: 2f4c 2abe e990 903d fe33 d43d b56b 953d
00000170: 6dd4 cf3d 6a65 84be 5d08 f5bd 7523 073e
00000180: a074 463e 0310 a2bb 3bf9 18be a045 48be
00000190: c9bc f3bc f7b3 153e ab97 753e c26b 7a3d
000001a0: d9c6 5b3e 0e6c 8d3d 7343 bf3d b286 293e
000001b0: 1a9d 0abe 956e 60bd b924 353e 9541 1dbe
000001c0: a3bf 553e 8d44 91be 53b1 53be 35a9 7abe
000001d0: 2a61 80be 0277 803e 4df3 923d b54e 8c3e
000001e0: d7e7 d33c af5e 823e 1e80 41bd b194 e53c
000001f0: 9207 d13d 1cf9 b03c 30a9 87bb 2dd2 183c
00000200: 0227 a13d 61d9 18bd 2df9 8fbd 9cf6 523e
00000210: 2e2e c4bd 357d fabd 3f60 0b3d f454 87be
00000220: 0e84 1c3e 9f3d f9bb 73b0 4ebc cf1e 1ebe
00000230: 4a68 273e 7ea1 4d3e b895 983d d55c 13bc
00000240: e059 783d 1794 f3bc 68fe d33d 4cea e73d
00000250: 29b6 2bbe 6710 063d 71a5 c83c fefb eebd
00000260: 718a 48bd b11a 113e 9c3e 59be e5d5 99be
00000270: 4807 11be 395f e3bd cfcd 13be d164 b8bd
00000280: ef78 d5be 1c88 fa3c 3f67 92be 9779 683c
00000290: c8e8 c33d a0ac dc3d 7771 78be f74a a9be
000002a0: 4c40 8bbd 0d4f ccbe ba6d 21be d759 a53e
000002b0: a085 99be c440 c63d a0b5 8ebe 6fcc 4bbc
000002c0: 4a6a 72be d5bf 2ebe 1ee1 823d 7015 b4bd
000002d0: dc1e 92be 627c 053e ef57 33be 390e 493e
000002e0: c86e bebe 93ba dbbd 28bf 52be 6a4e 8bbe
000002f0: e011 1fbd caf8 473d a1a0 d93d 48dd 5fbe
00000300: c132 5dbe 0ca2 f63d 332d 58bb 8683 393d
00000310: d62d 2cbe f41b d4bd 4e6c 9fbe c80d 453c
00000320: cd49 983c 9f00 5ebe 11ca 183e 3742 aa3d
00000330: 7bc9 7ebe f7b4 b5bc 8362 ccbc 51a8 bbbd
00000340: ceb8 47bd 2a31 f23c 2acd aabe 7b0e 323e
00000350: ba07 1e3e 727d 37be 8d94 9bbe d036 acbe
00000360: c124 ddbd 50f0 a7be 42c3 163e c667 10bd
00000370: e428 a3be 1de0 29bd b240 dc3b d107 e03d
00000380: dce4 ecbe f213 9fbe c773 bc3c 7969 273e
00000390: 96fc f33c 667e a33e 8d9e b5be 229a 8bbe
000003a0: 4af7 833e d4a8 3fbe 1fd0 aebd 2dd8 c7bd
000003b0: e1c7 fdbe 5694 10bd 7821 aabd 4cd5 4e3d
000003c0: da58 543d ab2a 803e e8e6 773d a290 a8bd
000003d0: 4c7c 99bd a13d bcbc c560 91bd dbdd 0c3e
000003e0: d3d1 babe 1c7d 0ebe 130b 95be bedf eabd
000003f0: 3b26 1dbe 199d 59bc 2222 4ebe b4ce 84bd
0.1258272 0.11887265 0.13086912 0.020102354 0.19299386 -0.24576956 -0.052560113 -0.01816903
0.19321553 0.0090826275 0.21034 0.11383506 0.13821138 0.3746389 0.5756803 0.16854568
-0.097635865 -0.07205242 0.08622112 0.0925502 0.10903411 0.20218025 -0.020870712 0.05105951
0.0325551 -0.06350061 0.07792795 0.15160245 -0.07067556 0.11838955 -0.23130879 0.031341795
-0.21220641 -0.30036768 -0.21356545 -0.030863011 -0.15390748 -0.047910906 -9.34174e-05 0.27025038
0.27706093 -0.10256918 0.013321887 -0.19047146 0.11508973 -0.3560224 -0.07150869 0.14702061
0.08701205 0.0057767206 0.26115936 -0.25344706 -0.10268142 0.12730391 -0.03824898 -0.11757611
-0.049454864 0.07435167 0.18844034 0.22422606 0.15017098 -0.152059 -0.043802734 0.025088277
0.49427447 0.19628991 0.27683964 -0.23500758 0.16621424 -0.16571519 0.10148777 0.1745815
-0.20844832 -0.014194299 -0.0052762483 0.14008239 0.1996688 0.054250285 0.054804973 -0.15767471
0.27078605 -0.16711688 0.05105194 -0.27559534 -0.014440375 -0.16196617 -0.056874 -0.08363338
-0.16630624 0.070588894 0.10361479 0.07295934 0.10147939 -0.25858623 -0.11964486 0.1319712
0.19380426 -0.0049457564 -0.14938824 -0.1955781 -0.029753106 0.14619432 0.23983638 0.061137922
0.21462573 0.069053754 0.09339037 0.16555288 -0.13536492 -0.05479296 0.1768979 -0.15357049
0.20873885 -0.28372613 -0.20673113 -0.2447861 -0.2507413 0.25090796 0.07175312 0.274038
0.025867386 0.25462863 -0.047241323 0.028025003 0.10206522 0.02160316 -0.004140042 0.009327454
0.07868768 -0.037316684 -0.070299484 0.20601887 -0.095791206 -0.122309126 0.034027334 -0.26432002
0.1528475 -0.0076062228 -0.012615311 -0.1544144 0.16348377 0.20081136 0.074504316 -0.008994301
0.060632586 -0.0297337 0.103512585 0.113239855 -0.16768707 0.032730486 0.024492951 -0.116691574
-0.048960153 0.14170338 -0.2121529 -0.30046 -0.14162934 -0.11102147 -0.14433978 -0.09003604
-0.41693828 0.03058248 -0.28594396 0.0141891455 0.09565884 0.10775113 -0.24262033 -0.33065006
-0.06799373 -0.3990406 -0.15764514 0.32295105 -0.2998476 0.09680322 -0.27872944 -0.0124388775
-0.23673359 -0.17065366 0.06390594 -0.087931514 -0.2853917 0.1303573 -0.17514013 0.19634332
-0.37193894 -0.107289456 -0.20580733 -0.27208263 -0.038835406 0.048821248 0.10626341 -0.21861756
-0.21601392 0.12042627 -0.0032985925 0.045291446 -0.1681436 -0.10356894 -0.31137317 0.0120272115
0.018589878 -0.21679924 0.14920832 0.08313411 -0.24881546 -0.022181017 -0.024949318 -0.09162963
-0.048760228 0.029564459 -0.33359653 0.17388336 0.15432635 -0.17918947 -0.30386773 -0.3363557
-0.10798026 -0.3280053 0.14722922 -0.035255216 -0.31867135 -0.041473497 0.0067215795 0.10938991
-0.46268356 -0.31069905 0.023004426 0.16348828 0.029783528 0.31932372 -0.35472527 -0.27266032
0.25774604 -0.18716747 -0.0853579 -0.09758029 -0.49566558 -0.035297714 -0.08307165 0.050496385
0.051842548 0.25032553 0.060522944 -0.082307115 -0.07494411 -0.022978606 -0.070985354 0.13756506
-0.36488208 -0.13914913 -0.2911001 -0.11468457 -0.15346615 -0.013282084 -0.20130208 -0.06484738

bias f4 [32]
00000000: 1154 55be f08a da3d 3cc9 6c3e ebf7 903e
00000010: 883f 5b3e 2151 06be 8536 0ebe fe17 193e
00000020: 4d24 43be 1e95 f1bd 1ea6 8abd f0ef 83bc
00000030: ad64 f23d 8bb8 053e d7cb 223e 8240 0ebe
00000040: c068 b4bd e747 343e 2ba7 94bd e276 22bd
00000050: f634 febd cefc 23bd 8641 11be c3af 533e
00000060: 4fbd 77bd 3540 8abe 0667 28bc 458c 653e
00000070: f2a1 2abc c9ef 14be c4e3 51be 4b85 4c3d
-0.2083285 0.106710315 0.2312364 0.28314146 0.21410954 -0.13116886 -0.13887985 0.14950559
-0.19056816 -0.1179602 -0.067699656 -0.016105622 0.11835609 0.13058679 0.15898071 -0.13891795
-0.08809042 0.17605554 -0.07258447 -0.039664157 -0.12412445 -0.040036015 -0.14185151 0.20672517
-0.060483273 -0.2700211 -0.010278469 0.2241679 -0.010414587 -0.14544596 -0.20497042 0.049931806

weight f4 [2, 32]
00000000: 9b87 543e b6cc a4bd 972a 3f3d b837 ffbc
00000010: 16e1 2fbe 796f 473d 2123 3c3e 052a e03d
00000020: b62f 53bd 1c27 683e 0991 a5be da01 533e
00000030: 37e4 67be ef24 26be c10f ccbe fbad 253e
00000040: 7d35 0b3e 3cbe 2b3e a014 f0bb 6dfa 8dbd
00000050: 9667 49be ec65 57bd d9d0 24be 831e 7a3e
00000060: f820 45be 88ae 723e 0414 22be a0e2 02be
00000070: 9a9d 143e ac21 02be 477d 13be a38a 8e3e
00000080: 8b02 573e 4ddc 63bd 79ae 43be 29d1 19be
00000090: 644a 26bd e32a bbbd 31eb 9a3c ae03 a1bd
000000a0: b4bb 893d f596 aa3d 5eb7 11be a167 2d3e
000000b0: a09d b43d dbf9 e9bd 7d79 37be 0fe0 fd3d
000000c0: a51f 203d c221 0cbe 9451 fb3d 853d 523e
000000d0: 134f 883c af73 a13d ac44 d03d 663e a0bd
000000e0: 0fcb 703e 4220 893e e081 a7bc dc2a 50bd
000000f0: 39d7 4fbd d829 373e 45a7 acbd 7855 f83c
0.20754854 -0.08046858 0.046671476 -0.031154498 -0.17175707 0.048690293 0.18372776 0.109455146
-0.051559173 0.22671169 -0.32337216 0.20606175 -0.22645651 -0.16225027 -0.3985577 0.1617965
0.13594623 0.16771787 -0.0073266774 -0.069325306 -0.19668421 -0.052587435 -0.16095294 0.24425702
-0.19250858 0.23699391 -0.15827948 -0.12781763 0.14513245 -0.12708157 -0.14403258 0.27840146
0.20997064 -0.055630017 -0.19109525 -0.15021195 -0.04059829 -0.09139039 0.018910976 -0.0786203
0.06725255 0.08329574 -0.14230105 0.16934063 0.08819127 -0.11424609 -0.17917438 0.123962514
0.03909268 -0.13684753 0.12271419 0.2053128 0.016639268 0.07883393 0.10169348 -0.078244016
0.2351496 0.26782423 -0.020447671 -0.050822124 -0.05074236 0.17887056 -0.08430342 0.030314192

bias f4 [2]
00000000: 51dc 06be a070 433d
-0.13169982 0.04771483
