docs/notebooks/paper_experiments/results/multitask/decoder_stats/model_multitask_7.pt (torch, 30943 bytes, 13 tensors)

mean f4 [2]
0.031624533 0.6879169
00000000: ba88 013d 521b 303f

range f4 [2]
0.71266115 0.57853127
00000000: f670 363f a01a 143f

weight f4 [32, 2]
0.29153007 -0.47989738 -0.12406712 0.28957963 -0.039249536 0.46340197 0.5021737 -0.7976918
-0.15867051 0.28564146 -0.04414788 0.3094358 -0.07020875 0.16607365 -0.3613837 0.57241136
0.5994157 -0.29345667 -0.13290012 0.158152 0.15839402 0.5910757 0.09553646 -0.4496459
0.09241664 -0.7635157 0.8870837 -0.13952394 -0.030525047 -0.49822786 -0.15558168 0.43050918
-0.012815133 -0.866249 0.7067262 -0.37958986 -0.7343033 0.41388923 -0.09162641 0.39434725
0.38548848 -0.63592875 -0.72362226 0.6223349 -0.005302059 -0.76674026 0.34997687 -0.89968014
0.057430495 0.8161874 -0.79386103 0.113553815 0.05866445 -0.594803 -0.23572718 0.43187603
-0.40221247 0.080798395 -0.37437832 0.5716295 0.8555136 -0.41112393 0.31922126 -0.7807485
00000000: 6e43 953e 1cb5 f5be e716 febd c843 943e
00000010: 1fc4 20bd 0643 ed3e 758e 003f 8835 4cbf
00000020: 867a 22be 993f 923e 68d4 34bd 5f6e 9e3e
00000030: 9bc9 8fbd 360f 2a3e 4907 b9be 8d89 123f
00000040: 4f73 193f f43f 96be f816 08be 99f2 213e
00000050: 0b32 223e bd50 173f 9fa8 c33d fd37 e6be
00000060: ef44 bd3d c475 43bf eb17 633f 5ddf 0ebe
00000070: aa0f fabc b917 ffbe ce50 1fbe b36b dc3e
00000080: 90f6 51bc 7fc2 5dbf 02ec 343f 9a59 c2be
00000090: 4dfb 3bbf 4ae9 d33e a1a6 bbbd e2e7 c93e
000000a0: bf5e c53e 3acc 22bf 4f3f 39bf 5751 1f3f
000000b0: e5bc adbb 1749 44bf 2b30 b33e 7051 66bf
000000c0: 3d3c 6b3d a8f1 503f 7a3a 4bbf e78e e83d
000000d0: 224a 703d 0245 18bf 7762 71be db1e dd3e
000000e0: cbee cdbe a179 a53d 84ae bfbe 5056 123f
000000f0: f002 5b3f d67e d2be f870 a33e 22df 47bf

bias f4 [32]
0.25911075 -0.20558573 -0.26269585 0.4773201 -0.1415786 -0.2859538 0.48243785 0.23486736
0.07935714 0.46691343 0.15744603 0.0054425453 0.36037397 0.21682222 0.37664175 -0.22704634
0.63943547 0.49776638 0.42664903 0.15738827 -0.7731087 0.26399478 0.5775911 -0.53201944
0.77396744 -0.29403207 -0.4260091 0.09724379 0.8795536 0.7628482 -0.16437013 0.40734118
00000000: 2aaa 843e 1185 52be 1280 86be 4d63 f43e
00000010: fbf9 10be 8968 92be 1802 f73e 1281 703e
00000020: ff85 a23d 470f ef3e 8839 213e 6157 b23b
00000030: f082 b83e a506 5e3e 30d7 c03e d67e 68be
00000040: 0bb2 233f 3cdb fe3e be71 da3e 642a 213e
00000050: 74ea 45bf 532a 873e 03dd 133f 6d32 08bf
00000060: bb22 463f 5f8b 96be dd1d dabe c127 c73d
00000070: 6d2a 613f 054a 433f a550 28be 068f d03e

weight f4 [16, 32]
0.046406884 -0.19034778 -0.06424326 0.12846027 -0.25552598 -0.074086234 -0.13773173 -0.08768747
0.14538679 -0.10316344 -0.07584572 0.18152545 -0.011564921 -0.042656068 0.28722945 -0.030942082
0.13411844 0.041249525 -0.16789791 -0.28812668 0.034119587 0.017153807 0.19338287 0.22927848
-0.0047611925 -0.06728586 0.32816058 -0.22718683 -0.051555026 -0.036036156 0.28922036 0.16752799
0.044864643 0.10735688 0.21378553 -0.053075563 0.13345593 0.2280992 0.17336 0.008796139
-0.16796069 0.22682977 0.27132148 0.057606325 -0.19807097 0.41618755 -0.15356487 0.22690828
-0.123581864 -0.146066 0.16452985 -0.009337654 -0.11883265 0.13148473 -0.11390286 0.054650318
0.20334928 0.18233688 -0.0869213 0.24718457 0.2786445 0.25221995 0.082444325 -0.16482525
-0.17882591 -0.086059585 0.094832964 -0.17065726 -0.05954932 0.18024841 0.28816974 0.15987271
0.03281675 0.0037685921 0.042859793 -0.17254657 0.0638676 0.3028306 -0.13156632 0.1049312
-0.12096617 0.0536238 0.2277392 -0.023267329 -0.17677364 0.01804261 -0.26760468 -0.1598849
0.22139317 0.32400557 -0.23207814 0.01242605 0.32132918 0.019565219 0.038987238 -0.20252958
0.18012561 -0.09269548 -0.009166 0.25046423 -0.28667596 -0.17969655 -0.41773292 -0.17197877
0.08766656 -0.23382513 -0.2532242 0.1870468 0.034704354 0.047422964 0.14964648 0.010948993
0.05549562 0.1101174 -0.17199047 0.019230178 -0.0067225653 -0.00035375584 0.0032858294 0.17966063
-0.010423787 -0.006312514 0.090231396 -0.293291 -0.026207067 -0.025702225 0.21358243 0.14580853
-0.053644646 0.24626814 0.019241704 -0.16412623 0.077017926 0.26624843 0.11778577 0.19115348
-0.07635486 0.178559 -0.024130333 -0.017867856 -0.021998396 0.4722434 -0.12632182 0.105828315
-0.08292554 0.018036494 0.3367207 0.021180568 -0.19297461 0.21346207 -0.04808731 -0.3128461
0.22915351 0.40382716 -0.13356863 0.33222526 0.030722722 0.16697446 -0.18302988 -0.24003562
0.0043066107 0.1016641 -0.20774542 0.20496707 -0.07126649 -0.19997777 -0.35817787 -0.14694345
0.06698612 -0.28669497 -0.04279337 0.25500873 0.16360384 0.025570467 0.01740912 -0.1342651
0.1693518 0.21368282 -0.00159562 0.0640176 0.29166034 -0.110471636 0.24121857 0.09870972
-0.1260494 0.010829691 0.34221882 -0.040532053 -0.2900904 -0.24331512 0.19986504 0.20793098
0.1263235 -0.15057437 -0.06073951 0.02963496 -0.07520423 -0.09686053 -0.113521956 -0.17569695
0.18945612 -0.08278008 -0.2558318 0.12576121 0.028830064 0.1401078 0.26532757 -0.17681105
0.04864593 0.0034871905 0.07373051 -0.28319177 0.15992726 -0.21159348 0.2510678 0.29316837
-0.3179068 -0.18237044 0.2650961 0.05024093 -0.11823349 -0.11525867 0.21556526 0.30229476
-0.2503269 0.08893044 0.013334938 -0.18262546 0.23645635 -0.06428347 0.019854402 0.09569024
-0.0026542821 0.22971879 -0.020447355 -0.22893104 -0.018156001 0.31881106 -0.09147331 0.18878758
-0.06617442 0.09316786 0.09215299 0.1433279 -0.08717765 0.03428676 -0.024755044 -0.20724958
0.23375235 0.07794892 -0.077480786 0.051348247 0.21627203 0.2142911 0.00087660225 -0.17182127
00000000: 2515 3e3d 87ea 42be f891 83bd 178b 033e
00000010: 4dd4 82be 86ba 97bd 8c09 0dbe 7d95 b3bd
00000020: 46e0 143e 5b47 d3bd 0055 9bbd cfe1 393e
00000030: cb7a 3dbc 21b8 2ebd bd0f 933e 407a fdbc
00000040: 5856 093e 43f5 283d 6eed 2bbe 5785 93be
00000050: fbc0 0b3d 2486 8c3c 2906 463e fac7 6a3e
00000060: c703 9cbb 2bcd 89bd aa04 a83e aaa3 68be
00000070: 5d2b 53bd a69a 13bd b114 943e 758c 2b3e
00000080: fdc3 373d eddd db3d 98ea 5a3e c365 59bd
00000090: aca8 083e d692 693e 4985 313e ae1d 103c
000000a0: e3fd 2bbe 1046 683e a6ea 8a3e 9cf4 6b3d
000000b0: 1ed3 4abe 8916 d53e 1c40 1dbe a55a 683e
000000c0: 7d18 fdbd 5392 15be 837a 283e f6fc 18bc
000000d0: 885e f3bd efa3 063e e745 e9bd 03d9 5f3d
000000e0: cb3a 503e 85b6 3a3e cb03 b2bd f41d 7d3e
000000f0: 7eaa 8e3e f922 813e 92d8 a83d f3c7 28be
00000100: 241e 37be 0240 b0bd c937 c23d c7c0 2ebe
00000110: fde9 73bd 0a93 383e fc8a 933e acb5 233e
00000120: db6a 063d 7cfa 763b c08d 2f3d 0cb0 30be
00000130: 04cd 823d 9d0c 9b3e 52b9 06be 2be6 d63d
00000140: 1dbd f7bd a1a4 5b3d 7734 693e 209b bebc
00000150: 2604 35be 18ce 933c 7b03 89be deb8 23be
00000160: e4b4 623e 0fe4 a53e e4a5 6dbe a296 4b3c
00000170: 4285 a43e 3d47 a03c 15b1 1f3d ea63 4fbe
00000180: d972 383e 21d7 bdbd fe2c 16bc d93c 803e
00000190: 31c7 92be 5f02 38be 17e1 d5be 341b 30be
000001a0: 878a b33d db6f 6fbe 9aa6 81be 3289 3f3e
000001b0: 2726 0e3d 953e 423d ed3c 193e 6863 333c
000001c0: 604f 633d 3b85 e13d 451e 30be 9b88 9d3c
000001d0: f748 dcbb 4e78 b9b9 1257 573b f5f8 373e
000001e0: 88c8 2abc 35d9 cebb 3dcb b83d 3d2a 96be
000001f0: 34b0 d6bc 798d d2bc 5ab5 5a3e d54e 153e
00000200: 7dba 5bbd b72d 7c3e c7a0 9d3c b510 28be
00000210: 93bb 9d3d b751 883e aa39 f13d bdbd 433e
00000220: f05f 9cbd 2cd8 363e faac c5bc 9c5f 92bc
00000230: fb35 b4bc e3c9 f13e 825a 01be 84bc d83d
00000240: ded4 a9bd 45c1 933c a866 ac3e df82 ad3c
00000250: 239b 45be cd95 5a3e 33f7 44bd 5d2d a0be
00000260: 38a7 6a3e 6fc2 ce3e 37c6 08be 6e19 aa3e
00000270: 38ae fb3c 5afb 2a3e 2f6c 3bbe e6cb 75be
00000280: 781e 8d3b 4535 d03d 37bb 54be e3e2 513e
00000290: 2af4 91bd f9c6 4cbe 1763 b7be 5878 16be
000002a0: 0530 893d afc9 92be 1a48 2fbd 8190 823e
000002b0: c487 273e 2879 d13c 929d 8e3c ca7c 09be
000002c0: 8f6a 2d3e abcf 5a3e 1f24 d1ba a91b 833d
000002d0: 8154 953e f43e e2bd 0002 773e 5228 ca3d
000002e0: 1813 01be 046f 313c 4e37 af3e f004 26bd
000002f0: bb86 94be 9927 79be 6ca9 4c3e dceb 543e
00000300: f35a 013e 2b30 1abe fec9 78bd 04c5 f23c
00000310: ad04 9abd d05e c6bd 337e e8bd e7e9 33be
00000320: c900 423e 9a88 a9bd 63fc 82be 8cc7 003e
00000330: 072d ec3c 6b78 0f3e 04d9 873e f50d 35be
00000340: f440 473d 5989 643b 0600 973d 83fe 90be
00000350: f9c3 233e f6ab 58be f58b 803e 2a1a 963e
00000360: aec4 a2be 51bf 3abe adba 873e 6fc9 4d3d
00000370: 6624 f2bd bd0c ecbd 24bd 5c3e 61c6 9a3e
00000380: d92a 80be 2a21 b63d c97a 5a3c 2b02 3bbe
00000390: 9d21 723e 0da7 83bd b3a5 a23c 3ff9 c33d
000003a0: 77f3 2dbb 673b 6b3e 3681 a7bc e66c 6abe
000003b0: e5bb 94bc 343b a33e 5c56 bbbd 8851 413e
000003c0: 7486 87bd cace be3d b5ba bc3d 8dc4 123e
000003d0: 328a b2bd 4670 0c3d 17cb cabc 3c39 54be
000003e0: c75c 6f3e afa3 9f3d 3fae 9ebd 8a52 523d
000003f0: 6a76 5d3e 206f 5b3e c8cb 653a eaf1 2fbe

bias f4 [16]
0.16074155 0.14345816 0.33694988 -0.19386335 0.13362022 -0.039562374 0.12399645 0.18671268
0.09695174 0.27863437 -0.0038039752 -0.18997471 0.27406383 0.167352 -0.08611805 -0.1042403
00000000: 6f99 243e b2e6 123e b284 ac3e 1d84 46be
00000010: bdd3 083e 280c 22bd daf1 fd3d 9c31 3f3e
00000020: a28e c63d 2aa9 8e3e 1d4c 79bb bb88 42be
00000030: 1852 8c3e 535e 2b3e a95e b0bd f07b d5bd

weight f4 [1, 16]
0.35599986 -0.39554787 -0.2463981 0.27640343 -0.15329897 0.118363045 0.22566268 -0.3109026
0.24027517 -0.3855837 -0.3577438 0.19923434 -0.21879803 0.32478598 0.33885828 0.22833037
00000000: 9d45 b63e 4085 cabe c94f 7cbe c084 8d3e
00000010: 68fa 1cbe 5368 f23d 1e14 673e a02e 9fbe
00000020: b20a 763e 3a6b c5be 322a b7be 1604 4c3e
00000030: 970c 60be 594a a63e d57e ad3e 70cf 693e

weight f4 [16, 1]
0.40673056 0.34261692 1.0262041 -0.49348265 -0.54470617 -0.67076117 -0.15655613 0.48029253
-0.8938163 -0.92399985 -0.29960772 -0.05200572 0.4615794 -0.99118614 0.19373183 -0.44418597
00000000: fd3e d03e 7c6b af3e a85a 833f c2a9 fcbe
00000010: dd71 0bbf 01b7 2bbf 4050 20be e7e8 f53e
00000020: 25d1 64bf 418b 6cbf 2f66 99be f303 55bd
00000030: 2354 ec3e 60be 7dbf a361 463e 586c e3be

bias f4 [16]
1.018233 1.0184275 1.1179236 0.43418887 -0.5067608 0.023091031 0.348918 -0.06825921
-1.3155007 0.839231 -0.74277735 0.07457983 -0.26469693 -0.40946764 -0.17483996 0.7244398
00000000: 7555 823f d55b 823f 1f18 8f3f 014e de3e
00000010: 13bb 01bf 6729 bd3c 61a5 b23e 7ccb 8bbd
00000020: 5462 a8bf d8d7 563f a826 3ebf 4fbd 983d
00000030: 5b86 87be bea5 d1be 3f09 33be e374 393f

weight f4 [32, 16]
0.007056946 0.13803998 0.06535665 -0.107992135 -0.076548025 0.022755768 -0.02414105 0.028923187
-0.20636517 -0.3227863 -0.27208897 -0.004332843 -0.0029671292 -0.31869808 -0.23556837 0.1942447
-0.14791419 -0.28412485 -0.05863407 0.085987896 -0.06744727 -0.04709244 -0.1703931 -0.28966066
-0.084142186 0.27172682 0.15960293 -0.066664055 0.069878384 -0.16026148 0.09028748 -0.12992562
-0.19103914 -0.2909044 -0.12119896 0.05778589 -0.11592324 -0.050388865 0.01958863 -0.08015435
0.0036578737 0.12602171 0.12100058 -0.08748313 -0.32540244 -0.16519275 -0.053330515 0.11505726
0.066867374 0.069920056 0.04705442 0.0123983715 -0.23401973 -0.06381866 -0.20928305 0.036191475
-0.35965872 -0.2664663 0.1258976 0.20423126 -0.11383245 -0.26686707 -0.0074186237 0.13889825
0.09722563 0.24603966 0.22248942 -0.2739277 -0.1112451 -0.16179663 -0.2271667 0.24136786
0.13952732 0.18305254 -0.042789 -0.08847781 0.16346692 -0.1412365 0.16924097 -0.2191831
0.18243101 0.14857729 0.11684524 0.04551423 -0.09770632 -0.28987715 -0.08142331 -0.16225867
-0.14325638 -0.07094285 0.10192305 -0.0692548 -0.12646003 -0.33627883 -0.21898066 -0.13544488
-0.06289773 0.030836457 -0.05334216 0.1209091 -0.11468266 0.08167506 0.019939343 -0.2080392
-0.305646 -0.14626998 -0.19724707 -0.13921331 0.16704214 -0.28774953 0.25568587 -0.3021163
-0.24106772 0.08865913 -0.25837183 0.1226755 0.030600918 0.14859006 -0.21815875 0.11810487
0.08443398 0.032108005 0.1832913 0.03273804 0.088054635 0.13323991 0.13052657 -0.14779013
-0.046350025 0.07514396 -0.081258126 -0.1739336 -0.109251335 -0.28139552 -0.28060275 -0.15163784
-0.2105767 0.14301148 -0.23111823 -0.09575918 0.24818015 -0.15801407 0.17536208 -0.19587468
-0.20527771 0.10109413 -0.18331663 -0.023858456 -0.17082702 -0.09715416 -0.030883465 -0.23683947
-0.037242148 0.24639665 -0.036787886 0.03926592 -0.05658262 0.11105856 -0.11028345 0.057098716
-0.229639 0.107253306 -0.10495793 0.2113991 -0.039913476 0.30712825 0.19807746 0.119579084
-0.24618588 0.040332068 -0.23465791 0.22743379 -0.29449415 -0.13727142 -0.018277703 -0.045416564
-0.10569002 -0.21626431 -0.07735376 0.16832545 0.11144761 0.4083782 0.18094191 -0.06185934
0.5542342 0.14735301 0.2821346 -0.17578194 0.062018137 -0.038418517 0.07202584 0.20511107
-0.1387356 0.1079575 0.15871282 0.08984592 -0.24810022 -0.17099752 -0.06410408 -0.12651497
0.13442832 -0.2498447 -0.2421554 -0.064019516 0.24839419 -0.123961225 0.23132414 0.02462504
-0.030818516 0.05485561 -0.37756005 0.25839558 0.09255589 -0.14979263 0.18515746 -0.37159315
-0.23747115 0.17194794 0.01322635 0.015165668 -0.037172288 -0.121542625 -0.10087649 0.16725299
-0.23627554 -0.28367817 -0.11799952 -0.16985531 -0.07776514 0.04748548 0.048178192 -0.25397277
-0.16882636 -0.121849634 0.03708668 -0.14256945 -0.15705325 0.073327675 0.1762887 0.24440785
-0.12976277 -0.25308895 -0.16989453 0.057409693 0.056604825 -0.15012895 -0.06759495 -0.23525025
0.25513986 -0.04525242 -0.20252337 0.20771886 -0.27124706 -0.17749882 0.04832328 0.04494392
00000000: f43d e73b 5a5a 0d3e b5d9 853d fb2a ddbd
00000010: 36c5 9cbd 4e6a ba3c 74c3 c5bc 52f0 ec3c
00000020: 6451 53be 3f44 a5be 3f4f 8bbe 85fa 8dbb
00000030: 2b74 42bb 652c a3be d638 71be 15e8 463e
00000040: d176 17be d078 91be 472a 70bd 6c1a b03d
00000050: cb21 8abd 01e4 40bd 877b 2ebe 674e 94be
00000060: bd52 acbd c71f 8b3e f36e 233e 2a87 88bd
00000070: 661c 8f3d 961b 24be a4e8 b83d 390b 05be
00000080: c49f 43be 6cf1 94be 2937 f8bd e6b0 6c3d
00000090: 2a69 edbd 8e64 4ebd 5678 a03c f727 a4bd
000000a0: f0b8 6f3b d60b 013e 27cf f73d 5b2a b3bd
000000b0: 269b a6be 4a28 29be 1971 5abd 24a3 eb3d
000000c0: c3f1 883d 3f32 8f3d 23bc 403d 8a22 4b3c
000000d0: dea2 6fbe 5cb3 82bd 4c4e 56be 833d 143d
000000e0: 3025 b8be 456e 88be 4deb 003e 0022 513e
000000f0: fd20 e9bd cda2 88be ed17 f3bb 583b 0e3e
00000100: 3b1e c73d d2f1 7b3e 44d4 633e 4040 8cbe
00000110: 79d4 e3bd 04ae 25be 639e 68be 2329 773e
00000120: 40e0 0e3e 2072 3b3e 8543 2fbd db33 b5bd
00000130: df63 273e 4da0 10be 814d 2d3e 8971 60be
00000140: 32cf 3a3e a524 183e 8f4c ef3d 216d 3a3d
00000150: 401a c8bd c76a 94be 44c1 a6bd 2327 26be
00000160: cdb1 12be 7c4a 91bd 08bd d03d 76d5 8dbd
00000170: bd7e 01be bd2c acbe 773c 60be 10b2 0abe
00000180: 86d0 80bd bd9c fc3c 4f7d 5abd 319f f73d
00000190: bede eabd 4145 a73d d557 a33c 3a08 55be
000001a0: a27d 9cbe ccc7 15be 23fb 49be ef8d 0ebe
000001b0: 180d 2b3e e853 93be 42e9 823e fdae 9abe
000001c0: 75da 76be eb92 b53d 5049 84be 4b3d fb3d
000001d0: c7ae fa3c fe27 183e 0265 5fbe f7e0 f13d
000001e0: b9eb ac3d af83 033d b7b0 3b3e 5318 063d
000001f0: fd55 b43d 0b70 083e c2a8 053e 4c56 17be
00000200: 86d9 3dbd 14e5 993d a96a a6bd a61b 32be
00000210: 2abf dfbd 1313 90be 2aab 8fbe f346 1bbe
00000220: 6ba1 57be 9a71 123e 42aa 6cbe 641d c4bd
00000230: f022 7e3e 71ce 21be 1e92 333e 5f93 48be
00000240: 5234 52be 700a cf3d 5bb7 3bbe cf72 c3bc
00000250: 47ed 2ebe c3f8 c6bd 52ff fcbc 0c86 72be
00000260: 398b 18bd 674f 7c3e e5ae 16bd 4dd5 203d
00000270: 2dc3 67bd ac72 e33d 4adc e1bd 58e0 693d
00000280: 7c26 6bbe 9fa7 db3d 2ff4 d6bd 0179 583e
00000290: 507c 23bd ea3f 9d3e d1d4 4a3e e1e5 f43d
000002a0: 2718 7cbe 3d33 253d 2a4a 70be 67e4 683e
000002b0: f0c7 96be e190 0cbe 1fbb 95bc b806 3abd
000002c0: 0274 d8bd 6474 5dbe a66b 9ebd 825d 2c3e
000002d0: a53e e43d f316 d13e d648 393e 3860 7dbd
000002e0: 4be2 0d3f b5e3 163e f273 903e 2e00 34be
000002f0: bb06 7e3d bc5c 1dbd 4982 933d a308 523e
00000300: b510 0ebe d218 dd3d 9d85 223e 2301 b83d
00000310: fc0d 7ebe f919 2fbe 0049 83bd 248d 01be
00000320: 94a7 093e 4ad7 7fbe 96f7 77be aa1c 83bd
00000330: 0c5b 7e3e 62df fdbd 3ce0 6c3e 74ba c93c
00000340: 1d77 fcbc 47b0 603d 8d4f c1be 6d4c 843e
00000350: f18d bd3d 3d63 19be eb99 3d3e 7541 bebe
00000360: a32b 73be 1f13 303e 55b3 583c 6c79 783c
00000370: f841 18bd 57eb f8bd 5598 cebd 5e44 2b3e
00000380: 37f2 71be 443e 91be bba9 f1bd 8dee 2dbe
00000390: 5443 9fbd 2280 423d 7f56 453d b808 82be
000003a0: d1e0 2cbe 4d8c f9bd 34e8 173d bafd 11be
000003b0: 91d2 20be d22c 963d 0685 343e 0d46 7a3e
000003c0: 88e0 04be e094 81be d5f8 2dbe 6d26 6b3d
000003d0: 76da 673d 67bb 19be 396f 8abd 71e5 70be
000003e0: b1a1 823e 9a5a 39bd 4962 4fbe 41b4 543e
000003f0: e5e0 8abe 40c2 35be a2ee 453d 1e17 383d

bias f4 [32]
0.05973662 0.015781749 0.23457639 -0.02377101 0.2348952 -0.122317456 -0.08870718 0.1428589
-0.05606757 0.058926724 -0.23993923 -0.33334813 0.12456955 0.14489557 0.08805677 0.15062577
0.13217135 0.18607299 0.21380077 0.09528934 0.15540554 -0.19275086 0.19010225 -0.002761047
-0.06587058 -0.12870494 -0.0296359 -0.23801994 -0.10635287 0.16273905 -0.15511866 0.24128504
00000000: 63ae 743d ba48 813c cb34 703e 6cbb c2bc
00000010: 5e88 703e 9381 fabd 1cac b5bd 9a49 123e
00000020: 1ca7 65bd 265d 713d a1b2 75be 9bac aabe
00000030: 521e ff3d 815f 143e 1c57 b43d a43d 1a3e
00000040: ed57 073e eb89 3e3e 97ee 5a3e 0f27 c33d
00000050: a122 1f3e 7b60 45be 2aaa 423e aff2 34bb
00000060: 28e7 86bd 3acb 03be fdc6 f2bc 80bb 73be
00000070: 89cf d9bd 11a5 263e 6dd7 1ebe 6d13 773e

weight f4 [2, 32]
0.22333811 -0.09930349 -0.18177846 0.19204256 0.023077087 0.08207834 0.098635495 -0.06825445
0.24368824 -0.13580471 -0.10254156 0.08368287 0.09245054 -0.12386747 -0.16948925 -0.10385032
-0.02707078 0.25129077 -0.024284832 -0.13221732 0.13899396 -0.18553866 -0.34376556 0.06434418
-0.052107487 0.109103896 0.14947039 0.42805764 0.065686926 -0.10992049 0.014540661 -0.29553604
0.10227975 0.12748764 0.026704578 0.018628981 -0.12705863 0.000569607 -0.015914075 0.11574048
-0.14006603 0.0080459 -0.08529774 0.16345946 -0.17245722 -0.12828411 0.14335953 0.15022352
0.06509525 -0.0017728225 0.00031823356 -0.18251666 -0.0137901455 0.09257204 -0.34997433 -0.17233114
-0.021040918 -0.13748816 -0.12400725 0.3299905 -0.11780476 0.060777858 0.22317524 -0.3187811
00000000: bfb2 643e a15f cbbd 2224 3abe cea6 443e
00000010: 290c bd3c b018 a83d 6801 ca3d fdc8 8bbd
00000020: 6989 793e 6410 0bbe 4f01 d2bd ed61 ab3d
00000030: b556 bd3d 3aae fdbd 978e 2dbe 7aaf d4bd
00000040: 8ac3 ddbc 2fa9 803e fcf0 c6bc fa63 07be
00000050: 6f54 0e3e d9fd 3dbe 0a02 b0be e2c6 833d
00000060: a96e 55bd dd71 df3d c40e 193e 5f2a db3e
00000070: de86 863d fe1d e1bd f43b 6e3c 8050 97be
00000080: 0c78 d13d 1f8c 023e 8fc3 da3c ce9b 983c
00000090: a81b 02be ae51 153a 3c5e 82bc 5809 ed3d
000000a0: 786d 0fbe f3d2 033c 95b0 aebd eb61 273e
000000b0: a098 30be e95c 03be d7cc 123e 32d4 193e
000000c0: a950 853d 0d5e e8ba 96d8 a639 a6e5 3abe
000000d0: 10f0 61bc 6996 bd3d d62f b3be 9377 30be
000000e0: 015e acbc b2c9 0cbe 83f7 fdbd 84f4 a83e
000000f0: 9f43 f1bd 34f2 783d 0d88 643e 4737 a3be

bias f4 [2]
-0.04356912 -0.095793635
00000000: 8975 32bd 742f c4bd
