docs/notebooks/paper_experiments/results/multitask/decoder_stats/model_multitask_5.pt (torch, 30943 bytes, 13 tensors)

mean f4 [2]
0.031624533 0.6879169
00000000: ba88 013d 521b 303f

range f4 [2]
0.71266115 0.57853127
00000000: f670 363f a01a 143f

weight f4 [32, 2]
0.40298098 -0.13916881 0.13760953 0.39897704 0.06485263 -0.23140638 0.39382645 0.7140343
0.36012134 -0.32490185 -0.60530347 0.60783815 0.661146 -0.091199 -0.7292664 -0.80441326
-0.5259282 0.3791549 0.062020916 0.74480104 0.8666287 -0.81692886 -0.11348526 0.6492147
-0.017571677 -0.535118 -0.5674767 0.82516736 0.2395279 -0.049211502 -0.7151235 -0.08737543
0.031948496 0.6200551 0.7557199 -0.84754175 -0.3810302 0.37439308 -0.37281916 0.5472046
-0.0859336 0.48503456 0.61971974 -0.46456406 0.17693508 -0.8255119 0.35918495 -0.8442207
0.32497606 -0.42247137 0.7929188 0.060878765 -0.77763605 0.5174603 0.3095526 -0.42537042
-0.5891401 0.64573854 0.32371858 0.8099205 -0.8196237 0.7286936 0.56804186 -0.77840614
00000000: 8653 ce3e 4582 0ebe 83e9 0c3e b846 cc3e
00000010: 75d1 843d cbf5 6cbe 9fa3 c93e f4ca 363f
00000020: d361 b83e 8959 a6be 2bf5 1abf 489b 1b3f
00000030: dd40 293f 8bc6 babd 34b1 3abf 07ee 4dbf
00000040: 3ba3 06bf 9720 c23e a509 7e3d 48ab 3e3f
00000050: 61db 5d3f 4022 51bf f66a e8bd ef32 263f
00000060: 7af2 8fbc 7efd 08bf 2746 11bf 2b3e 533f
00000070: cd46 753e 0092 49bd 5512 37bf e4f1 b2bd
00000080: 6ddc 023d eebb 1e3f dc76 413f 7ff8 58bf
00000090: 6416 c3be 73b0 bf3e 27e2 bebe 9a15 0c3f
000000a0: f5fd afbd 7356 f83e f4a5 1e3f 57db edbe
000000b0: 782e 353e bf54 53bf 17e7 b73e d91e 58bf
000000c0: 4363 a63e 2b4e d8be bafc 4a3f 035c 793d
000000d0: 2813 47bf 4778 043f ae7d 9e3e 27ca d9be
000000e0: e3d1 16bf 1f4f 253f 71be a53e f356 4f3f
000000f0: dcd2 51bf aa8b 3a3f 316b 113f a045 47bf

bias f4 [32]
0.37953517 0.9046404 0.08890867 -0.24518694 -0.16037902 0.081204794 0.18127222 0.17030428
0.3289025 -0.122872554 -0.4706687 0.5576992 -0.26598662 0.7915457 0.051824715 -0.048104852
0.29380038 -0.004307606 -0.24633949 0.6084381 -0.43352583 -0.039373722 0.49709204 0.5235946
-0.29842457 0.4205728 -0.35053036 0.67109704 0.3070847 0.097056344 -0.11930122 0.031668574
00000000: 6f52 c23e 8396 673f c015 b63d 4912 7bbe
00000010: 663a 24be b34e a63d 6d9f 393e 3f64 2e3e
00000020: e965 a83e 9ba4 fbbd 7dfb f0be 60c5 0e3f
00000030: 662f 88be bda2 4a3f 2746 543d 9809 45bd
00000040: 016d 963e d126 8dbb 6b40 7cbe 99c2 1b3f
00000050: 19f7 ddbe 5746 21bd d982 fe3e 4c0a 063f
00000060: 1bcb 98be 5155 d73e b778 b3be 04cd 2b3f
00000070: 353a 9d3e 7ac5 c63d 3354 f4bd e8b6 013d

weight f4 [16, 32]
0.08660723 0.24162903 -0.15110092 0.17850527 0.031245641 0.27742708 -0.02747203 -0.10614167
0.19199237 0.10104953 -0.13301797 0.20383485 -0.019485435 0.048616618 -0.115042396 0.14120579
0.052240875 -0.13296776 0.04143346 0.047225643 0.015013888 -0.16601726 -0.25048345 -0.023512742
-0.09626361 -0.11445398 0.117372505 0.102561094 0.16856846 -0.05800781 0.25633872 0.066076286
-0.123742 0.011877204 0.0049782577 0.15513067 0.08361394 -0.066254266 -0.065334916 -0.17626669
0.01764629 0.0016465808 -0.14888951 0.1268599 -0.30241975 0.18451965 0.021486016 0.18463185
0.13434562 -0.21032166 0.10876056 -0.03678423 -0.034295972 -0.050381538 -0.110875115 -0.1508993
-0.10944272 -0.12186926 -0.03845441 0.12477965 0.05231332 -0.10585557 0.10808394 0.10149819
0.04925252 0.29018253 -0.07262119 0.11584219 -0.09156149 0.018185744 0.022678055 -0.07335213
0.18410325 0.16892555 -0.14685756 0.011114285 -0.24913655 0.1390491 -0.0032103318 0.07713117
0.02915928 -0.21018976 0.17222823 0.18266448 0.21031824 0.021550633 0.04598756 -0.22810736
-0.08320884 -0.14040937 0.20695308 -0.042324122 0.04884435 7.6610944e-05 0.18086116 0.05614431
-0.17987081 0.123774014 -0.16326238 -0.069876805 0.057213582 0.0047532874 -0.024163527 -0.29796517
0.0019015684 -0.11594028 0.059608262 0.15536277 -0.033882078 0.18027018 0.120799266 0.2127334
0.11067854 -0.054869037 0.169192 0.27815008 -0.12486171 -0.045911785 -0.022823818 -0.08851909
-0.2314508 0.11919237 -0.014367122 -0.042657487 0.08119711 0.06302236 0.06627213 -0.13469477
0.12454293 -0.44402876 0.1327903 -0.36526123 0.060895093 -0.08400152 0.14210707 0.26706266
-0.06277955 -0.290145 0.11985478 -0.19067152 0.36417347 -0.0021799395 0.041601088 0.112594984
-0.14146355 0.14598559 -0.17992423 0.03842949 -0.25328982 0.04420278 0.31561595 0.3138314
0.14252362 -0.028106954 -0.15381597 0.10004016 0.04823726 -0.08119922 -0.080233485 0.29384315
0.22259988 -0.20163648 -0.006501915 -0.016287366 0.010305883 -0.17745142 -0.045647282 0.18837447
-0.22604828 -0.06562756 0.0068868706 -0.24950223 0.23053049 0.044294894 0.017777557 0.110810444
-0.1962682 0.22632045 0.05955994 -0.22082557 -0.07012388 0.17230844 0.2837335 -0.0031604026
0.12264148 0.121652365 -0.112935826 0.25264025 -0.19055295 -0.036448818 -0.20425037 0.029921014
0.0053981408 -0.24253179 0.3032087 -0.15533322 0.1952765 0.016384551 0.28350645 0.5396289
-0.035291575 -0.2660816 0.38494396 -0.24568146 0.2619816 -0.07888211 -0.06224197 0.07185633
-0.1793532 0.21955357 0.06805464 -0.065499574 -0.04929947 0.25216347 0.15703405 0.32454583
0.29521564 0.05830451 -0.19754565 0.05041968 0.059461646 -0.17514339 -0.17998838 0.040842187
-0.0071852845 -0.031089308 0.32573095 -0.08144799 -0.11649049 0.10225956 -0.11195813 -0.46256053
0.29030013 0.15066922 -0.23732525 0.26111874 -0.25311467 0.27635336 0.266662 0.31595412
0.10809779 0.05716229 0.30225104 0.16289607 0.03591605 -0.18377414 -0.2865471 0.08515432
-0.11208802 0.06425634 0.051499788 -0.15658863 0.15014848 -0.121332474 0.13336876 -0.15158601
00000000: 225f b13d 9a6d 773e 33ba 1abe 16ca 363e
00000010: dcf6 ff3c ec0a 8e3e 060d e1bc ce60 d9bd
00000020: a699 443e 0ef3 ce3d dd35 08be 15ba 503e
00000030: eb9f 9fbc 3822 473d 599b ebbd 4098 103e
00000040: 87fa 553d b328 08be 22b6 293d ad6f 413d
00000050: cffc 753c 6e00 2abe 5e3f 80be cb9d c0bc
00000060: db25 c5bd d966 eabd ff60 f03d 8d0b d23d
00000070: 369d 2c3e 9999 6dbd d43e 833e 0153 873d
00000080: 726c fdbd 9b98 423c a720 a33b 93da 1e3e
00000090: c93d ab3d 51b0 87bd 50ce 85bd 417f 34be
000000a0: f48e 903c 15d2 d73a 7e76 18be 90e7 013e
000000b0: c3d6 9abe b8f2 3c3e 7103 b03c 2210 3d3e
000000c0: e691 093e 905e 57be dbbd de3d 10ab 16bd
000000d0: ef79 0cbd df5c 4ebd 7e12 e3bd 5985 1abe
000000e0: 8123 e0bd 9796 f9bd 5f82 1dbd 798c ff3d
000000f0: 7e46 563d ceca d8bd 1d5b dd3d 48de cf3d
00000100: 03bd 493d ce92 943e 6bba 94bd ac3e ed3d
00000110: 9784 bbbd 45fa 943c 54c7 b93c a439 96bd
00000120: 9085 3c3e d2fa 2c3e d461 16be b118 363c
00000130: a71d 7fbe e362 0e3e 6e64 52bb f2f6 9d3d
00000140: 71df ee3c fc3b 57be 995c 303e 660c 3b3e
00000150: aa5d 573e f48a b03c 745d 3c3d fa94 69be
00000160: 6569 aabd 79c7 0fbe 82eb 533e 0f5c 2dbd
00000170: 0311 483d 30aa a038 ab33 393e 93f7 653d
00000180: 0e30 38be 3b7d fd3d 412e 27be 921b 8fbd
00000190: ca58 6a3d 77c1 9b3b 97f2 c5bc e48e 98be
000001a0: 0c3e f93a 1972 edbd cb27 743d 6b17 1f3e
000001b0: efc7 0abd bf98 383e 9b65 f73d c9d6 593e
000001c0: 6eab e23d 5bbe 60bd ab40 2d3e b069 8e3e
000001d0: 7fb7 ffbd ff0d 3cbd 04f9 babc 7f49 b5bd
000001e0: 7001 6dbe 211b f43d 1464 6bbc 9eb9 2ebd
000001f0: ac4a a63d de11 813d afb9 873d 6ded 09be
00000200: 5d10 ff3d bd57 e3be 2efa 073e 8503 bbbe
00000210: 226d 793d fd08 acbd 8484 113e 70bc 883e
00000220: 9192 80bd e38d 94be 6c76 f53d 653f 43be
00000230: f274 ba3e 51dd 0ebb e765 2a3d 3398 e63d
00000240: d2db 10be 3f7d 153e 0f3e 38be 3e68 1d3d
00000250: 34af 81be f90d 353d 6a98 a13e 82ae a03e
00000260: b6f1 113e 8e40 e6bc ef81 1dbe dbe1 cc3d
00000270: 6f94 453d c74b a6bd 7451 a4bd 9c72 963e
00000280: 39f1 633e cb79 4ebe 040e d5bb 156d 85bc
00000290: 02da 283c d3b5 35be a5f8 3abd 3de5 403e
000002a0: 3379 67be be67 86bd 42ab e13b 837d 7fbe
000002b0: 2f10 6c3e 906e 353d 3da2 913c 96f0 e23d
000002c0: 88fa 48be 8cc0 673e 20f5 733d 1920 62be
000002d0: 1c9d 8fbd a071 303e 8445 913e c21e 4fbb
000002e0: 752b fb3d e024 f93d e64a e7bd 105a 813e
000002f0: 5020 43be 5b4b 15bd 0227 51be ea1c f53c
00000300: e3e2 b03b 415a 78be 2c3e 9b3e ac0f 1fbe
00000310: 90f6 473e e538 863c c227 913e 1f25 0a3f
00000320: e68d 10bd d93b 88be 6017 c53e ec93 7bbe
00000330: 7422 863e f28c a1bd 70f1 7ebd 6929 933d
00000340: 5ea8 37be a7d2 603e 3b60 8b3d a424 86bd
00000350: 3eee 49bd 921b 813e 89cd 203e df2a a63e
00000360: 8126 973e b6d0 6e3d 6849 4abe de84 4e3d
00000370: 0e8e 733d ca58 33be e04e 38be 234a 273d
00000380: 8972 ebbb 01af febc 35c6 a63e 34ce a6bd
00000390: 9192 eebd 766d d13d 4e4a e5bd bcd4 ecbe
000003a0: 38a2 943e 0849 1a3e 6405 73be 5bb1 853e
000003b0: 3f98 81be 307e 8d3e ec87 883e bdc4 a13e
000003c0: 6062 dd3d 0123 6a3d a6c0 9a3e 3ace 263e
000003d0: b51c 133d 4a2f 3cbe 4db6 92be 6365 ae3d
000003e0: 678e e5bd d498 833d 71f1 523d c558 20be
000003f0: 86c0 193e 297d f8bd d291 083e 5d39 1bbe

bias f4 [16]
0.30999884 0.050316144 0.21542348 -0.0336965 0.079239 0.17322509 -0.06970796 0.28650272
0.08056341 -0.083482385 0.19527318 0.3177421 0.029483369 0.2108057 -0.035389785 0.24634942
00000000: 2bb8 9e3e 4d18 4e3d f997 5c3e 5705 0abd
00000010: 0f48 a23d eb61 313e 0cc3 8ebd 7cb0 923e
00000020: 6efe a43d d0f8 aabd b1f5 473e 18af a23e
00000030: 1b87 f13c 73dd 573e e1f4 10bd 0643 7c3e

weight f4 [1, 16]
-0.19618675 -0.3266537 -0.3579321 -0.25349966 0.23220144 0.3696356 0.19205308 -0.1288562
0.30510947 0.20334263 -0.24707685 -0.18449423 0.37172398 0.38371462 0.2761427 -0.32295445
00000000: 2ee5 48be 273f a7be e042 b7be b5ca 81be
00000010: 37c6 6d3e e140 bd3e 90a9 443e e1f2 03be
00000020: 4f37 9c3e 0d39 503e b701 7dbe 0eec 3cbe
00000030: 9b52 be3e 3e76 c43e 9362 8d3e 495a a5be

weight f4 [16, 1]
-0.9609799 -0.96134293 -0.077864505 -1.034054 -1.0087221 -0.6332733 0.30253768 0.6994718
-0.5808602 0.35400492 0.5361279 0.2673403 -0.48874328 -0.6826008 0.87009764 0.017457837
00000000: c702 76bf 921a 76bf 6d77 9fbd e25b 84bf
00000010: ce1d 81bf 331e 22bf 38e6 9a3e 9510 333f
00000020: 41b3 14bf 2240 b53e ae3f 093f d4e0 883e
00000030: 8f3c fabe edbe 2ebf b8be 5e3f bd03 8f3c

bias f4 [16]
-0.4909009 0.19227374 -0.7857743 -0.9555668 0.08542292 0.3678236 -0.4863793 0.49141222
-0.7460069 -0.08615254 -0.22541742 -0.8325988 0.18563637 -0.45272923 0.53521866 1.1383853
00000000: 5d57 fbbe 68e3 443e 8128 49bf 07a0 74bf
00000010: 36f2 ae3d 6053 bc3e b506 f9be 629a fb3e
00000020: 4ffa 3ebf be70 b0bd d3d3 66be 3225 55bf
00000030: 7617 3e3e 20cc e7be 1704 093f 9cb6 913f

weight f4 [32, 16]
-0.009999859 -0.1566377 -0.027895018 0.1334139 -0.050078586 0.032750748 0.022556074 -0.042385917
0.044212647 0.2775733 -0.043562032 -0.08871432 0.009124462 -0.1123928 -0.14288324 0.1998423
-0.087493286 -0.20703843 -0.32173496 -0.4193782 -0.23252483 -0.10742939 0.15235397 0.16742818
-0.115594074 -0.06399097 -0.230567 -0.06525119 -0.27369145 -0.09050435 0.06807179 0.39796036
-0.01485836 0.20613095 -0.027106548 0.010909412 0.20120825 0.015572359 -0.1502369 -0.0073404005
-0.03492138 -0.22896174 -0.19037047 0.1543865 -0.13025314 -0.14680906 0.06834026 -0.13081749
-0.26728156 0.17001045 0.14738247 0.10596429 -0.13164043 0.008680795 -0.04690107 -0.026347892
0.19832407 0.1887207 0.091142915 -0.18988603 -0.21565475 0.13584301 0.28448555 0.122494355
0.09314782 0.15117967 -0.27713948 -0.011308117 -0.112909116 -0.09884116 -0.1714077 0.18271999
0.118498705 -0.04924517 0.05405503 -0.16797796 0.05475109 -0.12368717 0.30729055 0.12654194
0.13089931 -0.04480929 -0.21111587 -0.29887024 -0.11637947 0.0070655216 0.19877173 -0.087749794
0.12695812 0.10862949 0.25765407 -0.13776724 -0.2549027 -0.30129853 0.09482088 0.13744307
-0.19099596 -0.062187422 0.17809965 0.13104738 0.09718627 -0.17778741 -0.10523544 -0.14728807
0.022876628 0.04595095 -0.09861248 -0.22444308 0.22717316 0.19419284 -0.071285866 0.1129725
-0.15332896 0.2811572 0.20221505 0.020096729 -0.15384176 -0.016711522 0.10165493 0.29700765
-0.008349987 0.16012065 0.24662529 0.0072781974 -0.17804882 0.035654727 0.14647302 -0.095963374
0.16665399 0.03843725 -0.14308885 -0.0147416 -0.076938055 -0.002831653 -0.063673586 -0.15845336
0.10466643 -0.04853201 0.036666755 0.20099789 -0.037931174 0.19098346 0.18281172 -0.049198102
0.11500794 0.10124801 -0.13396224 0.031576708 0.02225646 -0.101365924 -0.19793755 -0.32378232
-0.082501814 -0.10000868 -0.23604588 -0.33621594 -0.030077046 -0.15082076 -0.54337597 -0.13174722
0.14654271 0.13767329 0.28727925 0.053789884 -0.023909194 0.21620905 0.22294633 0.19302936
0.063986816 0.2039364 0.21229908 0.102129415 0.16408657 0.17995624 -0.25499362 -0.17896901
0.019050736 0.25187066 -0.104959436 0.052831594 -0.112225324 -0.11861632 -0.30725318 -0.121759824
-0.056490067 -0.34265643 -0.05899123 -0.16716926 0.1559341 -0.19271334 -0.31412888 0.01884177
-0.44839802 -0.28127292 -0.238455 -0.23859964 -0.17332946 -0.10222638 0.07329644 -0.21648061
-0.2951512 -0.2541455 -0.26223734 -0.060681306 -0.2694134 -0.26448542 -0.20694557 0.19017008
0.15315622 0.046319045 -0.118670024 0.1382139 0.21752691 -0.070057556 -0.14280821 -0.038292594
-0.18858044 -0.12345202 0.1867318 0.026939018 0.23140916 -0.14583097 0.004739977 0.03369127
-0.11768267 0.0720664 -0.033046383 0.11716829 0.086672775 0.25836498 -0.41502512 -0.4690572
-0.25109714 -0.20403396 -0.6112068 -0.19310266 0.010200821 0.118614435 -0.70409185 0.28005847
0.12541099 -0.040451992 0.1955533 -0.025830107 -0.09493044 -0.08597445 -0.1289985 -0.18041232
0.043877374 0.07934244 -0.12507227 -0.1416838 0.00055165775 -0.09837741 -0.1275986 0.1425859
00000000: 73d6 23bc a265 20be 1884 e4bc a79d 083e
00000010: 341f 4dbd a625 063d 84c7 b83c db9c 2dbd
00000020: 5218 353d 161e 8e3e 1a6e 32bd daaf b5bd
00000030: c47e 153c 322e e6bd fc4f 12be 76a3 4c3e
00000040: ae2f b3bd e201 54be 72ba a4be bdb8 d6be
00000050: fd1a 6ebe f103 dcbd ae02 1c3e 4b72 2b3e
00000060: 96bc ecbd b30d 83bd c119 6cbe 6aa2 85bd
00000070: 4921 8cbe 585a b9bd 3969 8b3d 76c1 cb3e
00000080: 7b70 73bc fe13 533e 8d0e debc 64bd 323c
00000090: 8909 4e3e 3523 7f3c b4d7 19be be87 f0bb
000000a0: b909 0fbd f274 6abe 7af0 42be 7f17 1e3e
000000b0: 1461 05be 1d55 16be faf5 8b3d 05f5 05be
000000c0: 21d9 88be 3817 2e3e 6eeb 163e ce03 d93d
000000d0: c0cc 06be e539 0e3c 561b 40bd 89d7 d7bc
000000e0: 7715 4b3e 0040 413e 23a9 ba3d 7c71 42be
000000f0: 99d4 5cbe 6e1a 0b3e 17a8 913e 52de fa3d
00000100: 49c4 be3d d8ce 1a3e 3ae5 8dbe ae45 39bc
00000110: e53c e7bd 3c6d cabd 8085 2fbe f31a 3b3e
00000120: 73af f23d 4eb5 49bd cf68 5d3d 6a02 2cbe
00000130: ae42 603d b34f fdbd 3055 9d3e 3694 013e
00000140: 780a 063e f289 37bd c22e 58be 8505 99be
00000150: 5c58 eebd e485 e73b d18a 4b3e 2ab6 b3bd
00000160: 4f01 023e 2379 de3d 3ceb 833e db12 0dbe
00000170: 9b82 82be cd43 9abe 7331 c23d e0bd 0c3e
00000180: 7294 43be 3db8 7ebd c15f 363e 4931 063e
00000190: 9809 c73d e70d 36be ae85 d7bd afd2 16be
000001a0: c467 bb3c 1037 3c3d 57f5 c9bd 68d4 65be
000001b0: 15a0 683e 7dda 463e 53fe 91bd 205e e73d
000001c0: 4402 1dbe d6f3 8f3e 7611 4f3e e5a1 a43c
000001d0: b288 1dbe 9ae6 88bc 7630 d03d 6311 983e
000001e0: 62ce 08bc abf6 233e 578b 7c3e f27d ee3b
000001f0: 6e52 36be b10a 123d 06fd 153e 7288 c4bd
00000200: 58a7 2a3e 6170 1d3d e285 12be c086 71bc
00000210: b391 9dbd 4193 39bb 4c67 82bd 9941 22be
00000220: 5a5b d63d 80c9 46bd e12f 163d 64d2 4d3e
00000230: b85d 1bbd 2b91 433e ff32 3b3e f383 49bd
00000240: 4889 eb3d 1e5b cf3d 662d 09be 9456 013d
00000250: 2e53 b63c f098 cfbd 24b0 4abe ccc6 a5be
00000260: b6f6 a8bd 5ad1 ccbd 03b6 71be 7f24 acbe
00000270: 2364 f6bc c270 1abe b01a 0bbf bee8 06be
00000280: 4b0f 163e 3afa 0c3e 4416 933e c852 5c3d
00000290: 37dd c3bc e865 5d3e 0b4c 643e 7da9 453e
000002a0: 850b 833d b4d4 503e ee64 593e 3a29 d13d
000002b0: 4f06 283e 7346 383e 868e 82be a743 37be
000002c0: 4a10 9c3c 31f5 803e f9f4 d6bd f165 583d
000002d0: 64d6 e5bd 1ded f2bd 4a50 9dbe 375d f9bd
000002e0: 2162 67bd aa70 afbe caa0 71bd 6b2e 2bbe
000002f0: 30ad 1f3e a556 45be 80d5 a0be 0e5a 9a3c
00000300: 6d94 e5be 0103 90be 8c2d 74be 7753 74be
00000310: 477d 31be 105c d1bd 721c 963d 18ad 5dbe
00000320: 0f1e 97be 5c1f 82be f943 86be f68c 78bd
00000330: 8ef0 89be a26a 87be 8ae9 53be f2bb 423e
00000340: fcd4 1c3e 0ab9 3d3d 4509 f3bd f287 0d3e
00000350: 60bf 5e3e 567a 8fbd 513c 12be b2d8 1cbd
00000360: 3b1b 41be 6ad4 fcbd 9f36 3f3e 37af dc3c
00000370: 86f6 6c3e b754 15be cf51 9b3b dbff 093d
00000380: 9d03 f1bd 8c97 933d a55b 07bd eef5 ef3d
00000390: 7f81 b13d 6a48 843e 2c7e d4be 4428 f0be
000003a0: ce8f 80be 47ee 50be 0d78 1cbf b4bc 45be
000003b0: 5821 273c 20ec f23d 5d3f 34bf d363 8f3e
000003c0: bd6b 003e fdb0 25bd 203f 483e a999 d3bc
000003d0: e46a c2bd 5f13 b0bd 2f18 04be 02be 38be
000003e0: c3b8 333d 4a7e a23d f212 00be 8f15 11be
000003f0: 209d 103a 187a c9bd 35a9 02be 0a02 123e

bias f4 [32]
-0.16068162 0.24151693 -0.107403986 0.1429524 0.23739292 0.16681144 -0.053116128 0.28853786
-0.028668901 -0.117207915 -0.08156873 -0.18569638 -0.00045858498 0.06206957 -0.018544665 -0.23680249
0.032542776 0.13151354 -0.03004524 -0.3770552 0.25797716 -0.07358598 -0.05902095 -0.17654178
-0.0014628507 -0.04146083 -0.050864484 -0.1724372 -0.048413567 -0.19233032 0.002838257 -0.20624352
00000000: b989 24be 3750 773e 9ff6 dbbd 1d62 123e
00000010: 2117 733e 9ed0 2a3e 4c90 59bd 3cbb 933e
00000020: 0bdb eabc b40a f0bd 820d a7bd 3127 3ebe
00000030: 3c6e f0b9 a93c 7e3d fbea 97bc 5a7c 72be
00000040: 934b 053d 7cab 063e 6f21 f6bc 610d c1be
00000050: 9515 843e 3fb4 96bd f4bf 71bd 5ec7 34be
00000060: 20bd bfba d5d2 29bd 4757 50bd 6193 30be
00000070: 4e4d 46bd 3df2 44be 0d02 3a3b 8031 53be

weight f4 [2, 32]
0.09945265 0.22445574 -0.12687372 0.0060561583 -0.054168142 0.13614912 -0.1692854 -0.047551747
-0.10618597 -0.30266765 0.044642612 -0.16209438 0.2800305 -0.008808958 -0.4230464 0.017951937
-0.14923808 0.30790076 -0.09897898 0.17141972 -0.13445452 0.09194762 -0.074820176 0.011842354
0.46160394 -0.10143079 -0.11720795 -0.078112036 -0.13631241 -0.03782497 0.33281493 -0.09105114
-0.079270944 0.13116153 0.09456183 -0.07032079 -0.18182349 -0.16020238 0.12508464 -0.2117819
0.13857198 -0.11982872 0.053295255 -0.05849045 0.30277118 0.17699341 -0.20718895 -0.0116994195
0.1070506 -0.13418598 -0.102915406 0.17648704 -0.025996843 0.04403731 -0.018435664 0.12841527
0.19842294 0.06293218 -0.03328157 0.05248456 0.16622104 0.15702431 0.23215447 0.20247854
00000000: d5ad cb3d bad7 653e 2feb 01be bd72 c63b
00000010: 6adf 5dbd ad6a 0b3e 2759 2dbe 9fc5 42bd
00000020: 0878 d9bd 41f7 9abe 2cdb 363d 12fc 25be
00000030: 2860 8f3e 7353 10bc 8a99 d8be f10f 933c
00000040: ded1 18be 2ba5 9d3e 7eb5 cabd a788 2f3e
00000050: 72ae 09be 094f bc3d 523b 99bd 6f06 423c
00000060: 5a57 ec3e f2ba cfbd b90a f0bd 34f9 9fbd
00000070: 7b95 0bbe 5bee 1abd b866 aa3e 0579 babd
00000080: ce58 a2bd 354f 063e a2a9 c13d 5904 90bd
00000090: f02f 3abe 180c 24be 3016 003e 5bdd 58be
000000a0: d0e5 0d3e c368 f5bd 204c 5a3d af93 6fbd
000000b0: d304 9b3e c33d 353e 5729 54be ecae 3fbc
000000c0: 583d db3d 0d68 09be 50c5 d2bd 05b9 343e
000000d0: 55f7 d4bc 7760 343d 6406 97bc 4b7f 033e
000000e0: 622f 4b3e 96e2 803d 4152 08bd 0dfa 563d
000000f0: d935 2a3e fbca 203e e7b9 6d3e 8956 4f3e

bias f4 [2]
-0.19756615 -0.022685867
00000000: c84e 4abe b6d7 b9bc
