docs/notebooks/paper_experiments/results/multitask/decoder_stats/model_multitask_2.pt (torch, 30943 bytes, 13 tensors)

mean f4 [2]
0	0x3d0188ba	0.031624533
1	0x3f301b52	0.6879169

range f4 [2]
0	0x3f3670f6	0.71266115
1	0x3f141aa0	0.57853127

weight f4 [32, 2]
0	0xbf17a95c	-0.59242797
1	0x3f197e97	0.59958786
2	0x3ed2a578	0.41141868
3	0xbf42a63c	-0.76034904
4	0x3ee70310	0.45119524
5	0x3f3d3796	0.7391294
6	0xbe8f8c42	-0.28036696
7	0x3e6a2aab	0.22867839
8	0xbf0555ca	-0.5208403
9	0x3ee3513c	0.44397914
10	0xbe899c71	-0.26877168
11	0xbf58db07	-0.8470921
12	0x3e4910fb	0.19635384
13	0xbe633e40	-0.22191715
14	0xbe578272	-0.21045855
15	0xbf349a28	-0.70547724
16	0x3f10cfde	0.5656718
17	0xbefc4def	-0.4927821
18	0x3f57bbf5	0.84271175
19	0x3d2148bf	0.039376017
20	0xbee2d7a4	-0.44305146
21	0x3f33ee99	0.70285946
22	0x3f0aac4b	0.5416915
23	0xbf3c47ee	-0.73547256
24	0xbd407ab0	-0.046992004
25	0x3efa4b88	0.4888575
26	0xbf1c95d1	-0.611661
27	0xbf134e71	-0.5754157
28	0xbed915be	-0.423994
29	0x3f4ac4e6	0.79206693
30	0xbe5ab389	-0.2135755
31	0x3f319e65	0.69382316
32	0x3d7cfff7	0.061767545
33	0xbf245812	-0.64196885
34	0xbecc8ebc	-0.39952648
35	0x3f25ba1a	0.64737093
36	0xbf25237e	-0.6450728
37	0x3ef3220a	0.47486907
38	0x3f4b699a	0.7945801
39	0xbed4751a	-0.4149559
40	0x3e8380f0	0.2568431
41	0xbf127601	-0.5721131
42	0xbf3032e1	-0.68827635
43	0x3e84e876	0.25958604
44	0xbf44afb5	-0.7683061
45	0x3dcd6898	0.10029715
46	0x3e51b2fc	0.20478433
47	0x3f35c512	0.7100383
48	0x3ed40d68	0.41416478
49	0xbf3e3ca1	-0.7431126
50	0x3e52dee3	0.20592837
51	0xbf0bc753	-0.5460102
52	0x3f073794	0.5281918
53	0x3f2306a3	0.63682
54	0x3ed76aa5	0.4207355
55	0xbeb27789	-0.34856823
56	0xbf60b452	-0.87775147
57	0x3f21e07e	0.6323317
58	0x3d2cfb48	0.042231828
59	0x3f04850e	0.51765525
60	0xbe94e333	-0.2907959
61	0x3e70b9c0	0.23508358
62	0xbf36e0d7	-0.7143683
63	0x3f1b142e	0.60577667

bias f4 [32]
0	0x3f5af352	0.8552753
1	0xbf10d12d	-0.56569177
2	0xbdb0e86a	-0.086380795
3	0xbe88bc14	-0.26705992
4	0xbcb77015	-0.022392312
5	0xbf072c9e	-0.52802455
6	0xbc9e713a	-0.0193411
7	0x3eb2288f	0.3479657
8	0x3e8b06e4	0.27153695
9	0xbf03db94	-0.51506925
10	0x3d761a20	0.06008351
11	0x3f2ea21c	0.6821611
12	0x3e8e901e	0.27844328
13	0xbe47b207	-0.19501506
14	0x3f4a8b6e	0.79119
15	0xbe60dd3c	-0.21959394
16	0xbec33da0	-0.38132954
17	0x3f341075	0.7033761
18	0x3f04bf2c	0.51854205
19	0xbddf4806	-0.10902409
20	0xbecb5e5e	-0.39720434
21	0xbf06e6ea	-0.52696097
22	0x3e03f44d	0.12886162
23	0x3e93fff1	0.28906205
24	0x3d036d8f	0.032086905
25	0x3eb60325	0.35549274
26	0xbe102db6	-0.14079937
27	0x3f1dcab8	0.6163745
28	0xbe84a361	-0.25905898
29	0x3da9daaa	0.0829366
30	0x3ea88130	0.32911062
31	0xbd0f26f5	-0.03494926

weight f4 [16, 32]
0	0xbe0dcfca	-0.13848796
1	0x3e715ab7	0.23569761
2	0xbe828880	-0.25494766
3	0xbd6d7103	-0.057969104
4	0xbe8ae60c	-0.27128637
5	0x3ce56a8e	0.02800491
6	0x3e4a26d5	0.19741376
7	0x3d60e2d9	0.05490384
8	0x3e725152	0.23663834
9	0x3eb29b29	0.34884003
10	0x3cb6670d	0.022265935
11	0x3e6919c1	0.2276373
12	0xbdf81d4f	-0.12114965
13	0x3e8e3827	0.27777216
14	0xbe87f129	-0.26551178
15	0xbd53cc8e	-0.05170875
16	0x3e6feb4c	0.23429602
17	0xbc9ff83f	-0.019527553
18	0xbc8e21b4	-0.017350055
19	0x3cafe97d	0.02147364
20	0x3dc1590a	0.09440811
21	0x3d25cc12	0.04047782
22	0xbd329bb3	-0.043605518
23	0xbdbc676c	-0.09199414
24	0x3e80f098	0.25183558
25	0x3e6eb77b	0.2331218
26	0xbd5362f5	-0.051608045
27	0x3d3f7f2b	0.046752136
28	0x3dca25d6	0.09870498
29	0xbe8b04a1	-0.2715197
30	0xbde6aca7	-0.112633996
31	0x3cdc52e6	0.026894998
32	0xbdf42ab8	-0.119222105
33	0x3e9925c9	0.2991164
34	0xbea960e9	-0.3308175
35	0x3d9228f9	0.07136721
36	0xbdfaccf4	-0.12246123
37	0x3e300dea	0.17192808
38	0x3df87490	0.121316075
39	0x3e3f9a62	0.18711236
40	0x3e8067d8	0.25079226
41	0x3e742e4e	0.23845789
42	0xbe01949c	-0.12654346
43	0x3e8a4b2d	0.2701048
44	0xbe70a5a7	-0.23500691
45	0xbcf8d18e	-0.030373361
46	0xbe2eb302	-0.17060474
47	0xbc817c69	-0.015806394
48	0x3e1c88df	0.15286587
49	0xbe15399f	-0.14572762
50	0xbe4f77a6	-0.20260486
51	0x3da83335	0.08212892
52	0x3dc6eab0	0.09712732
53	0x3daa4bb3	0.0831522
54	0x3d9696b5	0.07352964
55	0xbd52bb11	-0.05144793
56	0x3ea33bf4	0.31881678
57	0x3e325aa7	0.17417394
58	0xbe17c689	-0.14821829
59	0x3e3924e2	0.18080476
60	0xbe42c111	-0.19018961
61	0xbd97324d	-0.07382641
62	0xbdeb4d19	-0.114893146
63	0xbc73671d	-0.014856127
64	0xbca3617c	-0.019943945
65	0x3e84001f	0.25781342
66	0xbe6ab7a6	-0.22921619
67	0xbe2f0e3f	-0.17095278
68	0x3d59373c	0.05303119
69	0x3ead1356	0.33803815
70	0x3dc70566	0.097178265
71	0x3e785774	0.2425211
72	0x3df338e5	0.11876086
73	0x3e2d9263	0.16950373
74	0xbd97194b	-0.07377871
75	0x3e750a1a	0.23929635
76	0xbe681c6f	-0.22667097
77	0x3e985576	0.29752702
78	0xbe515eee	-0.20446369
79	0xbc8c5ea7	-0.017134978
80	0x3eb24622	0.34819132
81	0xbda3bd11	-0.07995046
82	0xbd7ff9b9	-0.062494013
83	0x3e8fd3b0	0.28091192
84	0x3e371e8b	0.17882745
85	0xbd7f96a2	-0.062399514
86	0xbcfbbf85	-0.030730972
87	0xbd06cc70	-0.03290981
88	0x3e226306	0.15858087
89	0x3e9e1d2d	0.30881634
90	0xbe574329	-0.21021713
91	0x3e12be4e	0.14330408
92	0x3c357424	0.011075053
93	0xbea2bb0c	-0.3178333
94	0xbd906c69	-0.070519276
95	0xbdc9ffd0	-0.098632455
96	0x3d8501f4	0.06494513
97	0xbe4e2a44	-0.2013331
98	0xbdf88fb8	-0.12136787
99	0x3e77a4b1	0.24183919
100	0x3a8597be	0.0010192317
101	0xbe06081e	-0.13089034
102	0xbe5b760c	-0.2143175
103	0xbdda71ce	-0.10666238
104	0x3bbfb0c4	0.0058499295
105	0x3cecfa7f	0.02892804
106	0xbc83856b	-0.01605483
107	0xbe358e4e	-0.17730066
108	0x3e1a710d	0.15082188
109	0xbe9a7af5	-0.30171934
110	0x3e7a537e	0.24445912
111	0x3e1c4670	0.15261245
112	0xbd402aeb	-0.04691593
113	0x3e56297f	0.20914267
114	0x3e4f33c3	0.2023459
115	0x3d1a800d	0.037719775
116	0xbdc6dcd8	-0.09710091
117	0x3b89d5fa	0.004206416
118	0x3db8bf74	0.09020892
119	0x3d21d78d	0.039512206
120	0xbe29cf43	-0.1658297
121	0xbe58b08b	-0.21161096
122	0x3dc3d156	0.09561412
123	0x3df93a17	0.12169283
124	0x3e021453	0.12703066
125	0x3e2e7ea8	0.17040503
126	0xbcd43561	-0.02590436
127	0xbd24f591	-0.040273253
128	0x3db7036e	0.08936201
129	0xbe6ae568	-0.22939074
130	0x3e243829	0.16037048
131	0xbc2c66c9	-0.010522553
132	0x3e27fc4c	0.16404837
133	0x3c8e9426	0.017404627
134	0xbe825adb	-0.25459942
135	0xbde62a5c	-0.11238548
136	0x3d57c84a	0.052681245
137	0xbe50b938	-0.20383155
138	0xbcc1ec4a	-0.023672242
139	0xbdb803f6	-0.089851305
140	0x3db6f51b	0.08933469
141	0xbe380147	-0.17969237
142	0x3e436d7d	0.19084735
143	0xbd8cedcb	-0.06881293
144	0xbd2a143c	-0.041523203
145	0xbc1c665b	-0.009545888
146	0x3d55f1ce	0.052232556
147	0x3dc8b26e	0.09799658
148	0xbcb983e8	-0.022645906
149	0x3dfc31ab	0.12314161
150	0x3e5b8af8	0.21439731
151	0x3d30bd6a	0.04314939
152	0xbdf88703	-0.121351264
153	0x3d2c693a	0.04209254
154	0x3e0abbba	0.13548175
155	0xbdddbfd6	-0.108276054
156	0x3e8b4b46	0.27205867
157	0x3d5feb7a	0.054667927
158	0x3dab52eb	0.08365425
159	0x3e8d3a35	0.2758347
160	0x3e85ddd1	0.26145795
161	0xbe1bb046	-0.15203962
162	0x3d38fda9	0.045163784
163	0xbd12a4e4	-0.035801783
164	0x3e54d594	0.20784599
165	0xbe87f486	-0.26553744
166	0xbd82bd62	-0.06383778
167	0xbd4c684e	-0.04990416
168	0x3c51f42d	0.012814564
169	0x3d92d313	0.071691655
170	0x3e485a82	0.19565776
171	0xbe0b8343	-0.13624291
172	0x3dfd651a	0.12372799
173	0xbe97321c	-0.29530418
174	0xbd55b69a	-0.052176096
175	0x3e5a738b	0.21333139
176	0xbdd49052	-0.103790894
177	0x3df55972	0.11979951
178	0x3d783d2c	0.060605213
179	0xbdd7aede	-0.105314
180	0xbd995daf	-0.07488572
181	0x3e5bf18f	0.21478866
182	0x3e66700e	0.22503683
183	0x3e1b2185	0.15149505
184	0xbdf365e0	-0.118846655
185	0xbe4f7e89	-0.20263113
186	0x3e06de5c	0.13170761
187	0x3d44c3e8	0.048038393
188	0x3ce7228a	0.028214712
189	0x3c615ec5	0.013755505
190	0x3db8862d	0.09009967
191	0x3e4919e4	0.19638783
192	0xbba40d5f	-0.005006477
193	0xbe454207	-0.19263469
194	0xbd76a6e1	-0.060217742
195	0x3e24155b	0.16023771
196	0x3e62e407	0.22157298
197	0xbd8ecf83	-0.069731735
198	0xbe1571ee	-0.14594242
199	0xbe321afb	-0.17393105
200	0xbe4c9c1a	-0.19981423
201	0xbc777300	-0.015103102
202	0x3d4ef302	0.05052472
203	0xbe4c6008	-0.19958508
204	0xbccf1bf2	-0.02528188
205	0xbe369934	-0.1783188
206	0x3d04180d	0.0322495
207	0x3e184271	0.14869095
208	0xbdaae14d	-0.08343754
209	0xbd2035d5	-0.03911384
210	0x3d759056	0.059952103
211	0xbd901495	-0.07035176
212	0xbd802c02	-0.06258394
213	0x3e4ca0c7	0.19983207
214	0x3de94097	0.11389273
215	0x3e0458e3	0.12924533
216	0xbe84636f	-0.25857112
217	0xbd6e739e	-0.05821573
218	0x3db61813	0.088913105
219	0xbe08573d	-0.13314529
220	0x3e92b477	0.2865331
221	0xbdc8ae3e	-0.09798859
222	0xbd768fd1	-0.060195748
223	0x3d318c92	0.04334695
224	0xbe0f5511	-0.13997294
225	0x3eac2623	0.33622846
226	0xbe98616f	-0.29761836
227	0xbd928a4a	-0.07155283
228	0x3d744a0b	0.059640925
229	0x3e135d1b	0.14390986
230	0x3e81c0a6	0.25342292
231	0x3e6c7210	0.23090386
232	0x3e840878	0.2578771
233	0x3df4a702	0.11945917
234	0xbe3aad09	-0.1823007
235	0x3e8c84e5	0.2744514
236	0xbe1adb4b	-0.15122716
237	0xbcea92dd	-0.028634483
238	0xbd9ab52b	-0.07554086
239	0xbdb980e9	-0.09057791
240	0x3e4fa561	0.20277931
241	0x3c785f82	0.01515949
242	0xbe1d6c64	-0.15373379
243	0x3da38c84	0.079857856
244	0x3daf1acf	0.08550035
245	0x3d1ee255	0.038790066
246	0xbd8af30c	-0.06784639
247	0xbe9b7392	-0.3036161
248	0x3e9bd312	0.3043447
249	0x3dacef00	0.08444023
250	0xbe20a8b6	-0.15689358
251	0x3e48ac8f	0.19597076
252	0x3c030348	0.007996388
253	0xbe248aef	-0.16068624
254	0xbc9c847c	-0.019106142
255	0xbe188443	-0.14894204

bias f4 [16]
0	0x3e17246b	0.14759986
1	0xbd9a738b	-0.07541569
2	0x3d4819a4	0.048852578
3	0x3decc005	0.11560062
4	0x3e5a7db3	0.21337013
5	0x3e86d6c4	0.26335728
6	0x3dad2162	0.08453633
7	0x3de98d6e	0.11403929
8	0xbd208e64	-0.039198294
9	0xbd91cda8	-0.07119304
10	0x3dd88f5b	0.10574218
11	0x3e000ae8	0.1250416
12	0x3e49021a	0.19629708
13	0x3e4cb6e6	0.19991645
14	0x3d4af748	0.049552232
15	0x3e12dbdf	0.14341687

weight f4 [1, 16]
0	0x3eb796a1	0.35857108
1	0x3ebd8c88	0.3702128
2	0x3e72da41	0.2371607
3	0xbeab59cb	-0.33466944
4	0xbea20a33	-0.31648406
5	0xbe5f7a4f	-0.21824001
6	0xbeb20d4a	-0.34775764
7	0x3eb1f8f1	0.3476024
8	0xbe9a1a32	-0.3009811
9	0x3ec69c5f	0.38791177
10	0x3e8b14fa	0.2716444
11	0x3ea148dc	0.315009
12	0xbe8016ec	-0.25017488
13	0xbe1ed243	-0.15509896
14	0xbe9a9acd	-0.3019623
15	0xbd20a2b3	-0.039217662

weight f4 [16, 1]
0	0xbf242a4c	-0.6412704
1	0x3db1477d	0.086562134
2	0xbf335ffb	-0.7006833
3	0x3e2e25d6	0.17006621
4	0x3e5fe0e9	0.2186314
5	0x3edf6fac	0.43639886
6	0x3dbd3e8b	0.09240445
7	0x3f945d92	1.1591055
8	0x3de6be7a	0.11266799
9	0xbda0f6bd	-0.078595616
10	0xbf7df652	-0.9920398
11	0x3f882239	1.0635444
12	0x3f527149	0.8220411
13	0xbd9672ed	-0.07346139
14	0x3f5e81b1	0.86916643
15	0x3e920b2c	0.28524148

bias f4 [16]
0	0x3f6d0b1e	0.9259509
1	0x3f03d376	0.5149454
2	0x3d9932ff	0.0748043
3	0x3e7e4389	0.2483045
4	0xbe581c58	-0.21104562
5	0xbe9bcc97	-0.30429527
6	0xbf89b053	-1.0756935
7	0x3f758c2e	0.9591702
8	0x3e8ad3ff	0.27114865
9	0xbc2c5ad2	-0.0105197
10	0xbf1ca8a4	-0.61194825
11	0x3e588738	0.21145332
12	0x3edd7c4f	0.43258902
13	0x3e68f5fa	0.22750083
14	0xbe8f8cc8	-0.28037095
15	0x3e93d29a	0.28871614

weight f4 [32, 16]
0	0xbd74b469	-0.059742365
1	0x3de1bcaf	0.11022317
2	0x3dcb1da5	0.099177636
3	0x3e58c6af	0.21169542
4	0xbdcdd992	-0.10051264
5	0x3e605063	0.21905665
6	0x3e1e5fca	0.15466228
7	0xbe4cbf67	-0.19994889
8	0xbd7dd120	-0.061967015
9	0xbe6caf48	-0.2311374
10	0xbd9fb2bb	-0.07797762
11	0xbce81d54	-0.028334297
12	0x3e19dfd7	0.15026794
13	0xbe33381b	-0.17501871
14	0x3e060ea6	0.13091525
15	0xbc71f1d0	-0.014767125
16	0x3e616c7b	0.22014038
17	0xbe6c4787	-0.2307416
18	0x3e239118	0.15973318
19	0xbd0453a0	-0.032306314
20	0x3dd40d35	0.103540815
21	0x3cfa9448	0.030588284
22	0x3da0bef2	0.0784892
23	0x3cd96009	0.026535051
24	0x3d79c65c	0.060980186
25	0x3db6d6d3	0.08927693
26	0xbd50078e	-0.050788455
27	0x3dd9be59	0.10632009
28	0xbea22c53	-0.31674442
29	0x3e7dcf12	0.24786022
30	0xbe2fe7fd	-0.1717834
31	0xbd8458f5	-0.0646228
32	0x3e49bccd	0.19700928
33	0x3e23bbdc	0.15989631
34	0xbd97ae9b	-0.0740635
35	0x3e059baa	0.13047662
36	0x3de3fb44	0.111319095
37	0x3a416138	0.00073768524
38	0xbd693bb5	-0.056941707
39	0xbe1433cc	-0.14472884
40	0xbde4a47d	-0.11164186
41	0x3cb62c38	0.022237882
42	0x3e314fc8	0.1731559
43	0xbe051856	-0.12997565
44	0x3e1bda6e	0.15220043
45	0x3e0b7196	0.13617548
46	0xbdb1bae2	-0.08678223
47	0xbe444e00	-0.1917038
48	0x3e8147d8	0.25250125
49	0xbca7df01	-0.020492079
50	0x3e83e02c	0.25756967
51	0x3dfe19b2	0.12407245
52	0x3cefc66b	0.029269418
53	0xbe5f8959	-0.21829738
54	0x3e8f1c8b	0.27951464
55	0xbcab54bb	-0.020914426
56	0x3dfefe08	0.12450796
57	0x3b1e0096	0.0024109236
58	0xbddb0ab3	-0.106954
59	0xbcf35f0d	-0.02970841
60	0xbdd7b73f	-0.10532998
61	0x3e53d893	0.20688085
62	0xbcc6c0ed	-0.024261916
63	0xbde7d335	-0.113195814
64	0x3e71ed83	0.2362576
65	0x3b936458	0.004498046
66	0x3e649de8	0.22325861
67	0xbcd9de5b	-0.026595285
68	0x3c4dc08f	0.012558117
69	0xbdc4320e	-0.0957986
70	0xbe13f64c	-0.14449424
71	0xbea9a234	-0.33131564
72	0x3e527286	0.205515
73	0xbdc156f6	-0.094404146
74	0xbe4812a1	-0.19538356
75	0xbe989d34	-0.29807436
76	0xbe1797cb	-0.14803998
77	0x3e5bd75e	0.21468875
78	0xbde39125	-0.111116685
79	0xbddeb219	-0.10873813
80	0x3e7ba022	0.24572805
81	0x3d998c89	0.07497508
82	0x3e481b93	0.19541769
83	0xbce89f3f	-0.028396247
84	0x3dc52b13	0.096273564
85	0xbe0f86f8	-0.1401633
86	0xbd8ea0fc	-0.06964299
87	0xbe5a8f4e	-0.21343729
88	0xbdefde16	-0.117122814
89	0xbe130ffc	-0.14361566
90	0xbe4235cd	-0.18965836
91	0xbe32796d	-0.17429133
92	0xbe8894b0	-0.2667594
93	0x3e37d0e8	0.17950785
94	0xbe733411	-0.2375033
95	0x3da4bf8c	0.08044347
96	0x3dae0846	0.08497672
97	0x3e319be1	0.1734462
98	0x3e05a792	0.13052204
99	0xbdac4080	-0.0841074
100	0x3e43e58b	0.19130532
101	0x3df4adc6	0.11947207
102	0x3e2c625c	0.16834396
103	0xbe5b08ca	-0.21390072
104	0xbe01ab42	-0.12662986
105	0xbdd887a0	-0.105727434
106	0xbd5b59bc	-0.053552374
107	0xbe7e71b2	-0.24848059
108	0xbe9c79fe	-0.30561823
109	0x3dc76964	0.097368985
110	0xbea142b7	-0.31496212
111	0xbd9660e0	-0.07342696
112	0x3e1ff8d4	0.15622264
113	0xbc5882b2	-0.013214754
114	0x3dcb39ae	0.09923111
115	0xbd1a5a0d	-0.037683535
116	0x3d979392	0.07401194
117	0xbea4e97d	-0.32209387
118	0x3daf4695	0.08558384
119	0xbe969c6f	-0.29416224
120	0x3d876d9d	0.06612704
121	0x3e5ac529	0.21364273
122	0xbe5524c6	-0.20814809
123	0xbe4bf8f9	-0.19919194
124	0xbe5d1470	-0.21589828
125	0xbd1571ae	-0.036485367
126	0xbe9f817a	-0.3115347
127	0xbdcd0449	-0.10010583
128	0x3d5f8fce	0.054580502
129	0xbe5c2eb6	-0.21502194
130	0x3e05b587	0.13057528
131	0x3cd9eaa3	0.026601141
132	0x3d6139dc	0.05498682
133	0xbe882123	-0.2658778
134	0x3e3fda74	0.18735677
135	0xbe5a83f8	-0.21339405
136	0x3d34cd96	0.044141375
137	0x3e37f8e7	0.17966042
138	0xbd9412d9	-0.072301574
139	0x3da78c2d	0.08181033
140	0xbe5ace3b	-0.21367733
141	0xbe134faf	-0.14385866
142	0x3de460a8	0.11151248
143	0xbdf90c75	-0.12160579
144	0x3dcfffea	0.101562336
145	0x3bfb5e98	0.0076711886
146	0x3cd8e248	0.026475087
147	0xbe2c1c50	-0.16807675
148	0xbcefdb70	-0.02927944
149	0xbdd0d6f6	-0.101972505
150	0xbdf18224	-0.117924005
151	0xbdc2692d	-0.09492717
152	0xbea96d4a	-0.33091193
153	0x3e425bab	0.18980281
154	0x3e208edb	0.15679495
155	0x3e1eed09	0.15520109
156	0xbd830e98	-0.06399268
157	0x3df47c62	0.11937787
158	0xbda7f4d9	-0.08200998
159	0x3db61145	0.08890013
160	0xbe14a245	-0.14515026
161	0x3d325be6	0.043544672
162	0x3e548c09	0.20756544
163	0x3dd19b11	0.10234655
164	0x3e1ea45a	0.15492383
165	0x3c52a3f6	0.012856474
166	0x3cb55108	0.022133365
167	0xbe248309	-0.16065611
168	0xbe39d3d1	-0.18147208
169	0x3e5bcf44	0.21465784
170	0xbd78c831	-0.060737792
171	0xbe15d175	-0.14630683
172	0xbdc5149e	-0.09623073
173	0xbe43471b	-0.19070093
174	0x3c72898b	0.014803301
175	0x3e1ffeb1	0.15624501
176	0xbcbc97a1	-0.023021521
177	0xbd8820e0	-0.066468954
178	0xbe1b12e9	-0.15143932
179	0xbe134546	-0.14381894
180	0x3e521caf	0.20518754
181	0x3d0d3f02	0.034483917
182	0x3e7c5d2a	0.24644914
183	0xbdce4238	-0.10071224
184	0x3df3410d	0.11877642
185	0xbbe779e8	-0.007064093
186	0xbe8c9284	-0.27455533
187	0x3d82a5aa	0.06379254
188	0x3c0961e6	0.008385157
189	0x3e02052f	0.1269729
190	0xbd640305	-0.055666942
191	0xbd60ee71	-0.054914895
192	0x3e54fff5	0.20800765
193	0xbec4f7ee	-0.38470405
194	0x3df066d2	0.117383614
195	0xbe8d5c4e	-0.27609485
196	0x3dee804d	0.11645565
197	0x3e61a454	0.22035342
198	0x3e793f01	0.2434044
199	0xbdc0d1af	-0.09414994
200	0xbe84eead	-0.25963345
201	0xbdf0b624	-0.117534906
202	0xbc0e0bc5	-0.008669798
203	0xbd220035	-0.03955098
204	0x3e071ef6	0.13195404
205	0x3d97d069	0.07412798
206	0xbe051095	-0.12994607
207	0x3de5186d	0.111862995
208	0xbd24b1b7	-0.040208545
209	0x3e1ae3c0	0.15125942
210	0xbd8325a7	-0.06403666
211	0xbe8863f1	-0.2663875
212	0x3dd5b462	0.10434796
213	0xbeaf7604	-0.34269726
214	0xbe752205	-0.23938759
215	0xbea889ad	-0.32917538
216	0xbd9d76d0	-0.07688677
217	0x3e121038	0.14264
218	0x3dee25c8	0.116283
219	0xbec8fc4e	-0.39254993
220	0xbe8fdba4	-0.2809726
221	0x3d26dea4	0.04073967
222	0xbe15467e	-0.14577672
223	0xbc812a58	-0.015767261
224	0xbe4a3ce1	-0.19749786
225	0x3c25a246	0.01010949
226	0xbedaa57e	-0.42704386
227	0xbcadbf35	-0.021209339
228	0x3e022e37	0.12712942
229	0x3d59486d	0.053047586
230	0xbd1a2595	-0.037633497
231	0xbde30472	-0.11084832
232	0x3e6b2b55	0.22965749
233	0xbea0beb5	-0.31395498
234	0xbed13885	-0.40863433
235	0xbe3ae663	-0.18251948
236	0xbdb96263	-0.09051969
237	0xbe78480e	-0.24246237
238	0xbd9ae3d4	-0.07562986
239	0x3e0b566e	0.13607189
240	0xbe0b39e7	-0.13596307
241	0xbd1c25fa	-0.038122155
242	0xbe770fe9	-0.24127163
243	0xbd295b61	-0.04134691
244	0x3e79c593	0.24391775
245	0x3e472e8b	0.19451348
246	0xbe43894e	-0.19095346
247	0x3c603519	0.0136845345
248	0xbe126d50	-0.14299512
249	0xbdc624ca	-0.09674986
250	0xbe2292eb	-0.15876357
251	0xbe3c2987	-0.18375216
252	0x3e9269b9	0.28596285
253	0xbe111959	-0.14169826
254	0xbe11cc73	-0.14238147
255	0xbe00f395	-0.12592919

bias f4 [32]
0	0xbc51e999	-0.012812042
1	0x3d8481d9	0.06470079
2	0x3d063beb	0.032771986
3	0x3d34c6a9	0.04413477
4	0x3d0dda6c	0.03463213
5	0x3da0e9c6	0.07857089
6	0x3cdb2d3f	0.026754973
7	0xbd75c9c1	-0.06000686
8	0x3df8f2df	0.12155699
9	0xbdbdf63f	-0.09275483
10	0xbe2839f1	-0.16428353
11	0x3e32facc	0.17478484
12	0xbb9a6001	-0.0047111516
13	0xbd8a19b1	-0.067431815
14	0x3e90b445	0.28262535
15	0xbdd86716	-0.10566537
16	0x3e5782a0	0.21045923
17	0xbe32552a	-0.174153
18	0x3e651304	0.22370535
19	0xbc552c32	-0.013011025
20	0x3d3a8d60	0.045544982
21	0x3e0a7e66	0.1352478
22	0x3e24717f	0.1605892
23	0xbe91a0ba	-0.28442937
24	0xbeabc814	-0.33551085
25	0xbc0fb468	-0.00877104
26	0xbee14098	-0.43994594
27	0xbe154278	-0.14576137
28	0x3ce93bef	0.028470961
29	0xbbe2099d	-0.0068981186
30	0xbe12ee13	-0.1434863
31	0xbe4186c8	-0.18899071

weight f4 [2, 32]
0	0x3e0cb2ec	0.13740128
1	0xbe1f8b44	-0.1558047
2	0xbe01582e	-0.12631294
3	0xbda0fc67	-0.07860642
4	0xbe5edcef	-0.21763967
5	0xbda0afb6	-0.07846014
6	0xbe1aec34	-0.15129167
7	0xbe2d222c	-0.16907567
8	0xbdaeccd3	-0.08535161
9	0x3d550167	0.05200329
10	0xbe04dc4c	-0.12974662
11	0x3d878037	0.06616252
12	0x3dd08b2a	0.101827934
13	0xbe2d9806	-0.16952524
14	0x3e441fb3	0.19152717
15	0x3e5bd8e9	0.21469463
16	0xbef41e3f	-0.47679326
17	0xbe087f00	-0.13329697
18	0xbd91042c	-0.07080874
19	0x3de3e505	0.111276664
20	0x3d12c795	0.035834868
21	0x3cf67539	0.030085193
22	0xbec35974	-0.38154185
23	0xbd009d41	-0.03139997
24	0x3e257e3b	0.16161434
25	0x3d81bfb9	0.06335396
26	0x3eb1a1d2	0.34693772
27	0xbe12eb34	-0.14347535
28	0x3da22253	0.07916703
29	0xbcc4e3fa	-0.024034489
30	0x3dfd5b1c	0.12370893
31	0x3e3a4f77	0.18194376
32	0x3d1855b4	0.037191108
33	0x3e1949a1	0.14969493
34	0x3d9d3d49	0.07677705
35	0x3e2f6740	0.1712923
36	0x3ca29567	0.019846631
37	0x3d80c203	0.06287005
38	0x3e26cb26	0.16288432
39	0x3da418cd	0.08012543
40	0xbac012ce	-0.0014654042
41	0x3d2342a5	0.03985848
42	0x3d2f899d	0.042855848
43	0x3d361113	0.044449877
44	0x3e165c14	0.14683563
45	0x3c012a04	0.007883552
46	0x3e5c4cb7	0.2151364
47	0xbd7ddc45	-0.061977644
48	0xbe9babfb	-0.30404648
49	0xbc8d506d	-0.017250264
50	0x3d7a374d	0.061087895
51	0x3cfcbc1b	0.030851414
52	0xbd454544	-0.04816176
53	0xbe441d7f	-0.19151877
54	0xbe096869	-0.13418736
55	0x3dae6aaf	0.08516442
56	0x3e6196f1	0.22030236
57	0xbd9833d3	-0.0743176
58	0x3e9f2aac	0.31087244
59	0xbda16d8e	-0.07882224
60	0x3e48d4da	0.19612446
61	0x3e215549	0.1575519
62	0xbe26fdad	-0.16307707
63	0x3eb85afd	0.3600692

bias f4 [2]
0	0xbca350f3	-0.01993606
1	0xbe099c04	-0.13438421
