docs/notebooks/paper_experiments/results/multitask/decoder_stats/model_multitask_1.pt (torch, 30943 bytes, 13 tensors)

mean f4 [2]
0.031624533 0.6879169
00000000: ba88 013d 521b 303f

range f4 [2]
0.71266115 0.57853127
00000000: f670 363f a01a 143f

weight f4 [32, 2]
-0.3865689 -0.7222333 0.31730267 0.74778116 -0.4497434 -0.81494236 0.11848952 -0.31922808
-0.5839715 0.5610266 0.1657333 0.2915247 -0.3931663 0.15159829 0.86127406 -0.3178458
-0.31782955 -0.85260856 -0.3867393 0.26948732 -0.7008703 0.3268433 -0.80285025 0.7771619
0.23880747 0.59909636 0.3146681 0.6115477 -0.5648908 0.7205742 0.49560598 -0.82158744
0.0908808 -0.21407698 0.17969364 -0.77018577 0.46835586 -0.66464305 -0.28376344 -0.4005536
0.71577406 -0.645144 0.1559604 0.550182 0.55467814 -0.440075 0.55766076 -0.092487074
0.19691543 -0.6758193 0.33683315 -0.5028841 -0.039956704 0.6669505 -0.31084964 -0.7967643
-0.6045246 0.030974474 0.7249468 -0.25807425 -0.6853478 0.22116008 0.6366752 -0.21633884
00000000: 5cec c5be 48e4 38bf 7f75 a23e 966e 3f3f
00000010: c444 e6be 10a0 50bf a2aa f23d dd71 a3be
00000020: 287f 15bf 709f 0f3f fdb5 293e ba42 953e
00000030: 184d c9be 953c 1b3e 757c 5c3f afbc a2be
00000040: 8eba a2be 8e44 5abf b202 c6be 3efa 893e
00000050: 3c6c 33bf 0158 a73e 9887 4dbf 15f4 463f
00000060: f289 743e 615e 193f 2d1c a13e 648e 1c3f
00000070: af9c 10bf 8d77 383f 11c0 fd3e 8e53 52bf
00000080: b61f ba3d ff36 5bbe 9c01 383e e52a 45bf
00000090: 57cc ef3e 0c26 2abf 7149 91be 5d15 cdbe
000000a0: f83c 373f 2828 25bf 15b4 1f3e bad8 0c3f
000000b0: 63ff 0d3f 8351 e1be dbc2 0e3f dd69 bdbd
000000c0: 33a4 493e 7e02 2dbf 6575 ac3e 03bd 00bf
000000d0: a4a9 23bd 45bd 2a3f af27 9fbe bff8 4bbf
000000e0: 20c2 1abf 2ebe fd3c 1d96 393f 4f22 84be
000000f0: f472 2fbf ca77 623e 25fd 223f ee87 5dbe

bias f4 [32]
0.35308284 0.70762813 0.3993433 0.7072616 -0.13672297 -0.7119977 -0.1741133 -0.30598855
-0.15214358 0.19623443 0.121307895 0.7262677 0.8587617 -0.35507235 0.77325016 -0.5197381
-0.076313175 0.31687737 0.27632183 0.41229203 0.38075274 0.3947389 0.20137273 -0.24823241
0.5677508 -0.07280509 0.86882454 0.7015616 0.90958613 0.059050225 0.21954693 0.6163554
00000000: 46c7 b43e 1e27 353f ba76 cc3e 190f 353f
00000010: 1b01 0cbe 7b45 36bf c24a 32be 88aa 9cbe
00000020: 87cb 1bbe aef1 483e 4670 f83d aeec 393f
00000030: cfd7 5b3f 0bcc b5be b9f3 453f 8e0d 05bf
00000040: 154a 9cbd c03d a23e 0e7a 8d3e f117 d33e
00000050: 06f2 c23e 381b ca3e a734 4e3e a330 7ebe
00000060: 1e58 113f d61a 95bd 496b 5e3f 8b99 333f
00000070: a3da 683f a6de 713d e9d0 603e 78c9 1d3f

weight f4 [16, 32]
-0.16310933 0.23064937 -0.18782829 0.045791455 0.070031196 -0.2761206 0.21682708 -0.07145051
0.0051191193 -0.023082381 0.023844788 0.25524342 0.107564285 -0.06979737 0.13526887 -0.14929375
-0.28196847 -0.20607421 -0.08987513 0.03187839 -0.0065634525 0.057071365 -0.17979626 0.0059172083
-0.23350763 -0.051035978 0.23787738 0.056950994 -0.024298456 0.09032274 0.21821396 -0.14895791
-0.0022276537 0.23726575 -0.23406914 -0.0037292968 0.0876946 -0.08630542 -0.00050416315 -0.037071552
-0.17528158 0.052001845 0.0772927 0.15372251 0.29660675 0.041373763 0.08365064 -0.1267853
-0.003813525 -0.20915306 -0.079051964 0.1290082 -0.25225765 0.2324355 -0.16281411 -0.2553514
0.06905282 0.05477994 -0.038022794 -0.011934825 0.19748853 0.075756475 0.30754477 0.08173576
0.19156812 -0.12639509 0.09364961 0.106684126 -0.013355921 -0.02733852 0.018842226 0.10524873
0.1590525 -0.031251844 -0.12023329 -0.06286881 -0.07410937 -0.045577988 0.028380077 0.088126935
0.10317923 0.30716825 0.048962843 0.31970894 0.28761932 -0.23619525 0.08121673 0.066931725
0.28675002 0.048202224 -0.27698085 0.28399077 -0.07761843 0.23605935 -0.08715716 0.21390757
0.20705093 -0.2369131 0.14791465 0.15623228 -0.27844164 0.014275539 -0.29670253 0.11122424
0.008373594 -0.2046292 -0.12990323 0.04131378 -0.18662848 0.03405651 -0.076370694 0.20562233
0.19207329 0.010375569 -0.014504659 0.26711747 0.21930552 -0.10388881 0.03286917 0.20605144
-0.0018971056 0.27720138 -0.22258627 0.29854032 0.060008604 -0.028295707 0.02059158 0.24127772
0.040109575 -0.03391258 -0.24106066 0.21584354 0.16980357 -0.22352989 0.22506398 -0.001323322
-0.0068703336 0.20112354 0.17622305 0.22075194 0.17791203 0.19045554 0.254706 -0.03788359
0.03318217 -0.20705588 -0.15077086 0.10693499 -0.19769245 0.017964918 -0.20206955 -0.26155853
-0.23600376 -0.0689041 0.27969018 -0.05970275 0.15718487 0.06264846 0.28327632 0.051414028
-0.19726455 0.10673192 -0.0478264 0.06555494 0.24476679 -0.09554783 0.3142302 -0.105686255
-0.20777726 0.1754078 0.30006185 0.052488655 0.24146089 -0.11135217 0.098390535 -0.05929484
-0.20230268 -0.109313294 -0.22859345 0.031957816 -0.0051148324 -0.06322851 -0.08502169 -0.0832559
0.040050685 -0.13604954 0.046482805 0.04415461 0.079662725 -0.05433144 -0.00028347824 0.06194337
0.11367794 -0.32414195 0.34720853 0.18386742 -0.0052058343 -0.21289048 -0.18412478 0.32361883
0.3711899 -0.17988071 -0.042494427 -0.08035204 -0.35335332 -0.31291765 -0.19483067 0.26829365
0.35981146 0.1805651 0.014017581 0.106055245 0.01370962 -0.07832328 0.11521285 0.18079653
0.27721563 0.17824127 -0.32649288 0.22587328 -0.25316086 0.022948248 0.010705763 0.111274004
-0.09136757 0.02630763 -0.07917388 -0.10119314 0.009739668 -0.029924478 0.06684819 -0.22690517
-0.080302015 0.25652143 0.15501532 0.16958654 0.06907266 0.13810232 0.15460531 -0.11109554
-0.1962578 -0.24326697 0.06665623 0.035120457 -0.2140859 0.23953891 -0.062922865 -0.092216596
-0.14996427 0.06135968 0.16721082 -0.19205192 0.02811732 -0.036619283 0.3116112 -0.050268624
00000000: 2206 27be 592f 6c3e 0f56 40be d28f 3b3d
00000010: 846c 8f3d ae5f 8dbe eb07 5e3e a554 92bd
00000020: 49be a73b 4317 bdbc 2556 c33c 44af 823e
00000030: aa4a dc3d ecf1 8ebd ec83 0a3e 76e0 18be
00000040: 2c5e 90be 1e05 53be 7410 b8bd ea92 023d
00000050: 3b12 d7bb aac3 693d 831c 38be 24e5 c13b
00000060: a01c 6fbe 1a0b 51bd 2196 733e 7245 693d
00000070: 8e0d c7bc 21fb b83d 7b73 5f3e 6c88 18be
00000080: d4fd 11bb cbf5 723e d2af 6fbe 3867 74bb
00000090: 3a99 b33d e5c0 b0bd d129 04ba 57d8 17bd
000000a0: 047d 33be e3ff 543d a34b 9e3d 6f69 1d3e
000000b0: d7dc 973e 8977 293d 0751 ab3d 01d4 01be
000000c0: 55ec 79bb 382c 56be ffe5 a1bd ba1a 043e
000000d0: ea27 81be 9203 6e3e beb8 26be 6bbd 82be
000000e0: 916b 8d3d ee60 603d cabd 1bbd 498a 43bc
000000f0: 6f3a 4a3e 3626 9b3d 8276 9d3e 1465 a73d
00000100: 6f2a 443e b76d 01be 5ecb bf3d 357d da3d
00000110: cbd2 5abc 08f5 dfbc 035b 9a3c a58c d73d
00000120: a9de 223e ef01 00bd df3c f6bd 5dc1 80bd
00000130: a7c6 97bd fcaf 3abd 567d e83c e57b b43d
00000140: a24f d33d 2845 9d3e 438d 483d e4b0 a33e
00000150: d742 933e 2bdd 71be f554 a63d 8013 893d
00000160: e6d0 923e b26f 453d 6fd0 8dbe 3d67 913e
00000170: 69f6 9ebd 8bb9 713e 747f b2bd 960a 5b3e
00000180: 2905 543e 5999 72be f076 173e 5bfb 1f3e
00000190: e78f 8ebe f3e3 693c 65e9 97be 89c9 e33d
000001a0: 6631 093c 518a 51be 5a05 05be a338 293d
000001b0: 891b 3fbe d77e 0b3d 3d68 9cbd a98e 523e
000001c0: dcae 443e 4afe 293c f3a4 6dbc 9fc3 883e
000001d0: a091 603e a8c3 d4bd d3a1 063d 26ff 523e
000001e0: 4da8 f8ba 57ed 8d3e a8ed 63be 47da 983e
000001f0: 95cb 753d 66cc e7bc acaf a83c 8211 773e
00000200: f049 243d ebe7 0abd 9bd8 76be 1706 5d3e
00000210: fde0 2d3e 05e5 64be 2c77 663e 5173 adba
00000220: 8920 e1bb 54f3 4d3e d173 343e cc0c 623e
00000230: 922e 363e c706 433e d368 823e d32b 1bbd
00000240: 07ea 073d 7506 54be ad63 1abe bb00 db3d
00000250: e46f 4abe 2a2b 933c 52eb 4ebe 00eb 85be
00000260: f8aa 71be 981d 8dbd 8d33 8f3e df8a 74bd
00000270: 12f5 203e d64d 803d 9809 913e 8497 523d
00000280: b8ff 49be 4496 da3d 9de5 43bd ab41 863d
00000290: 25a4 7a3e 95ae c3bd c8e2 a03e 0972 d8bd
000002a0: 90c3 54be 1a9e 333e b5a1 993e 58fe 563d
000002b0: 8641 773e 9b0c e4bd fa80 c93d 25df 72bd
000002c0: 6f28 4fbe a6df dfbd 6714 6abe 33e6 023d
000002d0: 539a a7bb f37d 81bd da1f aebd 1282 aabd
000002e0: 300c 243d 9250 0bbe c164 3e3d 77db 343d
000002f0: 3626 a33d a58a 5ebd ce9f 94b9 55b8 7d3d
00000300: fbcf e83d eff5 a5be 51c5 b13e be47 3c3e
00000310: b495 aabb f6ff 59be 358b 3cbe 5eb1 a53e
00000320: 9a0c be3e a632 38be a30e 2ebd 9c8f a4bd
00000330: baea b4be be36 a0be b181 47be c95d 893e
00000340: 3539 b83e 0fe6 383e ffa9 653c 7e33 d93d
00000350: 509e 603c f567 a0bd b7f4 eb3d ba22 393e
00000360: 35ef 8d3e e184 363e 132a a7be 534b 673e
00000370: 4d9e 81be f7fd bb3c 3967 2f3c a0e3 e33d
00000380: ec1e bbbd 1983 d73c ea25 a2bd 593e cfbd
00000390: 2193 1f3c 2e24 f5bc b4e7 883d d459 68be
000003a0: 6275 a4bd c756 833e 56bc 1e3e 18a8 2d3e
000003b0: f775 8d3d b26a 0d3e db50 1e3e 0f86 e3bd
000003c0: cef7 48be fa1a 79be 1083 883d 78da 0f3d
000003d0: 5639 5bbe b049 753e b4dd 80bd 0edc bcbd
000003e0: 3c90 19be 4a54 7b3d 5039 2b3e 42a9 44be
000003f0: 4b56 e63c 1afe 15bd 818b 9f3e 79e6 4dbd

bias f4 [16]
0.22463061 0.32055756 0.16248411 0.16691731 0.21669288 -0.014600163 0.2229815 -0.0028735416
0.063799225 0.08314539 -0.021581082 0.038118638 0.3080902 0.13797884 0.040656354 0.3032038
00000000: 9105 663e 1f20 a43e 3c62 263e 5fec 2a3e
00000010: bde4 5d3e 8635 6fbc 4355 643e 0752 3cbb
00000020: 2ba9 823d 2148 aa3d cfca b0bc 4a22 1c3d
00000030: 00be 9d3e 534a 0d3e 4787 263d 873d 9b3e

weight f4 [1, 16]
-0.36147973 -0.23138124 0.2930234 0.3033966 -0.21548747 -0.19647008 0.18995659 -0.14195004
-0.1795788 0.31303442 0.22309142 -0.16639972 -0.21324039 0.40217963 0.30433312 -0.3023643
00000000: df13 b9be 34ef 6cbe 2a07 963e cd56 9b3e
00000010: bfa8 5cbe 742f 49be fb83 423e 5a5b 11be
00000020: 81e3 37be 0c46 a03e 1472 643e b064 2abe
00000030: b05b 5abe 7dea cd3e 8dd1 9b3e 7ecf 9abe

weight f4 [16, 1]
0.73329 -0.8445739 0.86824214 -0.53643334 -1.0551485 0.19848305 0.8193808 -0.74138576
0.59930044 0.021229101 0.9009807 -0.78930634 0.73182696 -0.47463807 0.5046859 0.8251759
00000000: e5b8 3b3f ff35 58bf 1e45 5e3f b253 09bf
00000010: 1b0f 87bf 243f 4b3e f1c2 513f 75cb 3dbf
00000020: c16b 193f a7e8 ad3c aca6 663f fb0f 4abf
00000030: 0359 3b3f c303 f3be 1833 013f ba3e 533f

bias f4 [16]
-0.6869033 -0.9161358 0.123837076 0.3102555 0.26540995 1.0086468 0.19299467 -0.98882735
0.95197433 0.5286558 -0.050057847 0.877565 0.85977334 -0.5100393 0.1026884 -0.24675861
00000000: e5d8 2fbf e087 6abf 4b9e fd3d cfd9 9e3e
00000010: d0e3 873e 571b 813f 65a0 453e ca23 7dbf
00000020: 97b4 733f fd55 073f 7509 4dbd 1aa8 603f
00000030: 1b1a 5c3f f091 02bf 4c4e d23d 4aae 7cbe

weight f4 [32, 16]
0.15824392 0.1191567 0.13554369 0.22042663 -0.1264801 -0.029296093 -0.15775007 -0.013956795
-0.24349546 -0.11522085 -0.32063892 0.11856261 -0.17626783 -0.014642279 0.0758743 -0.2934671
-0.18459892 0.13799916 -0.018550988 -0.07919798 0.2579183 -0.24771169 0.12256139 -0.17442022
0.0831933 0.18666276 -0.07953427 -0.17347884 -0.16227983 -0.0743656 -0.03426209 -0.27222824
0.14961074 0.19338694 -0.21640113 -0.27350298 -0.32342523 0.13358936 -0.041613746 -0.14021851
0.20470046 -0.2246167 0.07235101 -0.1513378 0.17008732 -0.1402667 0.06042322 -0.14850847
0.23697501 0.17786351 -0.07548262 -0.15139744 -0.024757475 0.074906364 0.15974168 0.1915287
0.0025585003 -0.29644433 0.2785423 -0.07981077 -0.033462975 -0.007122414 0.21175954 0.035661805
-0.04754874 -0.017046144 0.037576485 -0.1988993 -0.021734813 -0.027804768 0.059906963 -0.23246618
-0.06688555 -0.16133554 0.050951734 0.28428993 -0.0730961 0.2258305 0.24933946 0.18281393
-0.2820864 -0.14519534 0.018657906 -0.04645449 0.2081189 0.091716126 -0.17944446 -0.05895711
0.04775328 -0.17143218 0.1733421 0.07123663 0.07616191 0.103890926 -0.21613158 -0.088347085
0.16257259 -0.11181883 0.06315148 0.016441103 0.1366359 -0.089439854 0.20813142 -0.0020769222
-0.20661007 -0.099104784 -0.023763156 0.19964035 0.04435011 -0.18396491 -0.24545506 0.07732757
-0.117922924 -0.06209138 0.203047 -0.188564 -0.109339096 0.010540583 -0.0061525195 -0.1839893
0.06874393 -0.03550242 0.13867584 0.14219293 0.17613111 0.024329204 0.054155424 -0.06484009
-0.18918076 -0.18830208 -0.018594017 -0.12515934 -0.03683466 0.06721671 -0.10159336 -0.008125948
0.06757964 -0.20052673 -0.0927243 -0.17014489 -0.17573336 -0.096868165 0.22575152 0.113645695
-0.31219435 -0.08592659 -0.19690564 0.20073926 -0.0033098294 0.08572736 -0.07568591 0.10911647
-0.051414285 -0.18130533 0.07499073 0.19057585 0.105730064 0.0035787951 -0.19001138 -0.24531874
0.09042746 -0.14965929 -0.026898645 -0.054741383 -0.0845684 -0.2605637 -0.32759136 -0.00811075
-0.07499811 -0.19144517 -0.28878418 0.17909165 -0.2713366 0.020382239 -0.3305223 -0.36027855
-0.1022348 -0.31300077 -0.31721404 0.46418515 0.044497266 -0.2858054 -0.41119206 -0.05446321
-0.414661 0.25719893 -0.324306 0.26323304 -0.41273588 0.16997057 -0.54619783 -0.17230405
0.1278584 0.121882915 -0.048865996 0.14622019 0.0085406825 0.106759556 -0.12930398 -0.21928056
-0.07195309 0.1480226 -0.17934173 0.19592531 -0.0021605492 0.10397442 0.18391559 0.026710039
-0.09968133 0.17748198 0.03977706 -0.28921866 -0.2920501 -0.022698367 -0.1590819 0.033066485
0.23561543 0.07510745 -0.16201626 -0.24487814 0.09757293 -0.21043661 -0.057584643 0.068064496
-0.030695176 0.05869793 -0.15542671 0.19137934 -0.09634208 0.21475756 0.0021851985 0.17530581
-0.19255301 0.07925172 -0.33390167 0.16445841 -0.21653213 -0.16457509 0.09608955 0.14013915
0.0871191 -0.081031755 0.09493844 0.04715197 -0.13538328 -0.23470008 0.19749372 0.022933677
0.022357222 0.0854942 -0.042829838 -0.008656669 0.2130444 -0.07020804 -0.22837564 -0.1567505
00000000: b20a 223e 6e08 f43d f7cb 0a3e 85b7 613e
00000010: 0084 01be 5cfe efbc 3c89 21be 0bab 64bc
00000020: e056 79be e9f8 ebbd c92a a4be f4d0 f23d
00000030: 8e7f 34be 2be6 6fbc fc63 9b3d 5241 96be
00000040: 8007 3dbe a74f 0d3e 3ef8 97bc 8d32 a2bd
00000050: de0d 843e 22a8 7dbe 7701 fb3d 379b 32be
00000060: 4061 aa3d 8624 3f3e dde2 a2bd 70a4 31be
00000070: af2c 26be fe4c 98bd 6856 0cbd 8061 8bbe
00000080: 8f33 193e 3a07 463e 4298 5dbe 9508 8cbe
00000090: fe97 a5be a6cb 083e 2d73 2abd 7195 0fbe
000000a0: ff9c 513e ec01 66be c42c 943d 4cf8 1abe
000000b0: 5f2b 2e3e 13a2 0fbe 577e 773d 9b12 18be
000000c0: 94a9 723e da21 363e a296 9abd ee07 1bbe
000000d0: 30d0 cabc 8268 993d 5393 233e 1920 443e
000000e0: 83ac 273b 8dc7 97be 199d 8e3e d473 a3bd
000000f0: 7910 09bd 2463 e9bb 7ed7 583e 1d12 123d
00000100: 78c2 42bd 5ba4 8bbc cde9 193d 42ac 4bbe
00000110: 350d b2bc d3c6 e3bc 0161 753d 9d0b 6ebe
00000120: 4bfb 88bd 2535 25be c4b2 503d 738e 913e
00000130: 68b3 95bd 1c40 673e d852 7f3e 9333 3b3e
00000140: a16d 90be 16ae 14be 77d8 983c 1047 3ebd
00000150: 1f1d 553e aad5 bb3d 4ac0 37be 037d 71bd
00000160: f198 433d eb8b 2fbe 9780 313e 83e4 913d
00000170: c7fa 9b3d c4c4 d43d 9951 5dbe 51ef b4bd
00000180: 6e79 263e 4501 e5bd 9055 813d 7eaf 863c
00000190: 48ea 0b3e 3e2c b7bd 6720 553e f91c 08bb
000001a0: 9791 53be 73f7 cabd f3aa c2bc 856e 4c3e
000001b0: 76a8 353d 4c61 3cbe 9258 7bbe eb5d 9e3d
000001c0: 9381 f1bd 8853 7ebd 8eeb 4f3e ec16 41be
000001d0: 2ded dfbd 69b2 2c3c 139b c9bb b167 3cbe
000001e0: 9ec9 8c3d fc6a 11bd 0a01 0e3e 069b 113e
000001f0: b75b 343e 0a4e c73c 14d2 5d3d e2ca 84bd
00000200: 9ab8 41be 43d2 40be 7b52 98bc c529 00be
00000210: f1df 16bd eaa8 893d 2e10 d0bd b222 05bc
00000220: 3267 8a3d e156 4dbe 3de6 bdbd 763a 2ebe
00000230: 72f3 33be d162 c6bd 682b 673e 13bf e83d
00000240: f0d7 9fbe 48fa afbd a2a1 49be 988e 4d3e
00000250: b9e9 58bb d391 af3d 3701 9bbd 7578 df3d
00000260: c997 52bd 1ba8 39be bd94 993d 5126 433e
00000270: 0189 d83d 388a 6a3b 5892 42be d634 7bbe
00000280: 0832 b93d 4940 19be 8c5a dcbc 8038 60bd
00000290: 3332 adbd 9b68 85be 0eba a7be f3e2 04bc
000002a0: 9c98 99bd 340a 44be 85db 93be cd63 373e
000002b0: a1ec 8abe a7f8 a63c 383a a9be 6e76 b8be
000002c0: 7b60 d1bd a341 a0be e169 a2be ada9 ed3e
000002d0: c442 363d 1655 92be c487 d2be d114 5fbd
000002e0: 724e d4be 94af 833e 700b a6be 7bc6 863e
000002f0: 1e52 d3be c40c 2e3e 9fd3 0bbf 7970 30be
00000300: 50ed 023e c09d f93d b627 48bd bfba 153e
00000310: 38ee 0b3c c1a4 da3d 4368 04be 158b 60be
00000320: 245c 93bd 3d93 173e 5ca5 37be a5a0 483e
00000330: 0098 0dbb 8af0 d43d 5e54 3c3e 03cf da3c
00000340: ba25 ccbd d6bd 353e 45ed 223d 7814 94be
00000350: 9787 95be edf1 b9bc 5ee6 22be b970 073d
00000360: 2c45 713e efd1 993d 97e7 25be 56c1 7abe
00000370: 51d4 c73d b27c 57be e0dd 6bbd 6665 8b3d
00000380: 7374 fbbc 3e6d 703d 2e28 1fbe f2f8 433e
00000390: ff4e c5bd 68e9 5b3e 8c35 0f3b 5e83 333e
000003a0: 9e2c 45be ba4e a23d 29f5 aabe c967 283e
000003b0: 99ba 5dbe 5f86 28be 99ca c43d a380 0f3e
000003c0: 806b b23d faf3 a5bd 166f c23d 6d22 413d
000003d0: eaa1 0abe 3855 70be cb3b 4a3e 68df bb3c
000003e0: 7e26 b73c 9517 af3d 576e 2fbd b4d4 0dbc
000003f0: 5028 5a3e 3cc9 8fbd 4edb 69be 3483 20be

bias f4 [32]
-0.060979236 0.19954447 0.019722769 0.14162906 0.093277976 -0.12848926 -0.05726632 0.01918387
0.23994198 0.16713545 -0.06961471 -0.071984895 -0.12390139 -0.049132958 0.10176816 -0.1809184
-0.1110144 -0.40647662 0.052768577 0.037575167 -0.12583967 -0.49459773 0.020770848 0.017907023
-0.13457258 0.063468285 -0.1470292 0.01226066 0.13848941 -0.23972751 -0.21464486 -0.06625104
00000000: 5dc5 79bd 6355 4c3e a591 a13c 3507 113e
00000010: 8608 bf3d b092 03be 1790 6abd 7e27 9d3c
00000020: 5ab3 753e 8e25 2b3e 2892 8ebd d16c 93bd
00000030: 03c0 fdbd a43f 49bd d36b d03d ac42 39be
00000040: 855b e3bd b41d d0be dd23 583d 6be8 193d
00000050: 1ddc 00be ea3b fdbe a027 aa3c c0b1 923c
00000060: 65cd 09be a9fb 813d d38e 16be efe0 483c
00000070: 2bd0 0d3e 217b 75be ddcb 5bbe a0ae 87bd

weight f4 [2, 32]
-0.10632073 -0.14654295 0.2383561 -0.11800079 -0.0478659 -0.08888825 -0.1375717 0.09093259
0.13686363 -0.09991461 -0.19797093 -0.31666172 -0.11082774 0.2650364 -0.18535054 -0.07704384
-0.011911672 0.27563468 0.14501207 -0.21729296 0.13740857 0.23139241 0.15109536 0.08960853
-0.08777103 0.14493372 0.21699344 -0.043843057 -0.11603443 -0.16847931 -0.0012900966 -0.25622475
0.07517965 0.072789095 -0.13706061 0.0036024465 -0.15733236 0.12468384 0.10036491 -0.021091573
-0.0090032155 0.041845046 -0.014900729 -0.2259382 0.1270982 -0.14256983 0.08369947 0.07256369
0.14386004 0.23439898 0.063374 -0.17117763 -0.20304115 0.18229553 0.008844701 0.051875655
0.06894689 -0.11056162 0.16948411 -0.12500572 -0.09652042 0.11397786 -0.12823881 -0.08588621
00000000: afbe d9bd 5b0f 16be 9f13 743e 66aa f1bd
00000010: 090f 44bd 0b0b b6bd 99df 0cbe de3a ba3d
00000020: fb25 0c3e 08a0 ccbd e4b8 4abe 7c21 a2be
00000030: a7f9 e2bd dab2 873e 88cc 3dbe 29c9 9dbd
00000040: 2c29 43bc fd1f 8d3e 0b7e 143e 0c82 5ebe
00000050: d5b4 0c3e 22f2 6c3e beb8 1a3e ad84 b73d
00000060: 4cc1 b3bd 8169 143e 8733 5e3e c794 33bd
00000070: 76a3 edbd d785 2cbe 7518 a9ba e42f 83be
00000080: caf7 993d 7312 953d 9e59 0cbe 0617 6c3b
00000090: bc1b 21be 3e5a ff3d 1e8c cd3d 3cc8 acbc
000000a0: 3982 13bc b665 2b3d 3022 74bc 585c 67be
000000b0: 0826 023e d3fd 11be a16a ab3d 469c 943d
000000c0: 0c50 133e 4906 703e 3aca 813d 3049 2fbe
000000d0: 05ea 4fbe aeab 3a3e 5de9 103c 917b 543d
000000e0: 0734 8d3d 216e e2bd 3e8d 2d3e 8001 00be
000000f0: 7fac c5bd 396d e93d 0951 03be 1ce5 afbd

bias f4 [2]
0.05312336 -0.1770441
00000000: e197 593d 0c4b 35be
