docs/notebooks/paper_experiments/results/unsupervised/iter_9/model_autoencoder_9.pt (torch, 32391 bytes, 13 tensors)

mean f4 [2]
000000 46 df 1f bf 4e 00 93 3f
       -0.62450063 1.1484468

range f4 [2]
000000 6d 7b bd 3e 27 ac d2 3e
       0.3700823 0.41146967

weight f4 [20, 2]
000000 24 9c 25 3f e6 5d 0a 3e 6a fa a8 3f d7 8a 91 bf
       0.64691377 0.13512382 1.320142 -1.1370496
000010 a5 53 8d bf 56 ff 5a be 4c 60 e8 3e 83 13 21 3f
       -1.1041151 -0.21386465 0.4538597 0.629204
000020 28 28 94 bf f8 87 6d bf 21 af a0 3e a4 5f a7 3f
       -1.1574755 -0.92785597 0.31383613 1.3076062
000030 cc 24 84 3f b0 4d 25 bf b3 d0 7e 3e 58 27 6f 3f
       1.032373 -0.64571667 0.248843 0.9341941
000040 e6 79 35 3f a6 88 c4 3c c3 2a 06 3f 1c cb 28 3f
       0.7088913 0.02399094 0.52409 0.6593492
000050 5b 5d 9c 3e 7d 2f 92 3f 40 42 98 3f e7 b6 5e bf
       0.30539975 1.1420742 1.1895218 -0.86997837
000060 48 51 41 bf 58 d6 47 bf 35 fe 34 bf ad 64 56 be
       -0.7551465 -0.7806144 -0.7070039 -0.20936842
000070 da 2b 8a bd b3 20 5b bf a3 2b 9c 3e 88 30 40 3f
       -0.06746645 -0.8559677 0.30502042 0.7507405
000080 0a ac 90 3f 89 c3 9a bf 02 bb 45 3f fa e4 b5 3e
       1.1302502 -1.2090923 0.77238476 0.35526258
000090 2e df 5d 3f 02 40 af be 8d b4 69 bf 6b ff 84 be
       0.8666867 -0.34228522 -0.91291124 -0.25976118

bias f4 [20]
000000 ef 43 8a 3f 9d 89 ab bd c1 76 c2 bd 2e 64 9d 3f
       1.0801982 -0.08375857 -0.09495307 1.2296197
000010 f8 00 be be b8 a6 86 3f 97 ec 5a 3f 7b 5c a4 3e
       -0.37110114 1.0519629 0.8551726 0.32101807
000020 44 f8 9c 3e da f5 61 3d 6e 47 ab 3f 67 65 86 be
       0.30658162 0.055166103 1.3381174 -0.2624924
000030 99 3e 46 3e 0b 66 1a 3f c7 55 a7 be 50 63 04 3e
       0.19359817 0.60311955 -0.3268263 0.1292851
000040 f9 f8 1f bf 18 c1 75 3f b5 55 20 bf d1 00 cd 3d
       -0.6248928 0.9599776 -0.6263078 0.10009921

weight f4 [20, 20]
000000 9e d4 0f bf ae 68 27 bf ce 7c 05 3f c2 51 a8 be
       -0.56183803 -0.65394104 0.5214356 -0.32874876
000010 19 e3 0e 3f a6 f5 16 bf a7 7d f7 be 88 87 46 be
       0.55815274 -0.5896858 -0.48338053 -0.19387639
000020 77 bd de be 01 2b dc be 1c 1a 28 bf 32 bc 16 bf
       -0.43503925 -0.4300156 -0.6566484 -0.58880913
000030 79 c7 a7 3e 05 03 04 3f b5 62 4d 3d 47 a7 20 be
       0.32769373 0.5156711 0.050142962 -0.15688811
000040 af 89 90 be de 87 18 bf 09 17 23 be 99 7b 9d 3e
       -0.28230044 -0.59582317 -0.15926756 0.3075836
000050 0e 96 0c 3f 1e 1c 1f bf bc 20 fa be 8b 45 19 3f
       0.54916465 -0.6215228 -0.488531 0.5987174
000060 a3 56 e9 be 13 94 5c 3f 75 fb e8 be 20 a7 33 3f
       -0.4557391 0.86163443 -0.45504346 0.7017689
000070 05 aa e5 bb 6a 18 07 3e e5 b4 4f 3f 0d 2c 24 bf
       -0.0070087933 0.13192907 0.811354 -0.64129716
000080 ab b3 19 bf ab 8e 52 3e f6 eb 62 bf 51 a5 e6 3e
       -0.60039777 0.20562236 -0.886413 0.45048
000090 08 4b 9a bf d1 69 08 3f 7d 10 22 bf 32 34 57 be
       -1.2054148 0.53286463 -0.6330641 -0.21016005
0000a0 ee 21 9d be a0 a0 07 bf 79 5f d3 3e 74 8c 8f be
       -0.3068995 -0.5297947 0.41283777 -0.28036845
0000b0 36 fa 28 3f 99 c4 0f bf bd f0 f3 be f6 aa cd bd
       0.6600679 -0.5615936 -0.47644606 -0.10042374
0000c0 df cf e2 be 44 17 d4 be e1 db 09 bf 39 8c 83 be
       -0.44299218 -0.41424 -0.53851134 -0.2569292
0000d0 ba c2 04 3f c6 a6 cf 3d cb 92 38 3e df ed c2 be
       0.5185963 0.101392314 0.18024747 -0.38072106
0000e0 e8 c4 cc be 7c ea bf be d3 ab d0 bc 68 9a d5 3e
       -0.39993978 -0.37483585 -0.025472557 0.41719365
0000f0 87 3d 17 bf 80 1a b5 be 1b b8 01 3f 81 c4 f4 be
       -0.5907826 -0.3537178 0.5067155 -0.4780617
000100 72 99 e4 3e db 6c 08 bf 9c 83 17 bf 3e 22 c7 bd
       0.4464832 -0.532911 -0.59185195 -0.09723328
000110 0b 00 37 bd 5f d6 a6 be c1 e5 1f be 0f e2 eb be
       -0.044677775 -0.32585427 -0.15614988 -0.46070907
000120 f5 86 43 3e a6 9f 0b 3f 5d 34 b8 3d 18 39 c1 be
       0.19094451 0.5454048 0.089943625 -0.37738872
000130 ae 67 28 be b1 aa c3 be ef eb 49 be ee 1a ea 3e
       -0.164458 -0.38216165 -0.19718908 0.4572367
000140 ab d1 20 3e 45 c5 b4 be 95 e3 e7 be cf d0 e8 3e
       0.15704982 -0.35306755 -0.4529082 0.45471808
000150 15 2e 9f be ec 08 19 3f 2a c6 b8 be 4c 79 a9 3e
       -0.31089845 0.5977924 -0.36088687 0.33100355
000160 89 88 54 be 7f fa 7e 3e 24 20 d2 3e 72 3f ed be
       -0.20755209 0.24900244 0.41040146 -0.46337467
000170 74 6d 4e bd 1d 51 e2 3d d1 df fd be 1e 77 8d 3d
       -0.05039735 0.110506274 -0.4958482 0.069074854
000180 41 ab 2a bf 97 43 6a 3d e2 5d d4 be 36 a5 1b 3c
       -0.6666756 0.057193365 -0.41477877 0.009499839
000190 ab cb 15 3e f3 d9 ba be d1 9c a1 be e4 5e 16 3e
       0.14628474 -0.36494407 -0.31564954 0.14684635
0001a0 0d 6b 43 be a8 7c f6 3e 16 18 d3 bd bb 05 9c 3e
       -0.19083805 0.4814198 -0.103073284 0.30473122
0001b0 8b 1c ee bd 94 1f 48 bc 1e ba 23 3f 9f 78 9c be
       -0.11626538 -0.01221456 0.6395587 -0.30560777
0001c0 55 8a aa be 9a 48 9b 3e 5d 99 1c bf 02 f4 98 3e
       -0.33308664 0.30328828 -0.61171514 0.29873663
0001d0 d7 28 3d bf 14 3c 0d 3e a8 05 b0 be 2e 5c e2 bd
       -0.7389044 0.13792449 -0.34379315 -0.11052738
0001e0 30 bf 21 bf d4 dc fa be b0 8f 04 3f c0 2c 25 bf
       -0.63182354 -0.48996603 0.5178175 -0.6452141
0001f0 a1 9e e8 3e 04 81 cf be 2e 87 42 bf c9 6a 8a be
       0.45433524 -0.4052812 -0.7598752 -0.27034596
000200 c9 e5 f8 be 0f 23 03 bf 8c 8f 05 bf ec 54 bc be
       -0.48612812 -0.5122537 -0.5217216 -0.3678354
000210 ff fa fd 3e 1e c6 f5 3e 12 7b 52 3e 23 b3 14 be
       0.49605557 0.48002714 0.2055476 -0.1452146
000220 cf 59 16 bf a1 25 1d bf ed 38 99 be a3 d7 1e 3f
       -0.5873079 -0.6138554 -0.29926243 0.62047786
000230 4e 6e 09 bf a4 f8 e1 be 30 7b b6 3e 2c 37 13 bf
       -0.53683937 -0.4413501 0.3564086 -0.5750606
000240 60 d5 98 3e 0b 6b bf be fa 0f 83 be 02 77 84 be
       0.29850292 -0.37386355 -0.25598127 -0.25872046
000250 c3 07 ce be b9 3d e4 be a5 4f e1 be d8 be 67 be
       -0.40240297 -0.4457834 -0.44006076 -0.22631395
000260 32 14 33 3e 72 09 f8 3e d8 ef e5 3c b7 fe d3 bd
       0.17488173 0.48444706 0.028068468 -0.103513174
000270 49 54 a1 be 43 96 fa be 7a e6 bb be fe cf 06 3f
       -0.31509617 -0.48942766 -0.36699277 0.5266112
000280 06 b6 73 3e 80 f3 d2 be 64 b7 c8 3d 88 e2 fd 3d
       0.23799905 -0.412014 0.09800604 0.12396723
000290 62 89 8c be e2 c4 58 3e e3 1e ac bd 3c 28 ad 3c
       -0.27448565 0.21168855 -0.08404329 0.02113735
0002a0 04 1e b2 3d ee e7 4b 3e 30 90 a1 3e c8 98 a1 be
       0.08697131 0.19912693 0.3155532 -0.31561875
0002b0 63 b1 a0 be 61 5b f6 3c c2 82 b9 be dd 71 56 3d
       -0.31385335 0.03007287 -0.36232573 0.052354682
0002c0 ba 51 ee be 80 40 0a be ae 2d ad be be da 68 be
       -0.46546727 -0.13501167 -0.33823913 -0.22739694
0002d0 9b 08 22 3e 0b 08 28 bf 5f d2 cb be c7 5e 99 3e
       0.15823595 -0.6563727 -0.39808938 0.29955122
0002e0 0c e0 ac be 39 a6 32 3f 2e 58 23 be ad 42 26 3e
       -0.33764684 0.69784886 -0.15951607 0.16236372
0002f0 77 f3 5c bd 74 33 8c 3d 72 f5 c0 3e 56 39 6d be
       -0.053943124 0.068457514 0.3768726 -0.23166403
000300 e6 79 75 be 2c 27 64 3d ee 8c 1e bf 84 c5 d0 3e
       -0.23972282 0.05570142 -0.6193379 0.40775692
000310 f6 c9 74 bf 9a e2 19 3d b0 8d 70 be f4 ae 8f bd
       -0.9562067 0.03756962 -0.2349155 -0.070157915
000320 d0 61 87 3c 71 c4 93 3d 71 a4 a9 3e 7b 10 ce be
       0.016526133 0.072152026 0.3313327 -0.4024695
000330 5b c6 b0 3e 9c f7 06 bf 01 1c 68 3d 5a 20 3a be
       0.34526333 -0.5272157 0.05666733 -0.18176404
000340 7d 53 82 be 09 b8 92 be 4e c8 de be 16 2c 90 3d
       -0.25454322 -0.28656033 -0.43512195 0.07039659
000350 78 7a d5 3e d3 fa e5 3e dd f1 9b bd b0 b9 d4 bd
       0.41695 0.44917926 -0.07614491 -0.103869796
000360 0d e7 94 be 81 ee 07 be 8f 8e 66 be 9f d5 98 3e
       -0.29082528 -0.13274576 -0.2251532 0.2985048
000370 72 69 3c 3e f5 fe 01 bf ed 68 1e be 00 4e 86 3e
       0.18399599 -0.5077966 -0.15469714 0.26231384
000380 f9 6f 38 be c7 ff 0f 3f 5f fa 9d 3d 7d 1a c6 3e
       -0.18011464 0.5624966 0.0771377 0.38692084
000390 89 88 74 bd 05 ba 2a be ae 6b 1e 3e 64 6e 92 be
       -0.059700523 -0.16672523 0.15470764 -0.28599846
0003a0 a3 2e a4 be d8 d2 06 3d da 65 8b be 67 3c 7b 3e
       -0.3206683 0.03291592 -0.27226144 0.2453476
0003b0 ce ef 41 bf 00 57 5b 3e 82 b3 05 bf fc 07 41 be
       -0.7575654 0.21419907 -0.5222703 -0.18850702
0003c0 50 36 17 3e 2d 52 43 be 58 57 7f be 81 4c c0 3e
       0.14766812 -0.19074316 -0.24935663 0.37558368
0003d0 be 03 b4 be d0 e1 13 3f 91 ce 5e be 41 97 17 3e
       -0.35159105 0.5776644 -0.21758486 0.14803793
0003e0 7d c1 82 be 96 68 38 3e 50 48 5a 3e e1 1a 89 be
       -0.25538245 0.18008646 0.21316648 -0.2677832
0003f0 7b 13 1c bd 05 5c 5f bd 0b e2 05 be 22 ce a9 3e
       -0.038104516 -0.054531116 -0.1307451 0.3316508

bias f4 [20]
000000 24 ae 69 be 7d aa 7d 3f f1 2b dd bd 4a 4d e9 be
       -0.22820336 0.9908827 -0.10799397 -0.4556678
000010 53 d0 45 3f 83 00 75 3e f0 ac 95 be 65 85 8c be
       0.77271 0.23925976 -0.29233503 -0.27445522
000020 96 8d f7 3e fe 6f 50 3f 88 72 69 3d 7e 5f 38 3e
       0.4835021 0.81420887 0.05699399 0.18005177
000030 24 62 02 3f 64 c0 10 bf 38 79 60 3e ca e8 23 bf
       0.50931 -0.56543565 0.21921241 -0.6402708
000040 a9 ba 81 be bf f1 1b 3f 5c 58 2a 3e 4a 64 40 be
       -0.25337723 0.6091575 0.16635269 -0.18788257

weight f4 [1, 20]
000000 2b 7a 0c 3f 8c d2 1c bf 41 70 f2 3e 47 a3 e7 3e
       0.54873914 -0.6125877 0.47351268 0.45241758
000010 48 df 1d bf 2b 3a 9d be a3 58 25 3f d4 4e cd 3e
       -0.61668825 -0.3070844 0.64588374 0.40099204
000020 26 ae e4 be b3 48 3c bf dd f3 bf 3e 23 31 e1 be
       -0.44664115 -0.7354843 0.3749074 -0.439828
000030 fe 24 a1 be 74 9b e8 3e b9 7d 04 bf 1e 5e cb 3e
       -0.31473535 0.454311 -0.5175434 0.39720243
000040 72 a3 dd 3e 18 c7 db be 14 1a e0 be 41 92 25 3e
       0.4328876 -0.42925334 -0.43769896 0.16169073

weight f4 [20, 1]
000000 0c aa b9 3e bf d4 02 bf f9 6a 1a 3f 29 d8 90 3f
       0.36262548 -0.51105875 0.6031948 1.1315967
000010 c5 47 20 3f e1 fa 80 bc be 51 18 bf bc 34 ad 3f
       0.6260951 -0.015744628 -0.5949973 1.3531718
000020 95 4e 06 bf db f1 e9 be 78 c7 1d bf 57 e5 9e 3f
       -0.52463657 -0.45692334 -0.6163249 1.2413739
000030 5c 2b 16 3f 39 87 b1 3f 49 87 b0 3f b5 5e 7e 3f
       0.5865991 1.3869392 1.3791286 0.9936326
000040 53 c5 55 be 76 a3 5b bf 93 d1 85 3f 2d ff 7a bf
       -0.20876054 -0.85796297 1.0454582 -0.9804562

bias f4 [20]
000000 44 26 89 bf f3 91 88 bf 98 12 a1 3e e2 bd da 3e
       -1.0714803 -1.066954 0.31459498 0.42722994
000010 80 fa 10 3e 3c 9a 89 bf 77 e2 79 3f 06 6e ac be
       0.14158058 -1.0750194 0.9761118 -0.3367769
000020 ba e9 86 3f 3e a1 51 bf 22 30 e3 3f ed f0 27 3f
       1.0540078 -0.8188666 1.7749064 0.65602
000030 10 7c 53 bf 77 be da 3e d4 7e 08 3f 4a 32 09 3f
       -0.8261118 0.42723438 0.53318524 0.5359236
000040 65 7a bd 3d 75 b3 13 3e e5 a8 09 bf 8e 5d 67 3f
       0.092518605 0.14423926 -0.5377334 0.9037713

weight f4 [20, 20]
000000 d7 bf 1c 3d 84 ca 9e 3e a2 64 e6 3c 53 7b 95 be
       0.03826889 0.31013882 0.028124157 -0.2919565
000010 2d 2b 7c be 4a 79 57 bd ec 02 4a be dd 15 77 be
       -0.24625845 -0.052605905 -0.19727677 -0.24129434
000020 f9 c7 01 3e 9e 63 11 3e a4 92 0e bd 24 fe e2 3d
       0.1267394 0.14198157 -0.034807816 0.1108363
000030 51 65 54 be db 88 27 be 02 30 97 be d1 6a 03 be
       -0.20741774 -0.163608 -0.29528815 -0.12833716
000040 58 60 8c bd 93 c8 1a 3d bf 3a 36 be f4 4c 6f 3d
       -0.068543136 0.03778894 -0.17795847 0.058422998
000050 46 d1 6c 3e 65 a9 c6 3d 20 85 e9 3d 5e eb 38 3d
       0.23126706 0.09700278 0.11402345 0.04514634
000060 b4 a8 15 3e d3 f1 3c 3c 9f cd 9f bd 93 53 3b 3e
       0.14615136 0.011532265 -0.07802891 0.182936
000070 8c 3a c2 3d bf ab a3 bd 08 9e 36 bc f3 22 64 3e
       0.09483823 -0.07991742 -0.011146076 0.22278957
000080 d6 b0 04 bd f1 4a 33 3c fa bd 09 be f4 aa 0c be
       -0.032395206 0.01094316 -0.13451377 -0.13737088
000090 c2 a1 22 3e ac 94 bf bc bc 64 3d 3d d6 ae a8 3c
       0.15882018 -0.023386322 0.046238646 0.02059118
0000a0 62 12 0e be a5 99 f3 bd af d4 19 3e 2e bd 3c bd
       -0.138742 -0.1189454 0.15022539 -0.046078853
0000b0 f1 0e 1e 3e 2b 01 38 3c 1d 93 83 bd 61 f1 fa 3d
       0.15435387 0.011230747 -0.06424544 0.122530706
0000c0 28 cd d9 3d 98 77 31 3e 66 0d a3 bd 36 c8 4c 3e
       0.106348336 0.17330778 -0.0796154 0.1999825
0000d0 e5 bf 16 3e 23 b1 62 3d 55 9c 33 3d 0b 2d 37 be
       0.1472164 0.055344712 0.04385026 -0.17888276
0000e0 78 d5 fe bd 6e b6 01 3d f2 2c 42 be 4e b1 05 3d
       -0.1244306 0.03166812 -0.18962458 0.032639794
0000f0 ce 57 79 be 48 4c 80 be 73 c7 2f be c0 d4 77 be
       -0.24349901 -0.25058198 -0.17165928 -0.24202251
000100 81 3a 66 be 6b f7 4a bd e7 71 28 3d 8a 4a b1 3d
       -0.22483255 -0.049552362 0.04112425 0.08656795
000110 62 4e 8e 3e 30 a1 a8 3d 62 3d b3 bd b1 4c 3b be
       0.27794176 0.08233869 -0.08751942 -0.18290974
000120 ee a8 c8 bd 10 0f 07 be 90 fa 02 3d a7 58 b9 be
       -0.09797846 -0.1318934 0.031977236 -0.3620045
000130 b0 0d 5a 3e 8a cd 71 3e 9b 07 86 bd f5 f8 31 3d
       0.21294284 0.23613563 -0.065444194 0.043450315
000140 58 73 25 3e ef bc 99 3c e8 44 23 3d d4 f1 88 3e
       0.16157281 0.018766848 0.039860636 0.26747
000150 e7 a0 3a 3e 69 02 f5 3d a4 c7 bd be 3b 15 f0 bb
       0.18225442 0.1196335 -0.37066376 -0.0073267496
000160 8c e6 f9 bd 85 30 74 be a6 3d 9d be 58 16 85 3e
       -0.122021765 -0.23846634 -0.30711097 0.2599361
000170 0a fe 10 be df 1b 1c 3e 49 3a e3 bd 63 df 75 bd
       -0.14159408 0.15245007 -0.110951014 -0.06002749
000180 e6 e3 51 be fe 83 50 be ac a4 13 be e1 e5 71 be
       -0.20497093 -0.20362851 -0.14418286 -0.23622848
000190 7e b8 b2 bd 2e 36 f9 3b 72 1c 92 bc 6f e5 0a 3d
       -0.08726595 0.0076053357 -0.01783583 0.03391021
0001a0 e5 1b df bd 39 db 0b 3d 87 48 a0 3d 18 9e a1 be
       -0.10893992 0.034144614 0.078263335 -0.31565928
0001b0 68 1e a8 bc 89 68 b3 3d c0 0d 10 be df da 26 be
       -0.020522311 0.08760173 -0.14067745 -0.1629443
0001c0 e4 be 1e be 04 25 e6 3c 95 58 34 bd f6 7e a4 be
       -0.15502506 0.028093822 -0.04402979 -0.32128114
0001d0 16 c3 a3 bd 33 69 c5 3d 36 d3 8b be 4d 1e d9 3d
       -0.07996194 0.09639206 -0.2730958 0.106014825
0001e0 b9 a8 e9 bd 73 dc 6c 3e 2e d1 45 be 88 87 45 bc
       -0.114091344 0.2313097 -0.19318077 -0.012056239
0001f0 82 12 c2 bc 84 b0 48 3e 32 09 7a bd cc 25 c0 bc
       -0.023690466 0.19598585 -0.061043926 -0.023455523
000200 5c dc d2 bd 7d ff 41 3e 60 58 86 3e 9c d4 f0 3c
       -0.102959365 0.18945117 0.262393 0.029398255
000210 61 06 9b be 1a 71 80 bd 17 c7 a4 be 24 65 80 be
       -0.30278304 -0.062715724 -0.32183143 -0.25077164
000220 d6 e5 7d 3e f0 59 55 3e ad a0 8e be 4c aa af 3d
       0.24794707 0.2083509 -0.2785696 0.085774034
000230 62 54 8a bd 19 6c 5b 3d 75 ff 8a 3e c4 38 03 be
       -0.06754376 0.053569887 0.27148023 -0.12814623
000240 49 eb db 3d 7d f5 d2 3c 06 a1 a4 bd 92 2b 8e 3c
       0.107382365 0.025751824 -0.08038525 0.01735476
000250 25 e3 60 be 7f 3c a3 be 93 9d 45 be d4 ed d2 3d
       -0.21961649 -0.31882092 -0.19298391 0.10299268
000260 07 63 d2 3d bd 9a 02 be a6 d8 19 be 74 c4 d7 ba
       0.10272794 -0.1275434 -0.15024051 -0.0016461746
000270 c5 54 c4 bd 04 5b 4a be c4 2f 51 be 7f 2d 27 3c
       -0.09586481 -0.19761282 -0.20428377 0.010203718
000280 05 f7 17 3e 77 4c 73 be 8d e5 46 be 5e 9d 06 3e
       0.14840324 -0.23759638 -0.19423504 0.13145968
000290 25 22 6c be d3 ed 04 3e 0f ab c7 bd 99 70 d4 bd
       -0.230599 0.12981348 -0.09749424 -0.10373039
0002a0 da 8c 9a bd 88 27 92 be ae c4 0a 3e ed c8 75 be
       -0.075463966 -0.28545785 0.1355159 -0.24002428
0002b0 41 3b c3 bc a2 32 50 be 81 e9 f4 3d e8 57 88 bd
       -0.023831965 -0.20331815 0.119586 -0.06657392
0002c0 1b 2b e2 3d 92 8e 46 be 61 e1 1b 3d 83 10 5a be
       0.11043378 -0.19390324 0.038056735 -0.21295361
0002d0 d4 06 6d 3d 44 17 e0 3d f9 0c 89 3c 69 14 49 be
       0.05786784 0.109419376 0.016729819 -0.19636692
0002e0 66 bc 17 bd fd 30 1b be 89 50 22 3e 0c 08 81 be
       -0.037044905 -0.15155406 0.15851034 -0.25201452
0002f0 84 6c 96 3e a3 94 8a bc 82 31 81 bd 4d 67 b3 bd
       0.29379666 -0.016916579 -0.06308271 -0.087599374
000300 86 9a 94 be cc 01 2e 3c c3 39 36 be e6 0f 83 be
       -0.29024142 0.010620546 -0.17795472 -0.25598067
000310 4c 77 cf 3d ec 16 08 3d 9d d2 29 be 21 d5 cd 3d
       0.10130176 0.033224985 -0.16584249 0.10050417
000320 27 2b 5c bf 52 2b 0d be 21 19 90 be 4d 37 e9 bd
       -0.86003345 -0.13786057 -0.28144172 -0.11387501
000330 0e 9f 03 bf 14 a3 24 bf 8f 08 9a 3e e5 32 ed be
       -0.51414573 -0.6431134 0.30084655 -0.46327892
000340 24 36 d3 3e b6 5b 9b bd a8 72 4a 3f f6 f8 d9 3d
       0.41252244 -0.07585852 0.790812 0.10643189
000350 d9 e8 63 bf 15 60 af be 9c 78 35 bd 44 f3 9b 3d
       -0.8902717 -0.34252992 -0.044304475 0.076147586
000360 d4 3b 19 3e 76 12 14 3e bd de 29 bf 85 fc d1 3d
       0.14964229 0.14460167 -0.66355497 0.102532424
000370 d5 8e 7b be 90 9b 20 be 8a 2c 22 be 59 47 e8 bd
       -0.24566205 -0.15684342 -0.15837303 -0.113417335
000380 b1 aa 44 be 3e 78 0b be 96 d9 49 3d 2f 17 28 be
       -0.19205739 -0.13620088 0.04927977 -0.16415094
000390 5c 35 9e 3e aa e8 52 be 4f d9 01 3c d2 17 88 be
       0.30900085 -0.20596567 0.007925346 -0.26580673
0003a0 05 67 f9 bc 31 7b c4 3d 48 3c 9b be 99 07 b8 bd
       -0.030444631 0.095938094 -0.30319428 -0.08985824
0003b0 f9 6c bf 3d 58 c7 91 3d 84 4d e3 be d1 d5 a7 3d
       0.09346957 0.071181 -0.44395077 0.08195079
0003c0 b5 d6 01 bf b1 51 6f 3e 81 a7 f7 be b7 64 40 bf
       -0.5071824 0.23371007 -0.48369983 -0.7515368
0003d0 49 7f 32 bf ce 1c 1f be bd 8d 48 3e 9e a7 1f bf
       -0.6972547 -0.15538332 0.19585319 -0.6236514
0003e0 52 bd 25 3f 72 7d b7 3d 27 a2 3a 3f db bd 5d bf
       0.64742005 0.08959474 0.72903675 -0.8661782
0003f0 72 94 07 bf d3 a2 48 bf 83 e2 82 bf 58 72 45 bf
       -0.52960885 -0.7837345 -1.0225376 -0.771276

bias f4 [20]
000000 52 54 1f 3e 28 fd c1 3c 34 9b ca bd 95 ec 02 be
       0.1555951 0.023680285 -0.09892884 -0.12785561
000010 d9 d2 19 bb 12 11 53 be 99 de 69 bc cf ff 1b 3c
       -0.0023471622 -0.2061198 -0.014274263 0.009521439
000020 fd cd dc 3d 4c e5 59 3e 54 2a 2a 3f 15 5c c2 3d
       0.10781477 0.21278876 0.6647084 0.094902195
000030 3e 78 9a 3e 78 6c 95 bd e7 c4 86 3d 98 7b 94 3e
       0.30169863 -0.072960794 0.06580525 0.29000545
000040 fd 89 08 3e 91 ba d9 bc 81 15 cf ba 5f ac e3 3e
       0.13333888 -0.02657822 -0.0015799255 0.44467446

weight f4 [2, 20]
000000 b2 d6 ff 3d fd 51 aa bd 08 aa 09 be bf 66 83 3e
       0.12492122 -0.08316419 -0.13443768 0.25664327
000010 f1 7d 15 be d1 df d5 3d e9 d3 33 3e 3b 5d 8c be
       -0.14598824 0.1044308 0.17561306 -0.2741488
000020 37 04 72 be b9 1a 3f 3e 9b 25 12 3f 48 c4 ac 3e
       -0.2363442 0.18662538 0.5708863 0.337435
000030 fd 59 0b bf c7 2d 44 bd 60 27 27 3e a6 17 7a 3e
       -0.54434186 -0.04789522 0.16323614 0.24423084
000040 84 59 d5 bd 94 48 b1 3e a9 ba 5b 3e 97 de ae be
       -0.104174644 0.34625685 0.21457924 -0.34154198
000050 dc 70 ac 3d 09 20 87 be 12 b1 69 be c2 df 14 3d
       0.08419964 -0.26391628 -0.22821453 0.036346205
000060 3f 24 00 bb 2e 94 05 3e ae 45 7f 3d fc 1d fd 3c
       -0.0019552854 0.13044807 0.06232231 0.030898087
000070 5f c7 5b 3e e6 ab ac 3c 93 c9 0e bf 24 73 09 be
       0.21462773 0.021078061 -0.5577633 -0.13422829
000080 62 7f cf 3c 33 22 d2 bc 5b 00 95 3e 7b db f7 3d
       0.025329296 -0.025651073 0.29101834 0.121024095
000090 5a 68 4b 3d 83 78 19 bd 4b a3 6c 3e 24 f5 bb 3e
       0.049660064 -0.037468445 0.23109166 0.36710465

bias f4 [2]
000000 a4 67 5b 3e 11 06 a1 be
       0.21426255 -0.3144994
