docs/notebooks/paper_experiments/results/unsupervised/iter_13/model_autoencoder_13.pt (torch, 32391 bytes, 13 tensors)

mean f4 [2]
00000000: 933e dcbe 2dc8 7f3f
-0.4301649 0.9991482

range f4 [2]
00000000: 38c0 153f 83e1 023f
0.5849643 0.51125354

weight f4 [20, 2]
00000000: 6e37 b33e e88b 02bf 6431 a83e 74c9 ac3f
00000010: 25af 28be be72 82be 3a22 3d3f 5c14 bebe
00000020: 69c8 4a3f 8e5f 543e ee35 2ebf f28c 9e3d
00000030: a46f 3d3f a31c 1abf 6d87 343e 3589 0e3f
00000040: bc7e 72be b223 e03e acee 0dbf 4a5b 183f
00000050: 9571 33be b7e4 693f 0737 f63c cb10 853f
00000060: 9079 34bf 76df 803d 91c0 08bf 1491 833f
00000070: 9495 4abf bcd7 5dbf 114c cd3e 9854 41bf
00000080: fafc f5bc 191a 1bbf a1d0 ff3b a0d6 ecbe
00000090: b457 a33f aa47 8b3f 9829 d9be 22a3 2e3f
0.35003227 -0.5099473 0.32850182 1.3498979 -0.16473062 -0.25478166 0.7388035 -0.37124908
0.7921205 0.20739576 -0.6805104 0.07741727 0.73998475 -0.60199946 0.17629786 0.5567811
-0.23681158 0.43777233 -0.5544231 0.59514296 -0.17523797 0.91364616 0.030055536 1.039575
-0.7049799 0.06292622 -0.53418833 1.0278649 -0.7913449 -0.8665731 0.40097097 -0.75519705
-0.030027855 -0.60586697 0.007806853 -0.46257496 1.276114 1.0881245 -0.42414546 0.6821767

bias f4 [20]
00000000: e3a7 f03e a939 0e3e 6781 313f 65de e9be
00000010: 9972 d93c 8f51 69be f12c 81bd 3ae4 0a3f
00000020: bd89 c7be c040 113f bc14 d23e 69ed d23d
00000030: 4a82 be3e 7952 333f ef9c 1fbc 76c8 4f3e
00000040: f6de 03bf 1d6d e6be ac70 8c3f 2607 b33d
0.47003087 0.13889183 0.6933808 -0.45677486 0.026543902 -0.22785018 -0.063074 0.54254496
-0.38972273 0.56739426 0.41031444 0.10299189 0.37208778 0.7004772 -0.009742006 0.20291314
-0.51512086 -0.45005122 1.0971885 0.08741598

weight f4 [20, 20]
00000000: d5c7 8abd 08d3 933d c725 983e 62a1 693e
00000010: 556d 6b3e 7a7f e1bd 9068 6f3e 10aa 04bd
00000020: e892 07be a220 4dbe 5a71 a3be adea 71be
00000030: 6907 a7be 556d 69be aa64 9ebe fc12 8b3e
00000040: e692 c6bd ef05 433e 86cd 703e 0edf a53d
00000050: cd15 b7be a481 023f 9567 42be 5ddf c0be
00000060: 85d3 1f3d 6cf5 7fbe e2f6 90be b8ca a13d
00000070: 37a5 103d e119 43bc 765b 713c 4d0f e73d
00000080: 9efe 793d f3b7 843d 559f 57be ee25 e0bc
00000090: 3d09 2c3d 66ab d1be 833a 1c3f 894d b03d
000000a0: 3300 fd3d da0a 413e 5ccf 70be d606 bf3d
000000b0: ed49 54be afdf dcbd f62f c5bb 8ccd 4c3e
000000c0: c751 3f3e 7a4c 803e d25d f63d 4360 343e
000000d0: 12a0 123e 66f0 c6b8 aaaf 873d b4fd 5c3d
000000e0: 825e 0bbe e2ed b4bd 3dde a33e 68a2 4f3e
000000f0: 91a1 f5bd 5738 913e 1611 91be 9190 3cbe
00000100: 6bc8 bb3b ff37 36bb 1b3e c2be e1fd be3e
00000110: 4ebc 0cbe 3d66 743d add3 9d3e 2c18 e43d
00000120: acf8 45bd b1b2 823e 8ac7 02bf d049 abbc
00000130: eec9 06be 329b 46be 9991 953e c38f 1a3e
00000140: 810f 07be e87b c73e 2783 a7be 59e5 a6bb
00000150: 984c e53c 6a10 8dbd ff67 e6bd 8dad 823e
00000160: 5f00 f13d 938d 683e c5bb af3e 13d3 2b3e
00000170: badf e3bd c188 843e 3661 0ebf 830f adbe
00000180: 4e6c 71bd d6ef ecbd 9f92 343f 48e2 533e
00000190: 8f5c 55be 1666 623e ece0 91be 8388 81bd
000001a0: 4f6f 1a3e 5916 6fbe 5a3b 82be c0a2 a23e
000001b0: 7c6d 923e 5937 213e b755 ca3d 7df7 a83c
000001c0: 2bb0 973d d2ed 6c3e d7fa a3be e08b 3d3d
000001d0: e569 75be a15c a3be f224 1d3f 3e53 cbbd
000001e0: 7119 97bc 520e 483e faab 9dbd f791 de3c
000001f0: 950f 0f39 2d09 93be fff0 8bbb 56d2 ef3e
00000200: 6035 993e 3b66 ed3d 6fa0 8b3e 08c6 dc3e
00000210: 65b7 aa3d 520f 4b3e ea13 ecbe 188c cabe
00000220: 21bd 83be 40c0 c8be 288c 093f 98d4 3c3e
00000230: 24fb 803e c790 8b3c 72bc 893c 17ce 213e
00000240: c99d 24be 9704 9c3d 4eb0 b63d 60f8 64bd
00000250: e5f7 36be f17b 99bb 51d3 ffbd e344 833c
00000260: 5ff2 70bd a86f 1c3d f018 ddbe a776 e4bc
00000270: a078 583c 038b 2cbd 6f3e 40be 996d 93be
00000280: b120 adbe 249b 093e 7974 b43d 33bf d03c
00000290: fc57 5c3d be6d 93bd 7fa7 143d dec6 9c3e
000002a0: cd7e 743e 3b7b a13b 2347 cd3e b805 d13e
000002b0: 9fe6 213e 2371 723e 28d5 c1be 0354 94be
000002c0: 0d44 2dbe 78ba cbbe d5a3 b23e 3d40 ba3d
000002d0: 4dc9 bb3c fffc 7c3e 2800 3fbe bebc a5be
000002e0: b905 bb3d 8eb6 99be c22b a8bd 7534 db3e
000002f0: 6fcf 803d 44df 783e d048 783e 57e6 eb3d
00000300: 0b0c ae3d 273b 043c 9ba0 a7be cb19 49be
00000310: 91c8 a8be 105a 51be cc3f 1c3f a4c6 733e
00000320: 050d 0fbd b774 093e 8377 bc3c 205f 8abe
00000330: 9060 8b3c 31df 2dbe 40a5 bcbe 9785 733e
00000340: f392 873e 3b7a 833c bfe6 943d 50ea b03d
00000350: 87bd 7b3d 792e 61bd 0129 b2be c17e d5bd
00000360: 9f0d 0ebd 82bd 7abe c3c2 fa3e 1616 7e3d
00000370: a155 1ebe d246 9d3e 5a6f 203d b8f4 dbbd
00000380: f2ba debd ec38 30be 9257 99be f611 dd3e
00000390: 7dc2 6dbc e833 133e 23f2 bd3e cac9 c13e
000003a0: 8e2e b13d 11a2 f53d abc6 03bf 2200 81be
000003b0: 6b01 f5bc 731c 9fbd f34e c93e fb23 d03d
000003c0: 6239 0ebd 5f27 c0bd 6908 2a3e 098d 773e
000003d0: 68ac ca3c c61a 81bd 1e9a e9bd c09d 77be
000003e0: 24fc cb3d b172 0dbd 7ad9 1dbe bbce 88be
000003f0: a7da 99be c915 aabe 9bde 13bf a6f7 973e
-0.06776396 0.072179854 0.29716322 0.22815469 0.22990926 -0.11010642 0.23379731 -0.032388747
-0.13239634 -0.2003198 -0.31922418 -0.23624678 -0.3262284 -0.22795613 -0.30936176 0.2716292
-0.096959874 0.19045232 0.23515901 0.08099185 -0.3575882 0.50979066 -0.18984826 -0.37670413
0.03902008 -0.24995965 -0.28313357 0.07899994 0.03531381 -0.0119080255 0.014731279 0.11282215
0.061033837 0.06480398 -0.21056874 -0.027361836 0.042000998 -0.4095108 0.6102678 0.08608539
0.123535536 0.18851796 -0.23516601 0.09327476 -0.20731325 -0.10784852 -0.0060176803 0.20000285
0.1868354 0.25058347 0.120296136 0.17614846 0.14318874 -9.4861534e-05 0.06625302 0.053952888
-0.1361027 -0.08834435 0.32005492 0.20276797 -0.11993707 0.28363296 -0.28333348 -0.18414523
0.005730679 -0.0027804372 -0.37938008 0.3730307 -0.13743708 0.059667815 0.30825558 0.11137423
-0.048332855 0.25526956 -0.5108572 -0.02090922 -0.13162968 -0.1939514 0.29212645 0.15093903
-0.13189508 0.3896172 -0.3271725 -0.0050932583 0.027990624 -0.06887896 -0.112503044 0.25523034
0.11767649 0.22710256 0.34322944 0.16779737 -0.11126657 0.25885585 -0.5561708 -0.33800897
-0.058941178 -0.115691826 0.70536226 0.20691788 -0.2083609 0.22109255 -0.28491914 -0.06324866
0.15081523 -0.23348369 -0.25435907 0.31764793 0.28599155 0.1574377 0.0987963 0.020625824
0.07406648 0.23137596 -0.32027313 0.046275973 -0.23966177 -0.31906608 0.613845 -0.099279866
-0.018444749 0.19536713 -0.076988176 0.02716921 0.00013643347 -0.28717938 -0.0042706723 0.4684016
0.29923534 0.115917645 0.2727084 0.43119836 0.08335761 0.19830063 -0.46108943 -0.39560008
-0.2573023 -0.39209175 0.53729486 0.18440473 0.25191605 0.017036809 0.01681349 0.15801273
-0.16075815 0.07618063 0.08920346 -0.05590093 -0.17868002 -0.0046839644 -0.12491477 0.016024059
-0.058824893 0.03819242 -0.43183088 -0.02788861 0.013212353 -0.04212476 -0.18773817 -0.28794554
-0.33814004 0.13438088 0.08811278 0.025481796 0.053794846 -0.07198666 0.03629255 0.30620474
0.23876496 0.0049280203 0.40093336 0.40824676 0.15810631 0.2367597 -0.37857938 -0.28970346
-0.1692049 -0.39790702 0.3489062 0.09094284 0.022923136 0.24705885 -0.18652403 -0.3237056
0.09131951 -0.3002209 -0.08211471 0.4281346 0.06289565 0.24303919 0.24246526 0.11518543
0.08498391 0.008070744 -0.3273972 -0.19638745 -0.3296552 -0.20444512 0.61034846 0.23806244
-0.034924526 0.1342343 0.023006206 -0.270257 0.017013818 -0.16979672 -0.36844826 0.23781429
0.264793 0.016049495 0.07270574 0.086384416 0.061460044 -0.05497596 -0.34796908 -0.10424567
-0.03468096 -0.24486354 0.48976716 0.06203278 -0.15462352 0.30718094 0.039168693 -0.10740036
-0.10875501 -0.17209214 -0.29949623 0.43177766 -0.014511702 0.1437527 0.37098798 0.37849265
0.08651458 0.11993802 -0.5147502 -0.25195414 -0.029907903 -0.07769098 0.39318046 0.10163113
-0.034722693 -0.093825094 0.1660477 0.24174894 0.024740413 -0.06303935 -0.11406349 -0.2418127
0.099602014 -0.034533206 -0.15414992 -0.26720223 -0.3004963 -0.33219746 -0.57761544 0.29681128

bias f4 [20]
00000000: 24d2 d2bd d476 203e ca9f 983d 1936 853e
00000010: c94c b73e 4256 dd3d 9dc4 4f3e 98ec e13b
00000020: 7521 b53e 32d0 6e3e 92be 223e 9606 163e
00000030: ddf0 15bc aa8b 983e 4e39 483e 2c56 263d
00000040: a5b0 8c3e 7bac 6e3e 7281 953f fdf2 c03d
-0.102939874 0.1567033 0.07452352 0.26017836 0.3580077 0.10807468 0.20289846 0.0068946593
0.35377088 0.23321608 0.1589301 0.1465095 -0.009151665 0.29794055 0.1955311 0.040609524
0.2747852 0.23307984 1.1680129 0.09421346

weight f4 [1, 20]
00000000: 80f7 9f3e a283 a9be 2fa0 1ebe d9bc 4dbe
00000010: afc1 9abe bea8 7fbe 9143 bdbe c20e 143e
00000020: e7fe 43be b82e 2dbe ecd2 56be b38d babe
00000030: 934e 9c3e 82e3 bbbe ecc4 e23d 93e5 323e
00000040: c8d5 993e f303 623e b37a 813f 388f a3be
0.31243515 -0.3310824 -0.15490793 -0.20091571 -0.30225894 -0.24966714 -0.36965612 0.14458755
-0.19140206 -0.16912353 -0.20978898 -0.36436233 0.30528697 -0.36697012 0.11072716 0.17470388
0.30045915 0.22071819 1.011557 -0.31945205

weight f4 [20, 1]
00000000: ddeb 1c3f 607e ba3d e308 0d3f de70 903f
00000010: 4845 893f d71d 29bf 896c 473e 56dc bd3e
00000020: 2a3b 3abf 696d 633f c59a 0b3f 0fcc 4fbf
00000030: 437f b13d f3b1 f53e a73c 52bf fd41 8fbf
00000040: 6c7a 9d3e e189 7d3f 3c04 2f3f 1991 013f
0.612974 0.09106135 0.55091685 1.1284444 1.0724268 -0.66061157 0.19474997 0.37082165
-0.7274653 0.8883882 0.54533035 -0.81170744 0.08666851 0.47987327 -0.821238 -1.1192013
0.30757463 0.9903851 0.68365836 0.50612026

bias f4 [20]
00000000: 80a3 763f 15f2 41bf a29d 563e 8a57 223f
00000010: e127 8a3f 6594 3dbb 83f2 02bf 162d 05bf
00000020: 99a0 283f ba04 793f 7a96 d5be 5975 e6be
00000030: 1a24 bfbe 0282 673e e237 543f ee99 d7be
00000040: c458 c5bd 3007 2f3f ae1b 3c3f 26f2 8bbf
0.9634323 -0.7576001 0.2095857 0.63414824 1.079342 -0.0028927561 -0.51151294 -0.5202192
0.6587005 0.9727284 -0.41716367 -0.45011404 -0.3733223 0.22608188 0.8289777 -0.42109627
-0.09636071 0.6837034 0.73479736 -1.0933273

weight f4 [20, 20]
00000000: 6f95 d4be 63e0 2abd bbc8 cebe 7547 c5be
00000010: 0147 27bf b488 053f af66 99be 3444 fabe
00000020: d084 cc3e c2b4 05bf 226e b8be e047 043f
00000030: 63b6 b8bd 5727 1ebf b56a ca3e 7f0a 0b3f
00000040: d1ad b9be 6e7a 22bf 6ebc b1be 5c3b e8bd
00000050: 75e8 e1bc 3555 3fbe 395a e2bd 3d78 9cbe
00000060: 5b8e 6c3c dab9 26bd 7f5c 14ba 6521 a1be
00000070: 49ae 7c3e 4145 83be 1866 c4bd 1e79 1dbe
00000080: f7a9 58be 8f4f d9bd 275c 8d3d 02a4 41be
00000090: 7b91 84be a7e0 1ebe 7e09 503c 8240 adbe
000000a0: c5d4 f4ba 2d91 2e3e 6e03 0f3e 20ce f73d
000000b0: 83dc 1e3e 0abe 1fbd 064c 703d ba7f 793e
000000c0: 8408 debc f574 843e 3e97 9ebd 74c1 8fbe
000000d0: 3924 a83d 1f64 6c3e 8aa2 6ebe 49d0 6abe
000000e0: 4bb8 153e bccc 4e3e 5718 e6bd edf6 da3d
000000f0: 45a1 f1bd 8dfb 4dbd 9945 afbd 74b1 2d3c
00000100: db48 52be c714 44be 4056 323e 8048 1e3e
00000110: 43ea e8bd d236 0fbc 357c e03a f814 a53c
00000120: f0c7 2d3e ecfd b3be 0cc7 1dbe fdad 673b
00000130: 9fbc 263b 4e3e 543d 7fee 85be f252 6c3d
00000140: cb3a 2ebe 0dc8 493d 1a21 083e ae99 1cbc
00000150: c3e5 dc3d b5e7 24be fd62 b13b cb4e 38bd
00000160: 0cfe a33c 4612 093e cf4d d93d 6ee2 a1bd
00000170: 143b d13d c5f4 1ebe 721f a0be 14cc c03d
00000180: 8169 f6bc e7f6 73be 28b6 1bbd bf0f 3f3e
00000190: f6cf 983e 9f55 62be 4f22 86bc 373b 23be
000001a0: 18e6 96bd 3354 313e f68d 82be 31eb b6bc
000001b0: e34f afbd d59c 04be 0be7 9c3b 38d4 843d
000001c0: 9685 67bd 9dd2 8c3d a0f7 5b3d 4604 65be
000001d0: c7f9 98bd aca2 ae3c 76cf 1f3e afe6 833c
000001e0: 8211 a43e 10f5 e9be baee 72bd d5e3 12be
000001f0: 46fe 523e fa9a f13d aa27 07bf 48d4 f9be
00000200: 44f8 243e 8e97 153e 02e8 a8be cb1f 0cbe
00000210: 0811 9cbe 489c d2bd a1f2 0e3d 46b3 0d3d
00000220: ea25 69be 5b3c 02bd a0a7 823d 933c b3be
00000230: c7de 9dbb d56e a93e f247 4f3e 8aa8 3c3e
00000240: 2eeb 61bd 2426 0d3e 85ae 283d 77cf 413e
00000250: 2a67 94be 41ed 4c3e 3598 283d 5a92 37bd
00000260: c26d d2bc 0f25 b73d 36cd 7bbd ab03 cf3d
00000270: 149b 0c3e 41d7 f0bc a758 383e e7e2 c93d
00000280: 5c87 bcbd 420b ea3d 78e2 053d eedd 82be
00000290: 2ab1 eabd 56c3 ebbd f9d2 8b3e 8415 843e
000002a0: 6340 8bbb dc50 31be 6c1c d73d fe29 1dbd
000002b0: 666b 373e c93a 64be 3e00 ad3d a725 95ba
000002c0: bcdb 443d 8d4c 4bbe 79fe e13c 6b3b 2cbd
000002d0: da40 95bd be6a 603e e2d6 c3bd a44f e43d
000002e0: e50d f3bd 62d4 5ebd 9fe0 593e c164 033e
000002f0: 224e abbc 1b91 de3d 471e 29bc 31a5 22be
00000300: 9d6b 3b3e 5aab e03d 3f7d 15be 8729 093d
00000310: 08bb b53d 004f 47bd e2af 78be 7ee8 483d
00000320: 9e19 c1bd 9a30 4d3e 1cb4 043e f992 093d
00000330: 50d2 25be c324 3c3d a698 bd3d 0cfd 34bc
00000340: 69d2 45bd 334d 033e 9199 eb3d 3563 be3b
00000350: 6431 3e3d cb04 043c 9c09 023e 190c be3d
00000360: db55 f23d a1b2 223d 621b 543e 6a0a 8cbd
00000370: 8639 9abc 0ea5 b7bd 234c 353e eaf3 b93d
00000380: adaa c93d 31a6 2f3e f49b e23d 4236 c0bd
00000390: af88 f6bd 3291 4abe 4dc9 29be d082 1cbd
000003a0: d91a 7a3c 084f cebd 7c7f 24bc 60b6 69be
000003b0: 33cf 66be 4a0d e43c f53c ab3d fb74 d63d
000003c0: 0b69 ed3c a75f 48bd 8bc8 c9bd 12bb 8a3e
000003d0: 229a f93d 0909 c1bd e777 383d e4b0 dc3d
000003e0: 6a6c c1bd 0b0b 2a3e f137 2b3e 4bd1 4fbe
000003f0: fcdb 3d3e 24df afbd d1b7 b2be 6d2d 5b3d
-0.4152026 -0.041717898 -0.4038752 -0.3853108 -0.6534272 0.5216172 -0.29961154 -0.4888016
0.39945078 -0.5222894 -0.36021525 0.5167217 -0.090191625 -0.6177878 0.39534536 0.5431289
-0.36265424 -0.6346806 -0.34714073 -0.11339447 -0.027576664 -0.18684848 -0.11052365 -0.30560485
0.014438237 -0.040704586 -0.0005659535 -0.3147079 0.2467586 -0.25638774 -0.09589785 -0.15378234
-0.21158586 -0.10610878 0.06902342 -0.1891022 -0.25892243 -0.15515386 0.012697576 -0.33838278
-0.0018679133 0.17047568 0.13966152 0.12099862 0.15513806 -0.038999595 0.05866625 0.2436513
-0.02710367 0.2587048 -0.07743691 -0.2807728 0.08210034 0.23085068 -0.23304191 -0.22931017
0.14621083 0.20195287 -0.11235111 0.106916286 -0.11798338 -0.050288726 -0.085581966 0.01060139
-0.20535605 -0.19148551 0.17415714 0.15457344 -0.11372807 -0.0087410975 0.001712686 0.0201516
0.16970801 -0.35154665 -0.15407962 0.0035351508 0.0025442017 0.05181723 -0.2615852 0.05769629
-0.17014615 0.04926305 0.13293877 -0.0095581245 0.10786011 -0.16104014 0.0054134117 -0.044997018
0.0200186 0.13385877 0.10610544 -0.07904516 0.102163464 -0.1552306 -0.3127399 0.09413925
-0.030079605 -0.23824655 -0.038015515 0.1865835 0.29846162 -0.22102974 -0.016373781 -0.15940557
-0.07368106 0.17317276 -0.25498933 -0.022328945 -0.08560159 -0.12950452 0.0047882847 0.0648579
-0.05652388 0.06876109 0.05370295 -0.22364911 -0.07469516 0.021317802 0.15606484 0.01610121
0.32044607 -0.4569478 -0.0593097 -0.14344724 0.2060481 0.117971376 -0.527949 -0.4879477
0.16110331 0.14608595 -0.32989508 -0.13684003 -0.30481744 -0.102837145 0.034899358 0.034594797
-0.2276837 -0.03179584 0.06379628 -0.35007152 -0.004817817 0.3309237 0.20242289 0.18423668
-0.055155925 0.1378408 0.04118206 0.18926798 -0.28984958 0.2001238 0.04116078 -0.044817306
-0.025687102 0.08942615 -0.061475 0.101081215 0.13731033 -0.029399516 0.18002568 0.09857731
-0.09205505 0.114279285 0.03268668 -0.25559944 -0.114595726 -0.11511867 0.27309397 0.25797665
-0.004249619 -0.17316002 0.10503468 -0.038370125 0.17912063 -0.2228805 0.08447312 -0.0011379019
0.048061118 -0.1985342 0.027587162 -0.042048853 -0.0728776 0.21915719 -0.0956247 0.11148003
-0.118678845 -0.054401763 0.21277092 0.12831403 -0.02091128 0.108675204 -0.01032216 -0.15883328
0.1830277 0.10970183 -0.14598559 0.03348687 0.08873564 -0.048659325 -0.24285844 0.049049847
-0.09428714 0.20038071 0.12959331 0.03358743 -0.16193509 0.045933496 0.09257631 -0.011046659
-0.048296366 0.12822418 0.115039 0.0058101662 0.04643382 0.008057783 0.12698978 0.09279651
0.11832782 0.039721135 0.2071357 -0.06837924 -0.018826257 -0.089670286 0.17704825 0.09079726
0.09847007 0.1715324 0.11064902 -0.09385349 -0.12037789 -0.1978195 -0.16580696 -0.03821069
0.01526519 -0.10073668 -0.01004016 -0.22823477 -0.22539978 0.027838368 0.08361236 0.10471531
0.028980752 -0.048919346 -0.09852704 0.27095848 0.121876016 -0.094255514 0.045036223 0.10775927
-0.094445065 0.16605775 0.16720559 -0.20294683 0.18540949 -0.085874826 -0.34905866 0.05351012

bias f4 [20]
00000000: c864 903c 5ee5 873e c640 2cbe d17e 9ebe
00000010: da04 cdbd 225a 8b3e 1a68 ff3e d487 633c
00000020: 9c1b 70be 921c 76be 3fe0 4abe bc3d 3e3e
00000030: 8edd 49be c7a8 b9be 8658 1e3e 5772 afbc
00000040: ad07 a03e 8768 ba3d 2d45 2cbe 1f1b db3e
0.017626181 0.2654218 -0.16821584 -0.30956128 -0.10010691 0.27217203 0.4988411 0.013887364
-0.23448032 -0.24034336 -0.19812106 0.18578237 -0.19713423 -0.3626158 0.15463457 -0.021416826
0.31255856 0.09101968 -0.16823263 0.4279413

weight f4 [2, 20]
00000000: 90f8 9e3e 6377 0bbe bf83 8f3e 6be2 593e
00000010: d847 1d3e 1189 a5be 2573 2abe 41ab 493d
00000020: 7de1 d73d fa84 ea3d 31cd 543d 0b55 e5bd
00000030: 7e80 093e 7a14 823e 210f 843d c88a 41be
00000040: 5f20 a0bd 2d72 e1bb 31c6 c23d 51f8 dcbe
00000050: 007e 603e 036d 873d 1c87 1ebe 3e2b f73d
00000060: 3e3e dd3d 7339 413e 89c3 a3be 4a92 40bc
00000070: 7c39 1c3e 702a 553e 760b 4fbe 1fc1 373e
00000080: c808 7c3c 6192 cc3e 3073 38be 6b7c 093e
00000090: bf15 6cbe 7e44 38be 4963 993e d94b cebd
0.31049013 -0.13619761 0.28030202 0.21277778 0.15359437 -0.32331136 -0.16645487 0.049235586
0.10541055 0.114511445 0.0519535 -0.11197861 0.13427922 0.25406247 0.06448198 -0.18900597
-0.07818674 -0.006880066 0.09510458 -0.431582 0.21923065 0.06612589 -0.15481228 0.12068795
0.108028874 0.18869571 -0.3198512 -0.011753628 0.15256304 0.2081697 -0.20219216 0.17944764
0.015382953 0.39955428 -0.1801269 0.13426368 -0.2305517 -0.17994878 0.2995856 -0.100730605

bias f4 [2]
00000000: 1848 29be 9088 083c
-0.16531408 0.00833334
