docs/notebooks/paper_experiments/data/timelagged/deepTICA/model_deepTICA.pt (torch, 23395 bytes, 7 tensors)

mean f4 [2]
-0.40306243 1.1099001
00000000: 335e cebe 3511 8e3f

range f4 [2]
0.42903408 0.49185288
00000000: 5baa db3e 24d4 fb3e

weight f4 [15, 2]
0.5254914 0.59902 -0.15410468 0.6382517 -0.14338723 0.13223222 -0.33126602 0.40369913
0.6180927 -0.5260914 0.62678105 0.121990375 0.52262264 0.08007065 0.33040738 -0.09028335
0.533723 0.11400721 -0.31960627 0.16918674 -0.33616558 -0.07163395 -0.27711597 0.457774
-0.5625163 -0.31514606 -0.1869873 -0.4012787 0.07790183 -0.7087597
00000000: 9b86 063f 6059 193f 9ecd 1dbe 7764 233f
00000010: 1ad4 12be e267 073e b39b a9be a7b1 ce3e
00000020: 533b 1e3f edad 06bf b974 203f 17d6 f93d
00000030: 99ca 053f 15fc a33d 282b a93e 7ae6 b8bd
00000040: 12a2 083f 9d7c e93d 6fa3 a3be 4a3f 2d3e
00000050: e51d acbe d2b4 92bd 25e2 8dbe 5b61 ea3e
00000060: 1101 10bf d35a a1be 9979 3fbe 6774 cdbe
00000070: ff8a 9f3d 4771 35bf

bias f4 [15]
0.62546396 -0.6109583 0.5357014 0.10688304 -0.2316207 0.44696873 0.10023854 0.5607337
0.06662246 -0.23335287 0.20264249 -0.2022127 0.2995006 0.6417493 0.4212966
00000000: 681e 203f c367 1cbf ba23 093f 7fe5 da3d
00000010: fa2d 6dbe 16d9 e43e dd49 cd3d 3e8c 0f3f
00000020: 5b71 883d 0ef4 6ebe 8381 4f3e d910 4fbe
00000030: 2558 993e af49 243f 30b4 d73e

weight f4 [15, 15]
-0.101756915 0.16151541 0.05796595 0.1434199 -0.16841434 -0.26812238 -0.11248017 -0.20970978
0.19942465 0.08647837 0.1143599 0.09405608 -0.015350028 0.19078928 -0.19463961 0.026469719
-0.16409786 0.0909778 -0.07696999 0.0682892 -0.067131534 0.20131917 -0.16469094 -0.16667469
-0.14215115 0.24268523 0.09809201 0.23890856 -0.22394697 -0.26688316 -0.21108778 -0.18516561
0.09357712 0.081078425 0.22454725 -0.121227875 -0.1640315 0.14768878 -0.09238994 0.14570548
-0.071931295 0.136293 -0.1927105 -0.12057597 0.08842721 0.04472866 -0.07776489 0.14272198
0.16376682 -0.17649631 -0.12406684 0.24948423 -0.075405166 -0.078612685 -0.26163304 -0.15946285
0.05264169 -0.025764275 -0.1768811 0.016641492 -0.16748405 -0.20780616 -0.13156079 -0.21486738
-0.1745799 0.24600285 0.036922753 0.06867766 -0.25261012 -0.15854737 -0.074741215 0.051551517
-0.23374707 -0.121230304 -0.16455626 0.011018567 -0.08348156 -0.0060512912 -0.16249762 -0.18820383
-0.16453725 -0.10180143 -0.2157294 0.20320597 -0.038935784 0.23339218 0.09299134 -0.22791722
0.16777055 -0.08192644 -0.088703364 -0.2025807 -0.24569148 0.085396424 -0.06653081 0.088738345
-0.22349162 0.1809711 -0.20104998 -0.033484746 0.061379682 0.14490981 0.19795452 0.22470573
-0.21494211 0.07249084 -0.09980655 -0.017599827 -0.18211395 0.22517118 -0.20152725 0.1260938
0.079979345 0.07200917 -0.12866752 0.24607424 0.06792338 0.0282608 -0.2371324 0.09875431
-0.028606808 -0.10628622 0.23301135 0.069377966 -0.15337303 -0.14348489 -0.024753215 0.13286456
-0.07829006 -0.1357159 -0.07859725 -0.18098941 0.08237954 0.18920033 -0.25358522 0.05187984
0.12174514 0.03593828 -0.1034235 0.14497478 0.14836325 0.10900865 -0.034242433 -0.05592722
0.016343353 -0.057042006 -0.0884866 0.17178191 0.2317385 -0.015725555 -0.04927906 0.015038455
-0.004541985 0.073288925 0.062316548 -0.24649145 -0.107148714 0.20673725 0.08873475 -0.0018888706
-0.14426191 -0.14673573 -0.23691992 -0.09378199 0.07748972 0.1736424 0.13134792 -0.2167777
-0.14320803 -0.05201261 0.23533763 0.023572445 -0.07924344 0.093168706 -0.08601132 -0.1535044
0.20058954 -0.11819803 -0.062253855 -0.26773342 0.18320824 0.20910953 0.106593646 -0.16668501
-0.26729077 -0.2281264 0.17613606 0.1094527 0.20121938 0.14929937 0.08061493 0.010959348
-0.20199291 -0.23300217 -0.25370792 0.11552415 -0.11468778 -0.040569555 -0.13664414 -0.05769742
-0.19487035 -0.18148959 0.07415134 -0.0894196 0.17119087 -0.07147766 -0.17738786 -0.054092646
-0.13569376 -0.08950486 -0.23573703 0.1564112 -0.16828986 0.14164165 0.10662972 0.1717984
-0.210507 0.1745423 -0.1344445 0.107335806 0.25310677 -0.024510458 -0.0110479165 -0.06982074
-0.22596298
00000000: ee65 d0bd 4c64 253e b46d 6d3d abdc 123e
00000010: cf74 2cbe 5647 89be 015c e6bd 29be 56be
00000020: fa35 4c3e 921b b13d 8635 ea3d 79a0 c03d
00000030: af7e 7bbc 445e 433e 9b4f 47be 06d7 d83c
00000040: 4509 28be 9252 ba3d 71a2 9dbd 35db 8b3d
00000050: 427c 89bd 9d26 4e3e bea4 28be c5ac 2abe
00000060: 1290 11be 7a82 783e 77e4 c83d 72a4 743e
00000070: 5b52 65be e9a4 88be 6527 58be 0e9c 3dbe
00000080: 5ca5 bf3d 720c a63d b7ef 653e 5246 f8bd
00000090: e0f7 27be ba3b 173e f036 bdbd d133 153e
000000a0: b750 93bd 6490 0b3e e755 45be 89f0 f6bd
000000b0: 5319 b53d 6635 373d 3343 9fbd b625 123e
000000c0: 7db2 273e 73bb 34be c116 febd cb78 7f3e
000000d0: 066e 9abd b0ff a0bd c4f4 85be 3b4a 23be
000000e0: d09e 573d 9a0f d3bc 5220 35be bd53 883c
000000f0: f080 2bbe 23cb 54be dfb7 06be 3206 5cbe
00000100: 13c5 32be 2ce8 7b3e 503c 173d dfa6 8c3d
00000110: 1d56 81be 3e5a 22be ec11 99bd af27 533d
00000120: 645b 6fbe 9847 f8bd 7081 28be 3887 343c
00000130: 61f8 aabd e949 c6bb c765 26be 81b8 40be
00000140: 747c 28be 457d d0bd 2be8 5cbe 3a15 503e
00000150: 217b 1fbd 5cfe 6e3e 3e72 be3d 2263 69be
00000160: 0bcc 2b3e 0dc9 a7bd 1caa b5bd 5171 4fbe
00000170: 8c96 7bbe 52e4 ae3d 4e41 88bd 73bc b53d
00000180: fdda 64be 7d50 393e 0ce0 4dbe 4d27 09bd
00000190: 4369 7b3d 3d63 143e 97b4 4a3e 4219 663e
000001a0: c919 5cbe 1476 943d 6067 ccbd 832d 90bc
000001b0: 147c 3abe 4693 663e 295d 4ebe bc1e 013e
000001c0: 36cc a33d 8b79 933d 6bc1 03be e3fa 7b3e
000001d0: 6a1b 8b3d 3183 e73c d6d2 72be b33f ca3d
000001e0: d358 eabc 97ac d9bd 879a 6e3e 0916 8e3d
000001f0: d20d 1dbe b4ed 12be 41c7 cabc a60d 083e
00000200: 8a56 a0bd 1cf9 0abe 98f7 a0bd 4a55 39be
00000210: 9bb6 a83d bbbd 413e ecd5 81be f57f 543d
00000220: 8455 f93d 0534 133d b3cf d3bd 4574 143e
00000230: 89ec 173e ed3f df3d cb41 0cbd f113 65bd
00000240: 7fe2 853c e1a4 69bd 7638 b5bd 99e7 2f3e
00000250: db4c 6d3e e1d2 80bc d7d8 49bd da63 763c
00000260: efd4 94bb 8118 963d a33f 7f3d 4168 7cbe
00000270: c970 dbbd eeb2 533e 91ba b53d fb93 f7ba
00000280: 65b9 13be e441 16be 239b 72be c610 c0bd
00000290: eeb2 9e3d 50cf 313e 1280 063e f9fa 5dbe
000002a0: 20a5 12be 2d0b 55bd 59fc 703e 001b c13c
000002b0: 624a a2bd 3ccf be3d b426 b0bd 4230 1dbe
000002c0: 5867 4d3e cf11 f2bd e6fd 7ebd 5b14 89be
000002d0: f19a 3b3e cf20 563e c54d da3d 7aaf 2abe
000002e0: 56da 88be f899 69be 035d 343e bd28 e03d
000002f0: 740c 4e3e efe1 183e 7119 a53d d68e 333c
00000300: 3bd7 4ebe 1f98 6ebe 01e6 81be ed97 ec3d
00000310: 6de1 eabd 432c 26bd 71ec 0bbe 2154 6cbd
00000320: 188c 47be 68d8 39be a8dc 973d a021 b7bd
00000330: a94c 2f3e e162 92bd 2aa5 35be 4090 5dbd
00000340: 4ef3 0abe 534e b7bd 0c65 71be 422a 203e
00000350: 2d54 2cbe 820a 113e af60 da3d ebeb 2f3e
00000360: 268f 57be 37bb 323e d2ab 09be e0d2 db3d
00000370: 3697 813e 28ca c8bc 5202 35bc 2dfe 8ebd
00000380: d762 67be

bias f4 [15]
0.13557982 -0.24601945 0.1683515 0.18296008 0.23078409 -0.049548365 -0.2081449 0.04748224
0.15293738 -0.24550846 -0.06807067 -0.14584927 -0.011695088 -0.11656081 -0.09106693
00000000: 70d5 0a3e 86ec 7bbe 5664 2c3e e359 3b3e
00000010: aa52 6c3e 3af3 4abd f023 55be bd7c 423d
00000020: 9e9b 1c3e 9266 7bbe a368 8bbd 8359 15be
00000030: c19c 3fbc 6fb7 eebd 4c81 babd

weight f4 [1, 15]
-0.09355609 -0.25581035 0.21956088 0.20598537 -0.025826143 -0.04033524 -0.10496036 -0.22271876
-0.26143062 0.10712615 -0.13230981 -0.17485374 -0.030892637 -0.09646788 -0.097520135
00000000: 569a bfbd 93f9 82be 91d4 603e d4ed 523e
00000010: 5991 d3bc 9136 25bd 75f5 d6bd 6310 64be
00000020: 3cda 85be f464 db3d 397c 07be dc0c 33be
00000030: 8e12 fdbc f490 c5bd a3b8 c7bd
