docs/notebooks/paper_experiments/results/unsupervised/iter_4/model_autoencoder_4.pt (torch, 32391 bytes, 13 tensors)

mean f4 [2]
000000 71 7e 29 bf 73 39 99 3f
       -0.6620856 1.1970657

range f4 [2]
000000 f5 41 a9 3e 35 57 bf 3e
       0.33058134 0.3737122

weight f4 [20, 2]
000000 fb 79 0e 3f 0a 30 8e 3d 83 62 00 bf 4e b7 02 3c
       0.5565488 0.069427565 -0.50150317 0.007978274
000010 b4 fb 19 bf 80 40 e5 be 48 bf f3 3d d6 49 11 3f
       -0.60149693 -0.44775772 0.119017184 0.5675329
000020 11 9d b4 3e 2b bf 2e 3f 21 87 2f bf cc a4 45 bf
       0.35276082 0.6826045 -0.68565565 -0.77204585
000030 2e d0 d6 be a2 7e b6 bd f4 96 e0 bd e3 0d 47 3f
       -0.41955703 -0.08910872 -0.10966292 0.77755564
000040 09 6c dd 3e b9 69 68 be c7 40 30 3e 3b 0b d1 3e
       0.43246487 -0.2269658 0.1721221 0.4082888
000050 d0 57 fe bc 28 51 2f bf 6e ed 10 bf 51 cd af bd
       -0.031047732 -0.6848321 -0.5661229 -0.08584083
000060 ed c1 39 3f 21 62 84 be 74 d6 ba 3d 9f 97 1f bf
       0.7256153 -0.25856116 0.09122935 -0.6234073
000070 32 78 cc 3c d4 4a 87 be c4 c8 c3 be 38 a0 40 bf
       0.024959657 -0.26424277 -0.3823911 -0.75244474
000080 b4 86 c8 3e 79 f8 99 bd 88 e2 44 3f e5 7f 55 be
       0.3916527 -0.075180955 0.7690816 -0.20849569
000090 cf 5d 0c 3f cb 88 ee bd dd 45 17 3f 7a 8a 23 be
       0.5483064 -0.11647185 0.5909098 -0.15970793

bias f4 [20]
000000 99 7c 99 bd d2 ea 81 bd 90 d5 ad be c0 b9 b7 be
       -0.07494468 -0.063436165 -0.33951998 -0.35883904
000010 0e 7e 0b bf e6 86 11 3f 66 be fc 3e d0 31 de bd
       -0.5448922 0.56846464 0.49364012 -0.10849345
000020 15 31 f7 3e 47 e4 ee 3e a2 33 e0 3d 13 16 38 3f
       0.48279634 0.46658537 0.10947348 0.7190868
000030 f7 19 3d bd 34 a9 d2 bd e4 70 c6 3c 03 db d1 3e
       -0.04616734 -0.10286179 0.024223752 0.40987405
000040 df 32 16 3e f3 be 08 bf cf 8d 31 3f d1 61 81 3e
       0.14667843 -0.53416365 0.6935701 0.2526994

weight f4 [20, 20]
000000 e1 32 f1 bd 61 18 80 bd 38 b6 e4 bd 38 77 6a 3d
       -0.117772825 -0.0625465 -0.11167568 0.057242602
000010 a7 c5 9e be 80 ca 10 3e 01 35 30 3e 46 c1 46 be
       -0.31010172 0.14139748 0.1720772 -0.19409665
000020 7c 97 cc bd 02 db 5c bd 0e 39 1a 3d de 48 89 3e
       -0.09989831 -0.0539198 0.037652068 0.26813406
000030 22 08 f9 b9 0e 57 87 3e fe 01 2a 3e d3 a6 92 3d
       -0.0004749904 0.26433605 0.16602322 0.071607254
000040 45 e1 ba 3c 52 ea 00 bd 96 90 1b 3e 04 6d 23 3e
       0.022812495 -0.031473465 0.15191874 0.15959555
000050 10 60 94 be ea 4d d9 bc 87 98 7d 3e 3a 10 33 be
       -0.2897954 -0.02652641 0.24765216 -0.17486659
000060 f9 78 db bd a7 a9 31 3e da 6e 07 bc 0f 86 32 be
       -0.10716433 0.17349873 -0.008266175 -0.17433952
000070 30 6c 7b be 54 9f a2 3d c4 88 f1 3d 01 e9 d3 bd
       -0.24552989 0.07940546 0.11793664 -0.10347176
000080 a5 3d 31 bc f8 34 8f 3e 65 ca 03 bc a2 ab 84 bc
       -0.01081792 0.279701 -0.00804386 -0.016195122
000090 c6 c3 0a 3e 49 5e cf 3d 43 54 6c be cc a3 fa bd
       0.13551244 0.10125405 -0.23079018 -0.12238273
0000a0 a0 d3 6a bd 11 cd 42 be 24 b3 fd bd 58 01 1e 3e
       -0.057330728 -0.19023539 -0.12387684 0.154302
0000b0 9f 25 c7 3d c9 a2 ce 3d c4 2e 57 bc 50 73 81 3e
       0.097239725 0.100896426 -0.013133708 0.2528329
0000c0 53 b3 87 3e e6 7c 85 3e 72 30 95 be 1e b9 a0 bd
       0.26504 0.26071852 -0.29138523 -0.07847808
0000d0 24 06 fb 3c 60 c2 66 39 11 fe 37 be a2 8a 8d be
       0.030642577 0.0002200692 -0.17968012 -0.2764483
0000e0 74 6c bc bb 60 8c 64 3a 09 5a 1d 3e e2 da a4 bd
       -0.0057502333 0.0008718427 0.15366377 -0.08049561
0000f0 85 12 6b 3e 90 30 c0 3d 1e 61 e9 bd 55 4b 4c 3e
       0.22956283 0.093842626 -0.11395477 0.19950612
000100 12 92 03 be 00 41 8e bd 80 d3 02 3e 49 98 72 bd
       -0.1284869 -0.069459915 0.12775993 -0.05922726
000110 f8 e5 a1 3d ad cf 8f 3e a1 a1 1c be 7f 32 23 bd
       0.07905191 0.28088132 -0.15296032 -0.03984308
000120 79 9a 6f 3e 94 07 73 be 7e bc a2 bd 2f ee 88 be
       0.2339877 -0.2373336 -0.07946108 -0.2674422
000130 7d 37 94 bc 4c 14 0d be 74 73 0e be 3d 27 0f 3e
       -0.018092865 -0.13777274 -0.1391123 0.13979812
000140 72 3f 8b 3d b7 49 a0 3d 79 ad 97 3d 30 73 9b bc
       0.067992106 0.0782656 0.07406134 -0.018975824
000150 4d d6 30 3e d7 47 79 be d2 8c 89 be 77 76 0c 3d
       0.1726925 -0.24343811 -0.2686525 0.034292664
000160 09 6b 21 3e 5a ec 25 3e cc 00 bb 3d 87 f3 cc bb
       0.15763487 0.16203442 0.09131011 -0.0062546167
000170 b5 40 d0 bd 38 90 5b be bc 67 86 be cb 5a 8a be
       -0.10168592 -0.21441734 -0.26251018 -0.27022395
000180 12 0b 13 be 8b 5d 4b 3e f2 ed 90 3e e7 44 45 3e
       -0.14359692 0.19859903 0.28306538 0.19264565
000190 c4 fa 11 3e d2 5b 1d be 96 4f 75 bd ba c3 ea 3d
       0.14255816 -0.15367058 -0.059890352 0.11463113
0001a0 4b 2b 20 3e e2 b2 d4 3d 93 37 54 be 97 28 f5 3d
       0.15641515 0.10385682 -0.20724325 0.119706325
0001b0 1e 85 80 3e 45 4a a6 bd 9a f6 17 3e 26 6a 1c 3e
       0.2510156 -0.081196345 0.14840165 0.15274867
0001c0 8f fd 0b be 40 e4 84 bd 54 01 32 be b3 7a 0c 3e
       -0.13670944 -0.06488848 -0.17383319 0.13718681
0001d0 d2 4a 90 3d 8d 08 12 bd 8f 73 7e 3e ea 31 57 3e
       0.07045521 -0.035652686 0.2484877 0.21015134
0001e0 72 e2 1c 3e 58 60 89 bc e2 09 2c be 07 8f 9f 3e
       0.15320757 -0.016769573 -0.16800645 0.3116381
0001f0 17 d4 35 bd 70 f2 97 be c4 e4 0a 3e de cf 9d 3e
       -0.044391718 -0.29677153 0.1356383 0.30822653
000200 44 93 f8 bd bb ac cb 3d 51 97 6c be e5 ba 7f be
       -0.12137464 0.09945055 -0.23104598 -0.24973638
000210 c3 78 77 3e fd 47 af 3d c5 12 54 3c 95 e2 83 be
       0.2416716 0.085586525 0.012943928 -0.25758806
000220 da 2b ba 3c 46 10 6b bd ee f1 41 3e 3e d4 6a 3d
       0.022725988 -0.057388566 0.18939945 0.057331316
000230 49 26 29 3e d3 4f 01 3e b2 3c 90 be 72 67 30 3d
       0.16518511 0.12628107 -0.28171307 0.043067403
000240 d0 4e f8 3d 71 14 01 be 49 b7 16 be fe 3b a5 bc
       0.12124407 -0.12605454 -0.14718355 -0.020170208
000250 e4 30 4a 3d 07 fd 1e bd aa 2e e4 3c df 54 88 be
       0.049363032 -0.038815524 0.027854282 -0.26627252
000260 dd 0d 13 bd 09 73 23 bd a4 62 a6 3d b2 f0 54 bd
       -0.035901893 -0.039904628 0.08124283 -0.051987357
000270 fd 10 aa bc f9 79 52 3e c0 e1 9c 3d 1a 64 44 3d
       -0.020760054 0.20554341 0.07660246 0.047947027
000280 18 10 3f bc 6d de 7e be b8 ea 4d be 27 bb 2a 3c
       -0.011661552 -0.24889536 -0.2010907 0.010420597
000290 08 37 8b 3e 61 9e 6f be ed e8 be 3d 60 0a 8e bd
       0.27190423 -0.2340026 0.09321771 -0.069355726
0002a0 e9 09 fb 3d 53 87 f9 3c 79 fe 13 be 4b 31 a1 bc
       0.122577496 0.030460035 -0.14452542 -0.019676825
0002b0 d5 2e 25 3d 57 6c bd bd 0e fb ff bd 74 64 c7 bc
       0.040327866 -0.0924918 -0.12499057 -0.024339892
0002c0 41 96 65 3d ef 59 67 3e 85 ea d0 bd 91 0d 62 3e
       0.056051496 0.225929 -0.10200981 0.22075488
0002d0 1d c7 2f 3e 16 73 a4 3d 8f 0d 97 be 27 64 98 3e
       0.171658 0.080297634 -0.29502532 0.2976391
0002e0 f0 e5 73 3e 31 8e ea bd 85 69 00 bc c1 e6 2f 3e
       0.23818183 -0.11452902 -0.007837658 0.1717787
0002f0 e4 c9 5a 3e 49 d1 97 bd e9 b9 fd bd f8 7d 29 be
       0.21366078 -0.07412965 -0.12388975 -0.1655196
000300 13 89 b6 3b 09 4b a4 be c4 9c c4 bd 52 ba 8d bd
       0.0055705397 -0.32088497 -0.09600213 -0.069203034
000310 54 44 a7 3d 3d ca a7 bd a0 71 60 3e 27 92 8c bc
       0.081673294 -0.08192871 0.21918344 -0.017159535
000320 b4 97 83 3b 8f 12 a8 bc b3 a7 96 3e 6f 8a 86 be
       0.004015887 -0.020516662 0.2942482 -0.2627749
000330 ea c4 e0 bd 57 a5 79 bd b0 ae 17 3e 72 cf ea 3b
       -0.109750584 -0.060948696 0.14812732 0.0071658427
000340 65 46 67 be ba 7a 94 3d aa 10 5a 3e 34 97 5d bd
       -0.22585447 0.07249971 0.2129542 -0.054099277
000350 b2 9b 6e be c9 1c 03 be 49 e5 6d 3e bb ff 45 3e
       -0.2330158 -0.1280395 0.23231997 0.19335835
000360 5e 73 35 be 6c 31 cb bc 2e 99 92 be 04 76 8c be
       -0.1771979 -0.02480384 -0.28632492 -0.2743379
000370 ce dd 05 3e 3b 79 cb bd 63 6c 9a 3d 54 05 f8 3c
       0.13072893 -0.09935232 0.075402044 0.030275978
000380 53 3b d9 3d c4 a0 7e 3c d1 ed 68 3d 8d c7 3c be
       0.10607018 0.015541259 0.056867424 -0.18435498
000390 e6 7f 25 3e 33 f8 b6 bd 24 1c 50 3e 6d ea 81 3e
       0.1616207 -0.08934059 0.20323235 0.25374165
0003a0 ee ae e3 bd 06 a5 87 3e 98 64 68 3d 09 be 70 3d
       -0.111173496 0.2649309 0.05673656 0.05877498
0003b0 3b 3f 9a 3d ac e1 4b be 20 12 84 bd 3b 96 6b bd
       0.075315915 -0.19910306 -0.064487696 -0.057516318
0003c0 35 e1 f5 3c 53 25 6b 3d 15 d1 30 3c 25 57 5c 3e
       0.030014614 0.057408642 0.010792037 0.21517618
0003d0 38 d6 8c 3e db f7 30 bd a2 a4 c1 3d 6b 49 62 3d
       0.27507186 -0.043205123 0.09455229 0.055245798
0003e0 60 cb 1f 3c 2e 95 00 3e c5 2e 34 be e8 1c 21 be
       0.009753078 0.12556908 -0.17595966 -0.15733683
0003f0 13 36 37 3e 30 e3 dd 3d bf ca a0 be 1d e3 83 be
       0.17891721 0.10834348 -0.31404683 -0.2575921

bias f4 [20]
000000 81 3d c6 bd 21 09 06 3e be 48 8e bd d7 75 d5 3c
       -0.096797 0.1308942 -0.06947468 0.026057167
000010 54 f4 cd bd 66 7f 01 3e 5d 7f 25 3e 65 87 10 3e
       -0.100563675 0.12646255 0.16161866 0.14114149
000020 2f ea 54 3e f7 f2 95 3d 37 1f 43 3e 16 0c 29 3d
       0.20792459 0.073217325 0.19054876 0.04127129
000030 93 9b df bd 79 dc 3f 3c f5 50 1b 3e e0 db 8e 3e
       -0.10918345 0.01171028 0.15167601 0.27902126
000040 c0 9b c4 3c 9f 95 34 3e 28 28 98 3e 3a aa 19 3c
       0.024000049 0.17635201 0.29718137 0.009378964

weight f4 [1, 20]
000000 79 f0 5f 3e 43 d9 16 3e a1 33 13 be e2 65 ad bd
       0.21869077 0.14731316 -0.14375164 -0.08466698
000010 48 92 26 be b1 5f fb bb 62 24 8f be 99 79 69 be
       -0.1626674 -0.0076713194 -0.27957445 -0.22800292
000020 7d bd 24 be d0 65 b5 bd d2 9c c3 3d a7 3f 00 3e
       -0.16087909 -0.0885731 0.095513955 0.12524281
000030 ac 85 55 be a6 9a 8a 3e 0d 82 0d 3e 60 4b 3e be
       -0.20851773 0.27071112 0.13819142 -0.18583441
000040 b6 e3 45 3e 35 42 8b 3e d8 88 83 be aa 2f 3f 3e
       0.19325146 0.2719895 -0.2569034 0.18670526

weight f4 [20, 1]
000000 1f ec 44 3f 20 2d 55 bf 3f 1c dd 3e 28 1b 51 3f
       0.7692279 -0.8327198 0.43185613 0.8168206
000010 55 b9 73 bf 10 28 2c bf fc 26 74 bf e2 c4 83 bf
       -0.9520467 -0.6724863 -0.95371985 -1.0294459
000020 de b3 17 3f 66 5d 19 3f 61 f3 88 3e 00 49 93 3e
       0.5925883 0.5990814 0.26748183 0.28766632
000030 e8 20 d9 be 02 7f 1f bf 7f cd b5 3d d6 15 5b 3f
       -0.42407918 -0.62303174 0.08877086 0.85580194
000040 8c 7f 64 3f c0 8d 5a bf 91 b8 86 3f 6d bf 80 3f
       0.8925712 -0.85372543 1.0525075 1.0058419

bias f4 [20]
000000 1d 15 08 3f d3 35 57 3f 94 e2 bd be 75 df c5 3d
       0.53157216 0.84066504 -0.37086928 0.09661762
000010 d2 9f 5b bf 6e 30 fa 3e 96 fc 72 be 6e 23 1c be
       -0.8579074 0.48865074 -0.23729166 -0.1524789
000020 00 c2 51 3e 30 84 1b be 95 74 d3 be 48 7d 2b 3f
       0.20484161 -0.15187144 -0.41299883 0.6698804
000030 67 15 28 3f 22 2d 03 bd 60 e5 58 3f 5f 14 9b bd
       0.6565766 -0.032025464 0.84725 -0.07572245
000040 df b9 c7 3e c8 76 0a 3f a4 b0 5a bf 20 ef 02 bf
       0.39008996 0.54087496 -0.8542578 -0.51146126

weight f4 [20, 20]
000000 81 19 d4 bd f0 c3 45 3e 0c 39 0d be 86 8d cb bc
       -0.10356427 0.19313025 -0.13791293 -0.024847757
000010 c8 06 00 be 77 e5 89 3e 46 bf 18 3e 2c 43 7c 3d
       -0.12502587 0.2693288 0.14916715 0.061587498
000020 7a 59 08 be 82 d1 05 3e c1 4e 7b be d9 51 6b 3d
       -0.13315383 0.13068202 -0.24541761 0.057451103
000030 ee 17 08 3e ff e2 36 3d d0 29 b3 3d f9 68 29 be
       0.13290378 0.044650074 0.087482095 -0.1654395
000040 ea fb 45 3e 16 b9 93 3e 54 ea b3 bd 57 96 91 be
       0.19334379 0.28852147 -0.08784929 -0.28435013
000050 b1 d6 1e be 12 18 2c 3e 1f 14 8b be 15 d8 76 be
       -0.15511586 0.16806057 -0.2716379 -0.24105866
000060 3b ba e7 bd 39 f4 00 3e c9 3a b6 3b c7 bf e2 bd
       -0.113148175 0.12593164 0.005561207 -0.11071735
000070 3b 44 08 3e b7 7f e2 3a 08 6d e6 3d 02 eb e2 3d
       0.13307278 0.0017280494 0.11251265 0.110799804
000080 8f 02 98 bc 6f 5e 72 3d 89 8d 87 bd af 78 12 be
       -0.018555908 0.05917209 -0.066187926 -0.1430385
000090 3b 52 c8 3d f9 eb 9d bd 12 3b cb bd 17 e4 ee 3d
       0.09781309 -0.07711024 -0.09923376 0.116645984
0000a0 33 6b 0c 3e 1c a1 67 3e 18 2d d9 bd 51 2f 8e be
       0.13712768 0.22620052 -0.10604304 -0.27770475
0000b0 6f fa 73 bd 89 ee 77 3e c4 1f 3c 3e e6 94 24 3e
       -0.059565004 0.24212088 0.18371493 0.16072425
0000c0 b2 f8 15 be b4 f3 22 be c3 1c 5f be 09 29 80 be
       -0.14645651 -0.15913278 -0.21788315 -0.25031307
0000d0 48 38 a5 bc ec 31 3d 3d 24 8c 85 bd f0 ff 5e be
       -0.020168439 0.046190187 -0.0652087 -0.2177732
0000e0 4b d2 25 bd 80 d5 0b be 6f fc 40 be d6 91 15 bd
       -0.040483754 -0.13655663 -0.18846296 -0.036516033
0000f0 02 57 07 3e 54 4f 83 3e 78 4a b3 3b c6 30 22 3d
       0.13216785 0.2564646 0.005471524 0.039597295
000100 2d c8 68 3e 1a 1a 93 bc a0 07 cd 3d 05 9a fa bd
       0.22732611 -0.017956782 0.1001122 -0.12236408
000110 56 fb 17 be 91 4d 66 be 55 61 7e be 63 11 50 be
       -0.14841971 -0.22490527 -0.24841817 -0.20319133
000120 9a 98 87 3d 7c 28 2b 3e ed 85 45 be 14 91 07 bd
       0.06620903 0.16714662 -0.1928937 -0.03309734
000130 c9 9f 10 be 9a da 10 be 0d 42 c8 bd a3 55 94 be
       -0.14123453 -0.1414589 -0.09778223 -0.28971586
000140 f8 fa ad bc 61 67 04 3e 0a 38 e8 3d f1 99 0f 3e
       -0.021237835 0.12930061 0.113388136 0.14023568
000150 2d ad 1c bb 84 30 00 be 6a e5 0c be 1c f8 b6 bd
       -0.0023906932 -0.12518507 -0.1375939 -0.08934042
000160 d8 12 ef bd 5c d8 96 3e e7 e9 70 3e ae 55 89 bd
       -0.11673516 0.29461944 0.23526727 -0.06705795
000170 68 e8 29 be 75 2e bf 3c ad d3 18 bd fd 75 c9 bd
       -0.16592562 0.023337582 -0.037311245 -0.098369576
000180 30 f7 74 3e 03 49 5d be 8e c0 20 3e 49 e7 a1 bd
       0.2392242 -0.21609883 0.15698454 -0.07905442
000190 52 02 ad bd 63 e2 21 bd 45 c2 d5 3c a0 b1 25 3c
       -0.08447708 -0.03952254 0.026093611 0.01011315
0001a0 ee 30 83 be 3e ab 95 be cc 56 37 3d 12 04 28 be
       -0.25623268 -0.2923221 0.04476051 -0.16407803
0001b0 d4 32 98 3e db 64 de 3d d4 32 b0 bc 07 fd 4d bd
       0.2972628 0.108590804 -0.021508612 -0.050290134
0001c0 b3 bf 7d be 5f 84 36 be 79 85 aa 3c 59 59 1e 3e
       -0.24780159 -0.17823933 0.020815598 0.15463771
0001d0 81 25 97 3e 91 4a 91 3d fd 68 64 bd 20 70 8b 3d
       0.295208 0.070943005 -0.055764187 0.068084955
0001e0 fd f2 03 3c d1 6e 61 3c 3b 03 e5 bd e0 9c 61 3e
       0.008053538 0.013759331 -0.11182257 0.220325
0001f0 7d 6e a4 3d d8 ff 21 bd 8b 0a 88 bc 74 5b e3 bd
       0.080288865 -0.039550632 -0.01660659 -0.11101428
000200 68 cc 08 3d 99 cb 41 3d 06 dd 34 3d 02 14 45 3e
       0.033398062 0.047313306 0.044156097 0.19245914
000210 93 ab cb 3c e3 b1 09 bd a2 3b 19 3e b1 46 b5 bc
       0.024862086 -0.03361691 0.14964154 -0.022128435
000220 43 d7 04 3d e3 e6 55 be 1b b7 2c 3e b4 27 97 3e
       0.032431852 -0.20888858 0.16866724 0.2952248
000230 dc 42 f1 3d f4 76 1b 3e e5 98 8b be d2 d0 9c be
       0.117803305 0.15182096 -0.27265087 -0.30628067
000240 e4 23 ce 3d 15 12 c0 bd 5b 59 85 3e 42 0b 6a 3e
       0.10065439 -0.09378449 0.26044735 0.22855857
000250 8b 39 a0 bc 3d d9 4f bd 9f dd 95 3d cb 90 a4 3d
       -0.019558689 -0.050744284 0.073176615 0.080354296
000260 2c 73 e3 3c 3c cc a6 bd 36 81 96 bc be a9 d2 bd
       0.02776488 -0.08144423 -0.01837216 -0.10286282
000270 d7 35 60 bd bc 5c 46 3e de c8 39 be ce 80 08 bd
       -0.054738846 0.19371313 -0.18143031 -0.033325963
000280 21 6e 26 3c 93 40 5e 3e 1a 59 d5 3d 87 e9 31 be
       0.010158093 0.2170432 0.104173854 -0.1737424
000290 cc 8b 6c 3e 6b 69 e3 3c ae e9 0c be ce 23 84 3e
       0.23100203 0.027760228 -0.13761017 0.25808567
0002a0 46 21 03 be 86 05 88 be b3 e5 80 be 26 ad e0 3d
       -0.12805662 -0.26566714 -0.25175247 0.109705254
0002b0 d9 24 7c 3e 54 b0 f6 3c c0 68 e8 3d 17 eb ec 3c
       0.24623431 0.030113377 0.113481045 0.028920693
0002c0 a4 b8 7e be 87 47 d4 bd ae f8 94 be bf a5 e8 bc
       -0.24875122 -0.10365205 -0.29095978 -0.028399346
0002d0 95 19 d7 3d a8 36 d2 3d 13 e5 a7 3d da 28 04 3e
       0.10502926 0.10264331 0.08197989 0.12906209
0002e0 95 53 4f 3e a4 ce f5 3c 39 a5 cf 3d 1e d1 00 3d
       0.20246728 0.03000576 0.101389356 0.03144943
0002f0 63 2e 56 be fd 92 eb 3b 5e 29 74 be ac 7a 0b 3e
       -0.20916133 0.007189153 -0.23843905 0.13621014
000300 ff 2e 6d 3b 0d e0 77 3e 7d eb 03 3c b7 f5 85 be
       0.0036191342 0.24206562 0.00805175 -0.26164028
000310 96 f2 17 be 15 5a fb bd 73 7d 6e be 1c 50 93 3c
       -0.14838633 -0.12273041 -0.23290043 0.017982535
000320 c7 cc 5e be d2 28 17 3e a4 67 a8 3d b8 00 9f bd
       -0.21757804 0.14761665 0.08222893 -0.07763809
000330 68 33 c9 3d 0f fb cc 3b 25 69 83 3e ec 20 5d 3e
       0.09824258 0.0062555145 0.25666156 0.2159459
000340 06 4f 43 be 62 76 99 be 76 ae 85 3d 64 41 35 3d
       -0.19073114 -0.2997313 0.065274164 0.044251814
000350 82 3c 09 bd c1 a0 88 bd 6c f5 01 3e dc 04 7c be
       -0.03350497 -0.066712864 0.12691277 -0.24611229
000360 6f 98 1f be ef 04 69 3e e3 bb be 3d c9 30 52 be
       -0.15585493 0.22755788 0.0931318 -0.20526423
000370 af 5c 42 be 7b 8d 66 3e 47 6c 05 be 25 9f 43 bd
       -0.18980668 0.22514908 -0.13029586 -0.047759194
000380 13 0f a3 3d 4e ec 89 3e 5c 0a 90 3e 60 0e ad bb
       0.079618596 0.269381 0.28132904 -0.0052812546
000390 8b 0f f4 3d ff 9f ef bd 13 96 de bd 51 00 52 be
       0.11917027 -0.11700439 -0.10868468 -0.20507933
0003a0 7b 33 f5 bd a1 a3 14 3e 34 04 35 3d 34 40 0f be
       -0.1197271 0.14515544 0.04419346 -0.13989335
0003b0 cf 64 81 be fc cb 02 be 15 54 1f be 70 4e 78 bd
       -0.25272223 -0.12773126 -0.15559418 -0.06062168
0003c0 53 94 07 be 3c 04 ff 3d 49 15 02 3e 27 ba 82 3e
       -0.13240175 0.124519795 0.12703432 0.25532648
0003d0 95 7d 00 be 10 3b 7f bd 4e 15 8e be d1 4c 9d bd
       -0.12547906 -0.062312186 -0.2775063 -0.07680667
0003e0 b5 2e 7a 3d 9d fa c8 bd 59 a5 aa bd ff b7 3c bc
       0.0610797 -0.09813426 -0.08332319 -0.011518477
0003f0 3b e9 20 be 2f e1 45 be fd 80 37 3e ea b4 81 3d
       -0.1571397 -0.19324182 0.17920299 0.06333335

bias f4 [20]
000000 3c b6 25 3e 4c f7 6d be 65 9f ed bc 5b 3f 85 3e
       0.16182798 -0.23238868 -0.02900667 0.260249
000010 0f ab 3b be d2 e0 18 3e 85 94 9c bd ff 77 06 bd
       -0.18326972 0.14929512 -0.07645515 -0.03282928
000020 41 e6 ae bb 85 e3 96 3d 3c 5f 09 3e d4 57 50 bd
       -0.005337507 0.07367615 0.13415235 -0.05086501
000030 8c b7 79 3d cd 42 02 3e 85 61 66 3e be 9f 4c be
       0.06096606 0.12720795 0.22498138 -0.19982812
000040 d1 2a 40 3e 4a 2e 94 3d d2 15 6b 3d d5 e0 2a 3d
       0.18766333 0.072353914 0.057393856 0.041718323

weight f4 [2, 20]
000000 e4 43 54 3e 12 42 04 3d d4 d0 85 3e 19 22 82 3e
       0.20729023 0.032289572 0.26135886 0.2541664
000010 43 25 f1 bd c0 82 56 bd 78 37 78 bd d1 a1 75 3e
       -0.11774685 -0.052370787 -0.060599774 0.2398751
000020 ad f2 86 3e 8d b2 8d 3e 9b 42 36 3e eb 32 74 3e
       0.26357022 0.27675286 0.17798845 0.23847549
000030 81 6b 78 bd 0d 5f 74 3d da c1 16 bd ab e6 7e 3e
       -0.0606494 0.05966096 -0.036805965 0.2489268
000040 39 1d 68 3d 96 a3 96 3e 41 0d c6 bc ec 10 91 be
       0.056668494 0.2942168 -0.024176242 -0.28333223
000050 f7 c6 48 bd 5f ca 18 3d b6 5e 6d 3e f9 0d cc bc
       -0.049017873 0.03730237 0.2318066 -0.024909006
000060 44 40 2c be 44 d5 54 be 10 91 0f be 81 fc b7 3d
       -0.1682139 -0.2078448 -0.1402018 0.08983708
000070 b2 97 85 3e c5 c5 af bd de d9 80 3e 7b 06 62 3e
       0.26092297 -0.085826434 0.2516622 0.22072785
000080 d0 2d 02 be a3 be 27 be 2b 3b 92 bd ad 6b ab bd
       -0.12712789 -0.16381316 -0.07140192 -0.08370147
000090 96 e6 86 be e7 25 f2 3d b5 95 49 3e d2 8e 4e be
       -0.26347798 0.118236355 0.19686015 -0.20171669

bias f4 [2]
000000 d6 7b 53 bd 85 ec 43 3e
       -0.05163177 0.19133194
