docs/notebooks/paper_experiments/results/unsupervised/iter_2/model_autoencoder_2.pt (torch, 32291 bytes, 13 tensors)

mean f4 [2]
000000 44 ab 3b bf 47 33 9a 3f
       -0.73308206 1.2046899

range f4 [2]
000000 61 c6 a6 3e 28 d3 b0 3e
       0.32573226 0.345361

weight f4 [20, 2]
000000 83 c0 38 3e 67 8d 4b be 03 5a 4e bf 52 26 45 bc
       0.18042187 -0.1987816 -0.80606097 -0.012033062
000010 c8 c3 7e 3e fb 97 2f bf 9d ad 88 be be cc b4 be
       0.24879372 -0.6859128 -0.26694956 -0.35312456
000020 25 8d 96 bc f4 8f 1b be fd f3 0b bd cd 1a 2c bf
       -0.01837785 -0.15191633 -0.034168232 -0.67228395
000030 82 ac 86 be a1 7d 76 bd 4a 2f 4b 3f 04 a0 6d be
       -0.26303488 -0.060178403 0.7936903 -0.23205572
000040 78 4a 8c 3d 7b a6 38 3f e3 a4 bc be 0d 66 b5 3e
       0.06850141 0.7212903 -0.3684455 0.3542942
000050 0e 05 96 be 00 00 48 bf e7 07 bb be 8a 47 9b be
       -0.2930073 -0.78125 -0.36529467 -0.30328017
000060 aa c9 76 be e5 5a 87 be 4f 8a 9e 3d 1b 9f 48 bf
       -0.24100366 -0.26436535 0.07741224 -0.78367776
000070 e4 91 4f be eb a4 c4 bd 6b cc 41 3d 02 92 b9 be
       -0.20270497 -0.09601768 0.04731409 -0.36244208
000080 45 c2 eb 3e 5a 9b 65 3e 12 3d 5b 3e b7 fe 14 bf
       0.46046653 0.22422543 0.21410015 -0.58201164
000090 c1 ee db be a5 8f 31 bf c4 9f f0 be 70 97 02 bf
       -0.42955592 -0.6935981 -0.46996891 -0.51012325

bias f4 [20]
000000 28 ae 48 3f 5f 7c 8b be 7e c3 1b 3f 44 9c 9d 3e
       0.7839074 -0.27243325 0.6084517 0.30783284
000010 c0 cb a5 be 69 21 9d be 48 41 94 be e6 eb ac 3e
       -0.3238201 -0.30689552 -0.28956056 0.33773726
000020 3c f3 e8 bd 61 d9 1c 3f 2d c3 42 3e 5e 16 c4 3e
       -0.11374518 0.61269194 0.19019766 0.38298315
000030 cb ca f3 bd e2 11 bf 3e 02 af 08 3f 16 78 5a 3e
       -0.11903914 0.3731833 0.5339204 0.21334872
000040 41 ff 19 bf 74 05 1e bf 54 51 cf be fe dc 17 3d
       -0.6015511 -0.6172707 -0.40491736 0.03707599

weight f4 [20, 20]
000000 9c b5 8e 3a 05 60 a4 be 27 a2 ee 3c 5a 88 7c be
       0.0010887864 -0.32104507 0.029130055 -0.24661389
000010 6b ae 17 be 0b 3e 87 be 8f c0 d3 bd 2e d5 b9 3d
       -0.14812629 -0.26414523 -0.10339462 0.09073864
000020 cc 2a 03 3d 77 9a 59 be 13 61 84 3d 27 c8 99 be
       0.032023236 -0.2125033 0.06463828 -0.30035517
000030 25 b2 c6 bb f6 ad 81 3c 36 ba 0e be 71 95 77 bc
       -0.006063717 0.015830021 -0.13938221 -0.015111313
000040 6b d0 1e 3e 8b 2c 14 be f3 49 a9 bd 5f 15 55 bd
       0.15509193 -0.14470117 -0.08266058 -0.052022334
000050 8a 57 b5 3d 94 47 47 be 2c f9 5c bd 17 8b 02 be
       0.088545874 -0.19460899 -0.053948566 -0.12748371
000060 ec 20 76 be 8c af 9c be 92 94 9e bd 88 a0 25 3e
       -0.24035996 -0.30602682 -0.07743181 0.16174519
000070 79 36 6f 3d 8e 3b 80 3e 6b 43 8b be 3d 6d d1 bd
       0.05840156 0.25045437 -0.27199873 -0.10225914
000080 40 ac 35 be 97 f5 7c be b2 96 80 3d 54 17 94 be
       -0.1774149 -0.2470306 0.06278743 -0.28924048
000090 f7 89 a3 3e e5 51 01 3e 25 c9 19 be bf 44 96 be
       0.31941196 0.12628897 -0.15018137 -0.29349324
0000a0 e4 d3 11 be 4d fd 99 3e 2f bf 09 3d 37 db 84 bc
       -0.14240986 0.30076066 0.033629593 -0.016217811
0000b0 aa fe be 3d 45 26 09 be 73 d3 da 3d 3e 5b 84 be
       0.09325917 -0.13393505 0.10684862 -0.25850862
0000c0 03 b8 1a be 93 fb 48 3e ac 30 40 39 9c 7b 90 3e
       -0.15109257 0.19627218 0.00018328679 0.28219306
0000d0 0a a0 a8 3c 34 ff 15 3e dd d3 a1 3e 6f d1 5a 3d
       0.020584125 0.14648134 0.3160695 0.053422388
0000e0 a0 21 b5 be c6 1e 41 be 0e e2 45 3e d8 3e 16 bc
       -0.35377216 -0.18859395 0.19324514 -0.009170257
0000f0 63 2d 01 be 1a 55 86 3e ff 52 1c 3e c8 68 a2 3e
       -0.1261497 0.26236802 0.15266035 0.31720567
000100 72 06 8c 3d bf 2d 11 3e 64 d4 6a 3e 0d b5 82 be
       0.06837167 0.14177607 0.22932583 -0.25528756
000110 c0 65 b9 bc ff 3a a3 bb b8 2d cc bd ef be 05 3d
       -0.022631526 -0.004981398 -0.09969658 0.03265279
000120 c3 be 87 3c a6 91 2d 3e 37 3a b4 bd e6 5c 58 3e
       0.016570454 0.16950092 -0.08800166 0.21129188
000130 e2 51 a2 be ed fb 17 3e 17 54 ab 3d 30 0d 89 3e
       -0.31703097 0.14842196 0.08365648 0.26767874
000140 00 98 f7 3d f9 7b ff bd b4 6f 48 bc 9c f3 91 be
       0.120895386 -0.12474818 -0.012233663 -0.28506172
000150 93 45 fa 3c e4 aa fc 3d 9f 50 a8 be c8 d3 d3 3e
       0.030550754 0.12337282 -0.3287401 0.41372514
000160 50 12 81 3c 11 9b 34 3e d1 95 d7 bc 2b b0 85 be
       0.015755802 0.17637278 -0.026316555 -0.26110968
000170 42 37 56 be ac 96 49 be 3e 71 74 be ba bf b6 bd
       -0.20919517 -0.19686383 -0.23871323 -0.08923288
000180 f1 07 0b 3d 0a 51 e9 3c 4b 8e 02 be 90 f0 86 be
       0.03394312 0.028481025 -0.12749593 -0.2635541
000190 53 01 81 bd 88 a2 81 3e 34 b2 b1 3b 2b 80 db 3d
       -0.06299081 0.25319314 0.005422855 0.107178055
0001a0 e2 39 be bd 99 81 38 bc 6c 62 93 3e 48 a6 1b be
       -0.09288384 -0.011261367 0.28786027 -0.1520015
0001b0 dc 83 f3 bd be bf 10 bd 4a d2 14 bd 68 df d7 3d
       -0.118903846 -0.03533911 -0.03633336 0.10540658
0001c0 ee 11 f7 3d d1 62 e2 3c cf 04 40 3d 35 dd ee 3d
       0.12063967 0.02763501 0.046879586 0.11663286
0001d0 14 24 4a be 9c 52 df 3c e2 fa 30 3e 8c ac 0f 3e
       -0.19740325 0.02726107 0.17283204 0.14030665
0001e0 83 20 04 bd ca 39 a5 3e 31 ab a8 3d c2 07 59 3b
       -0.032257568 0.32270652 0.08235777 0.0033116196
0001f0 be 56 c7 3d 01 71 9b bd 7b 04 a6 3d 1e 28 0b be
       0.09733342 -0.07589913 0.08106323 -0.13589522
000200 25 8d d2 bd 1a d3 99 3e 1f a1 c4 3d dd 0f 20 bd
       -0.102808274 0.3004387 0.09601044 -0.03907763
000210 23 b3 0f 3e 0a c5 2e 3e fd 3b 8b 3e 1e d9 8f 3e
       0.14033179 0.17067352 0.27194205 0.28095335
000220 a2 b7 c3 bd ff e9 fd 3d ec c3 e5 bd 8f a9 a4 3e
       -0.095565096 0.12398147 -0.1121901 0.32160613
000230 9b 5c 36 be 8c f8 c5 3d a8 90 08 be 2d fc bf 3d
       -0.17808764 0.09666547 -0.13336432 0.093742706
000240 89 f2 0a 3e cd 99 3a bd e3 02 43 bc 76 dc 69 bd
       0.13569082 -0.045556832 -0.011902544 -0.057095014
000250 7c 19 16 be 2b 02 cf bc 4d af b0 bd f0 8f 2c 3e
       -0.14658159 -0.025269588 -0.08627186 0.16851783
000260 a8 77 52 3e a1 53 19 3e 4e 04 2d 3e 36 a7 3b 3d
       0.20553458 0.14973308 0.16896173 0.04581376
000270 e2 0d 97 be d1 19 8c 3d 5d ea 47 3b dd ed b9 bd
       -0.2950278 0.068408616 0.0030504682 -0.09078572
000280 24 d7 58 3e ae b3 c4 bd e4 13 06 be 54 85 97 3e
       0.2117582 -0.09604584 -0.13093525 0.2959391
000290 bc 29 d3 bd ba dd 82 3e a4 26 3d 3d ba af 85 be
       -0.103106946 0.2555979 0.04617943 -0.2611063
0002a0 d7 8a b3 3d e0 e2 69 3c 55 b1 b3 bb 65 a1 71 3e
       0.08766716 0.014275283 -0.005483786 0.23596723
0002b0 b0 6f 1b 3d e0 5f 39 3e 9f 10 5d 3e 6b 52 1b be
       0.03794831 0.1810298 0.21588372 -0.15168159
0002c0 87 0a 35 be 0e 07 c8 3c e9 eb 3e 3e 3f 88 ce 3d
       -0.17679797 0.024417426 0.1864468 0.10084581
0002d0 0d 08 7a bc 1c 81 d7 3d 7b 74 57 3e b8 b3 e1 bd
       -0.0152607085 0.105226725 0.21040528 -0.11020607
0002e0 5e 21 07 be e0 ad 59 3e b6 6b 20 bc 6c b5 63 be
       -0.13196322 0.21257734 -0.009791305 -0.22237176
0002f0 57 a8 54 bd b6 9f 5a bd 9c d0 a8 3c 00 d2 d5 bd
       -0.051918354 -0.05337497 0.020607285 -0.10440445
000300 bc 9c 3f 3e 0b 1c 3d 3d cd fe be 3c 5a 0a 02 3e
       0.18712133 0.046169322 0.023314858 0.12699261
000310 74 10 49 be ce 5a 5a bd 7d 20 a3 3e 9a a5 79 3e
       -0.19635183 -0.053309254 0.31860724 0.24379578
000320 01 63 45 3e 61 15 0e 3a 79 7f 2a be 06 ba 83 be
       0.19276048 0.0005420056 -0.1665019 -0.25727862
000330 1d 0d 4d be 2b 31 9a be a1 65 48 be db 29 ad 3e
       -0.20024534 -0.30115637 -0.19570018 0.33820996
000340 e5 64 9e 3e 91 60 4a 3d b9 60 ab be 05 59 4e bc
       0.3093635 0.0494085 -0.3347223 -0.012594466
000350 bd dc 4f be ad 48 88 bd 3d 12 9d bd bb 76 90 be
       -0.20299049 -0.06654487 -0.07669494 -0.28215584
000360 4d c6 09 3d 42 c2 13 be 3a ff 54 be 7b 74 68 be
       0.03363638 -0.14429572 -0.20800486 -0.22700684
000370 bc c7 01 be 9d 22 05 be 3a ea 13 be 7a da 98 bc
       -0.12673849 -0.13001485 -0.14444819 -0.018658865
000380 8d 65 54 bd 92 26 d6 3d 3d bf 9d be c7 d7 ee 3d
       -0.05185466 0.104565755 -0.30809966 0.1166225
000390 b6 0c ad 3e db 9d 36 3e 56 76 2b be f3 44 9a 3d
       0.3379876 0.17833655 -0.1674436 0.07532682
0003a0 c4 98 c0 bd ec 75 37 bd 61 8d d0 bd 89 4b e2 bd
       -0.09404138 -0.044790193 -0.10183216 -0.110495634
0003b0 23 6f ae 3e 63 db a2 3c ea e8 36 be 9d 32 60 bc
       0.34069166 0.019880002 -0.17862287 -0.013683942
0003c0 0f 25 05 3e 6d 70 a1 be 36 32 2f 3d a5 d8 89 bd
       0.13002418 -0.31531087 0.042772494 -0.06730775
0003d0 03 5f 5a be e6 6e 46 be 5f 29 a3 be 6b 71 5c 3e
       -0.21325307 -0.19378242 -0.318675 0.2152764
0003e0 57 35 f3 3d 04 5a 67 bd e8 a6 bc bd 81 a6 0c be
       0.11875408 -0.05648233 -0.09211522 -0.13735391
0003f0 e5 06 5b be bf e9 ac 3d ca 39 cc 3c 91 f0 fb bd
       -0.21389349 0.08443021 0.0249299 -0.12301744

bias f4 [20]
000000 9f 21 41 3e a9 68 10 bd 7f d7 04 3e 15 a9 47 3e
       0.18860482 -0.03525606 0.1297283 0.19498093
000010 26 6a c8 bd 73 31 8e bc bf 34 a9 3d 47 b4 ad bc
       -0.09785871 -0.017357564 0.08262014 -0.021204127
000020 a7 ed a0 3e 1e 69 ed bd db 2e 83 bd 5a 9e a8 3d
       0.31431314 -0.11592315 -0.06405421 0.08233328
000030 d1 ba 35 bd c1 a7 40 3e 4d 5c 55 3e 9f eb da 3d
       -0.044367615 0.18813993 0.20835991 0.106894724
000040 b8 fd 0a 3c 49 c7 75 3e 3e 7c 66 bd f4 4e 57 bc
       0.008483343 0.24001803 -0.05627083 -0.0131413825

weight f4 [1, 20]
000000 99 81 71 3e 33 21 53 3e 63 c9 dd bd 8c 43 2b be
       0.23584594 0.20618133 -0.10829427 -0.16724986
000010 30 8c f6 3d 01 b0 5c be 4c 4d 67 be 65 44 13 be
       0.120384574 -0.21551515 -0.2258808 -0.14381559
000020 23 43 fe bd d9 00 8c be bf 81 a9 3e bc 16 91 3e
       -0.12415149 -0.27344397 0.331068 0.28337657
000030 ca 80 13 3e b6 86 18 3e 55 15 8e be e1 f4 d9 bd
       0.14404598 0.14895138 -0.2775065 -0.1064241
000040 43 f4 51 3d 58 43 b0 bd 07 97 91 be f6 6a 08 3e
       0.051258337 -0.08606595 -0.28435537 0.13322052

weight f4 [20, 1]
000000 e6 51 1b bf 6f 78 18 3e 6f 71 26 3f 24 fe 5f 3f
       -0.6067184 0.14889692 0.65016836 0.8749716
000010 d2 ef 13 be f4 dc 6d bf 96 02 f0 be 26 17 37 be
       -0.14446953 -0.9291527 -0.46876973 -0.17879924
000020 a2 53 3e 3f e6 58 26 3e 17 46 a9 3d 0d 41 32 3f
       0.74346364 0.1624485 0.08265322 0.6963051
000030 6e d5 6e bf 1f e6 5e 3f b1 01 f9 be 5a e1 e2 3e
       -0.9329442 0.87069887 -0.48634103 0.44312555
000040 7b 5d 5c bf 68 3d cc be 9f 2e ef 3e 8a 59 38 bf
       -0.8608014 -0.398906 0.46715257 -0.72011626

bias f4 [20]
000000 3d b9 eb 3e cf ef 4c 3f 45 48 5b 3e 6c 8b 79 be
       0.46039763 0.8005342 0.21414287 -0.24369591
000010 86 1f 07 3f 5d dd 29 3f 88 67 6a bf 02 d3 dc be
       0.52782476 0.663534 -0.91564226 -0.43129736
000020 6b 22 98 be 92 cc 2c 3f f5 a4 44 3f a2 b8 ee 3e
       -0.2971376 0.6749965 0.76814204 0.4662524
000030 f0 5e 2f be 3a 1f 66 3f 8c b7 55 bf 14 88 da 3e
       -0.1712606 0.898914 -0.83483195 0.42681944
000040 37 5e 75 3f 8a bc 4b 3f 15 db 9b 3e a7 d8 54 3e
       0.95846885 0.7958456 0.30440584 0.20785771

weight f4 [20, 20]
000000 13 c9 64 be b2 42 5e 3e 5a ea 98 3e 57 0a 4b 3e
       -0.22342329 0.2170513 0.29866296 0.19828163
000010 69 21 04 be fc 0f 61 be bb a3 4b be c4 c7 1f 3e
       -0.1290337 -0.21978754 -0.19886677 0.15603548
000020 36 e7 96 3e 6a 47 33 bd a4 34 b4 bd 16 11 5c 3e
       0.29473275 -0.043769278 -0.08799103 0.21490893
000030 fc b3 35 3c 84 56 02 3e 7f db 91 be 7a 35 d7 3d
       0.011090275 0.12728316 -0.28487775 0.10508247
000040 2d f8 83 be 33 b4 75 be a5 a0 5e 3e 02 29 cd 3d
       -0.2577528 -0.23994522 0.21740969 0.10017587
000050 66 68 9c 3e 9b b0 c3 bd 97 dd 0e 3b a5 2d c3 3c
       0.305484 -0.09555169 0.0021799558 0.023825476
000060 af 84 a8 3d 1b 8b 91 3e f3 74 ec bd be be 5f 3e
       0.082284324 0.28426442 -0.11545744 0.21850106
000070 53 1a 76 be a4 ba e1 3d 66 de 29 3d 24 3e a5 3d
       -0.2403348 0.11021927 0.04147186 0.08068493
000080 68 bb 51 3e f6 dd b0 3d 39 dc c0 bd 33 91 e4 3d
       0.20481646 0.08636086 -0.09417004 0.11160507
000090 f7 c4 9c 3e e7 2f 5e bb 83 21 35 be 2b f5 a8 3e
       0.30619022 -0.0033903064 -0.17688565 0.32999548
0000a0 8e 74 2c bd 80 cd 28 be 84 1b 15 be fb 89 44 3d
       -0.042103343 -0.16484642 -0.14561278 0.04798315
0000b0 9a 6c 30 be 71 76 b4 3d 99 d0 ef 3d 51 75 05 be
       -0.17228928 0.088116534 0.11709709 -0.13033034
0000c0 c3 41 43 3e d7 44 6d bd 81 1a 82 3c cf 7b d3 3d
       0.19068055 -0.05792698 0.015881779 0.10326349
0000d0 8a 3f 9a bd ac c8 6d bc 49 ed 3e bd 48 47 64 3e
       -0.0753165 -0.014513176 -0.04661301 0.22292817
0000e0 b8 3f a4 bd 54 37 8a 3d 01 97 6f bd 10 3f 6b bc
       -0.08019966 0.06748834 -0.058493618 -0.014358297
0000f0 11 fb 51 3e ce d6 4c 3e cb 89 ee bd af b1 81 3d
       0.2050593 0.20003816 -0.11647376 0.063327186
000100 4b 67 36 be 24 63 1f 3c 2a 46 33 3e 1a 1a 29 3e
       -0.1781284 0.009728227 0.17507234 0.16513863
000110 13 71 1c 3d f5 99 08 3d fb 8f 0a 3e 60 f5 01 be
       0.038193773 0.03334995 0.13531487 -0.1269126
000120 31 13 5b bd 5c cf cb 3d 54 5d 46 3e 61 66 d9 3d
       -0.0534851 0.0995166 0.1937154 0.1061523
000130 71 05 21 3e 01 85 47 be 30 03 07 3d c1 4c 47 be
       0.15724732 -0.1948433 0.032962024 -0.19462873
000140 1b 81 68 bd e4 26 36 3e 7d 1d e3 3d 18 10 2b bd
       -0.05676375 0.17788273 0.11089609 -0.041763395
000150 c1 7b 05 be 32 07 92 bd c1 68 9a 3d e1 43 b4 bd
       -0.1303549 -0.07130279 0.075395115 -0.088020094
000160 8f b2 a1 3e 57 6d 92 3d 48 90 49 3e 3f ce 28 bc
       0.31581542 0.07149761 0.19683945 -0.010303079
000170 7e a4 8f be db b6 3b 3e 2b f8 15 3e 63 bf 6c 3d
       -0.28055185 0.18331473 0.1464545 0.057799708
000180 ad e3 7a be 4b b8 e1 bb 78 c6 18 3e 4a 93 a2 be
       -0.24500914 -0.0068884245 0.1491946 -0.31752998
000190 48 2c 11 3e 2d c1 cb bd 4e 51 7f bc a8 c5 3c be
       0.14177048 -0.09948955 -0.015583349 -0.18434775
0001a0 4c 3e f1 bd 01 8b 26 3e 56 ca af bc cb 70 bf bd
       -0.1177946 0.16263963 -0.021458786 -0.093476854
0001b0 ab 9d 0d be 38 96 a6 bd 3e d9 f4 3c f0 05 36 be
       -0.13829677 -0.08134121 0.029888745 -0.17775702
0001c0 ba 9b 2e 3e dd 28 06 bd a7 73 9d 3e 2b fa 1d be
       0.17051592 -0.032753814 0.30752298 -0.15427463
0001d0 be 0a 9b bc 2a 02 9d bd 94 8a 89 3a 9e bf 63 3e
       -0.01892602 -0.076664284 0.001049357 0.22241065
0001e0 50 0e aa bd db de 4c be ab 1a 1b 3d e4 87 b5 3b
       -0.08303511 -0.20006888 0.03786723 0.005539881
0001f0 30 33 a8 3d 54 dd d2 3d 26 cf 6f be 61 5b e9 3d
       0.08212888 0.10296121 -0.23418865 0.11394382
000200 a3 f3 63 bd ed 1c f1 3d fb 48 81 3d cf 06 7e 3e
       -0.055652272 0.11773095 0.06312748 0.24807285
000210 dd d2 45 be 20 00 0b 3e 87 58 e6 bd 33 ed 5f 3e
       -0.19318719 0.13574266 -0.11247354 0.21867828
000220 04 0e 4c be ea 7b 1a 3e 01 fc 8d 3b 1f 6d 40 bb
       -0.19927222 0.15086332 0.0043330197 -0.0029361916
000230 4f 34 5d bd 3d 3a 2f 3e 73 f2 af 3d 46 f5 14 3e
       -0.054004963 0.1711206 0.085911654 0.1454669
000240 f5 60 67 3c ff 43 c5 bd 42 bf 34 be ef ea 57 be
       0.014122237 -0.0963211 -0.17651084 -0.21085714
000250 6c 78 08 bd 23 e5 d7 bd ec 87 f2 3d 50 df 83 3e
       -0.03331797 -0.10541751 0.11842331 0.2575631
000260 7e b0 63 be 5a 4c 63 bd ee 79 f5 3c c1 ba bf bc
       -0.22235295 -0.055492736 0.029965367 -0.02340448
000270 b7 8e 76 be 1f 90 52 be 12 5e 9d bd 20 a3 7f be
       -0.24077879 -0.2056279 -0.07683958 -0.24964571
000280 66 8c 12 3e 46 f5 7d 3d f8 dc 47 bd 0c 66 54 be
       0.1431137 0.06200149 -0.048794717 -0.20742053
000290 2b fe 91 3e d0 d8 01 3e 8d 51 71 3e c8 c7 dd 3c
       0.28514227 0.12680364 0.23566265 0.027072802
0002a0 83 24 cb 3d 59 7e 3f be d1 a7 b4 bd a0 7c 88 bd
       0.099190734 -0.18700542 -0.08821071 -0.06664395
0002b0 fc 87 f3 3d 5c 2f 3a 3d 9e b9 05 be 14 45 d5 bd
       0.11891171 0.04545532 -0.13059089 -0.10413566
0002c0 6f e8 8e 3e 59 79 dd bd c2 0d 05 3c f5 f0 36 3c
       0.27911708 -0.10814161 0.008120956 0.011165847
0002d0 74 61 36 be da bb 1e 3e 71 57 9e 3e 4c 2a a4 3e
       -0.17810613 0.15501347 0.30926087 0.3206352
0002e0 57 43 c3 bd fe f4 a2 be 69 24 ab 3c fa 0f c0 bc
       -0.095343284 -0.3182754 0.020891385 -0.023445118
0002f0 cb 06 8b 3e 0c 5f 1a 3c 94 cd e6 bd c7 76 53 bd
       0.2715362 0.009422075 -0.1126968 -0.051626947
000300 4e 56 ad 3c 09 ed 33 3e 7c 2b 20 bc 33 e3 eb bc
       0.021159317 0.1757089 -0.0097759925 -0.02879486
000310 6f 03 7b be 3d ec 9c bc 9e e7 48 3e 77 73 0d 3d
       -0.24513029 -0.019155616 0.19619605 0.034533944
000320 9f 63 79 be fd 21 84 bd 12 84 8a 3e 00 95 24 3e
       -0.24354409 -0.06451795 0.27053887 0.16072464
000330 d8 71 f9 3d 85 dd a1 be b9 56 06 be 38 fe 30 be
       0.12179917 -0.31614318 -0.1311902 -0.17284477
000340 49 ad 3b 3d b2 2d f1 3c dd 20 7c 3d e5 cb 9d bd
       0.045819554 0.029440735 0.06155478 -0.077049054
000350 fd a5 48 bd 6d 6f f3 bd 2b 9b 6a be 95 98 80 3e
       -0.048986424 -0.11886487 -0.22910754 0.2511641
000360 af c7 20 be cc 25 ae bc 7f 50 35 3e 7b 93 57 be
       -0.15701173 -0.021258257 0.17706488 -0.21052353
000370 83 c3 40 bd 01 1f fd bd 58 f6 a6 be d0 a7 84 3c
       -0.047061455 -0.12359429 -0.3260982 0.0161933
000380 32 8f 86 bc 61 2e 95 3b 6c 95 c5 bd eb d2 eb 3d
       -0.016425703 0.004552648 -0.096476406 0.11514839
000390 91 96 fa bd fa fb e8 3d 90 18 0a 3e 02 84 84 be
       -0.122357495 0.11376186 0.13485932 -0.25881964
0003a0 1c a6 a6 3e 33 2f d1 3d 34 12 8d 3e 70 91 97 be
       0.32548606 0.10214081 0.2755295 -0.29603148
0003b0 1d 0d 90 bd 3e 9c 43 3e b2 bd bf bd d4 60 9e 3d
       -0.07033751 0.1910257 -0.093623534 0.07733312
0003c0 ad 07 1a be 15 66 18 3e dc 7d 7e 3e 45 b6 d1 bc
       -0.1504199 0.14882691 0.24852699 -0.025599608
0003d0 ee b4 f7 3d 88 f8 6c be 02 fd 4f be 85 04 0b 3d
       0.120950565 -0.23141682 -0.20311359 0.033939857
0003e0 ff f6 23 3d 0c f5 a3 3d 1a 5f 53 3e ca a3 49 3d
       0.040030476 0.08005723 0.20641747 0.049228467
0003f0 79 ae b6 3d 87 f4 e5 bd 81 67 70 be 5c d5 aa 3c
       0.08919997 -0.112282805 -0.23476984 0.02085369

bias f4 [20]
000000 a2 b0 02 be 64 32 9c bd fa 0c e5 ba a2 7b 03 bc
       -0.12762693 -0.07626799 -0.0017475181 -0.008025082
000010 e7 62 12 be 17 ae 31 bd 5c 00 46 be ee 94 df 3d
       -0.14295541 -0.043378916 -0.19336075 0.10917078
000020 98 b7 87 3e 67 72 31 be 0b 71 91 bd 31 b6 fc bd
       0.26507258 -0.17328797 -0.07101639 -0.12339438
000030 59 7e 60 3e 89 28 f6 3d 31 ad 6f 3e 64 a7 33 bd
       0.21923198 0.1201945 0.23405911 -0.043860808
000040 4e ed 75 3e c2 76 07 be b8 94 bc 3c b9 4a 21 be
       0.24016306 -0.13228896 0.023020133 -0.1575116

weight f4 [2, 20]
000000 9c 69 67 bc 30 1d 17 be bc 11 5e bc e0 58 60 3d
       -0.0141243 -0.14757228 -0.013554033 0.054772258
000010 57 e5 75 3e de 4c 48 be 92 5d 7e bd 8c fc b0 3e
       0.24013267 -0.19560573 -0.062100954 0.34567678
000020 5d 11 2e bd 41 e4 1f 3e c5 af 7c 3e cf 24 6e be
       -0.042497028 0.15614416 0.24676426 -0.23256229
000030 d4 b1 52 bc c1 f8 32 3d 46 24 2a 3d 00 6f ca bb
       -0.01285978 0.04369426 0.0415385 -0.006177783
000040 64 42 6a 3e 51 cc 2b 3e 2e 4d 68 be d2 59 47 be
       0.22876889 0.1677716 -0.22685692 -0.19467857
000050 3f b3 82 3e 50 0b 81 bd 42 9c fa 3d cb 5a 2b be
       0.2552738 -0.06300986 0.12236835 -0.16733854
000060 38 9a 28 3e 72 43 ae 3d bb e8 8c 3e d1 96 1f 3e
       0.1646508 0.08508958 0.2752131 0.15584876
000070 fe 50 3c be 45 45 86 3e 89 15 3d 3d a9 16 41 bd
       -0.18390271 0.26224723 0.046163116 -0.04714075
000080 16 b7 64 3e 84 89 e9 3d b5 ff 8f be 6e a6 23 be
       0.22335467 0.11403182 -0.28124776 -0.15981457
000090 f9 21 9c 3d 74 a0 a1 3d bf 61 63 be b7 a9 aa 3d
       0.07623667 0.07891932 -0.22205256 0.08333152

bias f4 [2]
000000 b1 aa 7a 3d 17 77 3f 3e
       0.06119794 0.18697773
