docs/notebooks/paper_experiments/results/unsupervised/iter_10/model_autoencoder_10.pt (torch, 32391 bytes, 13 tensors)

mean f4 [2]
0	0xbf1f22ed	-0.6216267
1	0x3f90f9bb	1.1326212

range f4 [2]
0	0x3ec260f2	0.37964588
1	0x3ed281ec	0.41114748

weight f4 [20, 2]
0	0xbeafb601	-0.34318545
1	0x3ee5f396	0.44912404
2	0xbf3640fb	-0.711929
3	0x3ec1f973	0.37885627
4	0x3f3e0f2a	0.7424189
5	0xbf2705f5	-0.65243465
6	0x3ec2053e	0.37894624
7	0xbd1e83dc	-0.03869997
8	0xbf16efc4	-0.58959603
9	0x3eb8ac1f	0.36068818
10	0xbedc8f43	-0.4307805
11	0x3ed019e8	0.40644765
12	0x3ef7a8be	0.48370928
13	0xbf0ef1fd	-0.55837995
14	0xbe4f4e65	-0.20244749
15	0xbf242762	-0.64122593
16	0x3c013bc2	0.0078877825
17	0x3ebcff2b	0.36913428
18	0xbf02bc82	-0.5106889
19	0x3d6aa153	0.057282757
20	0x3f208495	0.62702304
21	0x3cee5930	0.029095262
22	0x3eb64cc4	0.35605443
23	0xbf01cade	-0.50700176
24	0xbed80a12	-0.42195183
25	0xbf022466	-0.5083679
26	0xbf1ef145	-0.620869
27	0x3e8f92dd	0.28041735
28	0xbe68ce78	-0.22735012
29	0x3f144c59	0.57929
30	0x3ee1dd3c	0.441141
31	0xbf0ee5f4	-0.5581963
32	0xbf26d47e	-0.6516799
33	0x3e1f7ae1	0.15574218
34	0x3f20ecf6	0.62861574
35	0xbd3252fd	-0.043536175
36	0x3daabb42	0.08336498
37	0xbeed6f0e	-0.4637379
38	0xbefaec89	-0.49008587
39	0x3f2aaa50	0.66666126

bias f4 [20]
0	0x3d0c52c5	0.034258623
1	0x3cedff07	0.02905227
2	0x3da961d2	0.08270611
3	0x3f21fc62	0.6327573
4	0x3f13bb9f	0.5770816
5	0x3f1f53b8	0.6223712
6	0xbf04d715	-0.5189069
7	0x3ead466b	0.33842787
8	0x3e1a552e	0.15071556
9	0xbf08eeaa	-0.5348917
10	0xbebe8a5c	-0.37214935
11	0x3f1a4768	0.6026521
12	0x3eba39f4	0.3637234
13	0xbf109ef0	-0.5649252
14	0x3bbd7822	0.005782143
15	0x3e734277	0.23755823
16	0x3ec0f655	0.37687936
17	0xbe873ae7	-0.26412126
18	0xbea014e8	-0.3126595
19	0xbca2b05e	-0.019859489

weight f4 [20, 20]
0	0x3dac9a73	0.08427896
1	0xbe59b8fc	-0.21261972
2	0x3e869884	0.26288235
3	0x3e81d632	0.2535873
4	0xbd3e280f	-0.04642492
5	0xbe608dd5	-0.21929105
6	0x3e673c63	0.2258163
7	0x3e96b1d2	0.2943254
8	0x3d9e81af	0.07739579
9	0xbe8cb470	-0.27481413
10	0x3e8aef50	0.27135706
11	0x3e77fc0b	0.2421724
12	0xbdd07866	-0.10179214
13	0xbe26171c	-0.16219753
14	0xbe03f5c6	-0.12886724
15	0x3e3d5c99	0.18492354
16	0xbe4142f7	-0.18873201
17	0x3dfd893f	0.12379693
18	0xbda1c699	-0.078992076
19	0xbe5c8586	-0.2153531
20	0xbdf24a6d	-0.11830602
21	0x3e481179	0.19537915
22	0x3db1d488	0.08683115
23	0x3de1f147	0.11032348
24	0x3e1dfd84	0.1542874
25	0xbd2cbab5	-0.042170245
26	0x3d4eccb9	0.050488207
27	0xbe0f7b15	-0.14011796
28	0x3d3d8555	0.046269733
29	0x3e8b89f6	0.27253693
30	0x3d44d628	0.048055798
31	0xbe8e3692	-0.2777601
32	0xbe586e85	-0.2113591
33	0x3e780ac9	0.24222864
34	0x3d1feae0	0.039042354
35	0xbe7a47f0	-0.24441504
36	0x3d839ade	0.06426023
37	0x3db5c444	0.08875325
38	0x3d3da0aa	0.0462958
39	0x3e6cd183	0.23126797
40	0xbdcc8107	-0.099855475
41	0x3e34a249	0.17640032
42	0x3d04c8ae	0.032417946
43	0xbd8b68ab	-0.06807073
44	0xbd0f6c9d	-0.03501569
45	0x3e41a893	0.18911962
46	0xbe1083a8	-0.14112723
47	0xbdca1878	-0.09867948
48	0x3e8b9330	0.27260733
49	0x3e12310c	0.14276522
50	0xbe5d2e81	-0.21599771
51	0xbe438065	-0.19091947
52	0xbe64f0ba	-0.22357455
53	0xbd921351	-0.071325906
54	0x3e0584df	0.13038968
55	0x3dab4aa3	0.08363845
56	0x3dc2354e	0.09482823
57	0xbe87e046	-0.26538295
58	0xbe7f4816	-0.24929842
59	0x3e558b78	0.20853984
60	0xbdd03418	-0.10166186
61	0x3e9aaab7	0.3020837
62	0xbe0754fe	-0.13216016
63	0x3cf3642d	0.029710853
64	0x3e83dae8	0.2575295
65	0x3d9f9e09	0.07793815
66	0xbe1b4a8f	-0.1516516
67	0x3d95ff39	0.073240705
68	0x3e2df936	0.16989598
69	0xbdfca76c	-0.12336621
70	0xbe8ce289	-0.27516583
71	0xbd7b96cc	-0.061423108
72	0x3da5c4ea	0.08094199
73	0x3e27667e	0.16347691
74	0x3e2c9712	0.16854504
75	0xbe45b32d	-0.19306631
76	0xbe12bdfc	-0.14330286
77	0x3dc22bdf	0.09481024
78	0x3d9ad10b	0.07559403
79	0x3e851847	0.25995085
80	0x3e9907fc	0.29888904
81	0xbcb54d1c	-0.022131495
82	0xbe7c7b6d	-0.24656458
83	0xbd7b1541	-0.061299566
84	0x3e5df47a	0.21675292
85	0xbd881495	-0.06644551
86	0x3def2a5c	0.11678001
87	0xbe200cec	-0.1562993
88	0x3e52029c	0.20508808
89	0x3e7f2a82	0.24918559
90	0xbe700452	-0.23439148
91	0xbe7eaaaa	-0.2486979
92	0xbe072934	-0.13199311
93	0xbd8511fa	-0.064975694
94	0x3c195603	0.009358886
95	0xbe49ade3	-0.19695239
96	0x3d1ac844	0.037788644
97	0x3dbb143f	0.09134721
98	0x3d5ddec6	0.05416753
99	0x3dd47dc9	0.10375554
100	0x3ca09a12	0.019604716
101	0x3e408d1f	0.18803833
102	0xbdb540d8	-0.088502586
103	0x3ab19f03	0.0013551418
104	0x3e3349de	0.17508647
105	0xbdd7fe7d	-0.10546587
106	0xbe1abadb	-0.15110342
107	0xbd858e2e	-0.06521259
108	0x3dd43a51	0.103626855
109	0x3e6135cc	0.21993178
110	0xb9b332c6	-0.0003417937
111	0xbe31958d	-0.17342205
112	0x3e4bb35e	0.19892642
113	0x3e9af03e	0.30261415
114	0xbd0ff6ef	-0.035147604
115	0xbdd858be	-0.10563801
116	0x3e57e512	0.21083477
117	0x3dcfa827	0.101394944
118	0xbe4a1951	-0.1973622
119	0x3e7bad48	0.2457782
120	0x3aeb5f33	0.0017957449
121	0xbe6ff8b6	-0.2343472
122	0x3e352702	0.17690662
123	0xbdb71043	-0.089386486
124	0xbe0bdb5e	-0.136579
125	0x3db56ec0	0.088590145
126	0x3ddea664	0.1087158
127	0x3e9b7098	0.3035934
128	0xbe41c47b	-0.18922608
129	0xbc4f7e2f	-0.012664362
130	0x3d8b787e	0.068100914
131	0xbdb6ad19	-0.089197345
132	0x3e109e84	0.14122969
133	0x3de8e257	0.11371296
134	0xbe0b255a	-0.13588467
135	0xbd6acfe6	-0.057327174
136	0xbd1c0940	-0.03809476
137	0x3e37be25	0.17943628
138	0x3d158c77	0.03651091
139	0xbe664283	-0.2248631
140	0x3e057fd9	0.13037051
141	0xbd74c27b	-0.059755784
142	0xbe2cbf2d	-0.16869803
143	0xbd6176f0	-0.05504507
144	0x3d8f54a8	0.06998569
145	0x3db7cf85	0.08975128
146	0x3cc5c6f6	0.024142724
147	0xbbd69562	-0.0065485695
148	0x3e1033df	0.14082287
149	0x3e96f747	0.29485533
150	0xbce8f60d	-0.028437639
151	0xbe45c926	-0.19315013
152	0x3e2a2f13	0.1661952
153	0x3de67daa	0.11254437
154	0xbc9b9397	-0.018991275
155	0xbd238b78	-0.03992793
156	0x3e7f9099	0.24957503
157	0xbdfee2af	-0.1244558
158	0xbd6d7e87	-0.057981994
159	0x3d993951	0.07481635
160	0x3db35595	0.08756558
161	0x3d0c58e5	0.034264464
162	0x3cab461b	0.020907452
163	0xbe0e4e26	-0.13896999
164	0x3e0e808d	0.13916226
165	0x3e462ffc	0.19354242
166	0xbe86abbb	-0.26302895
167	0xbe663bba	-0.22483721
168	0x3df10a8e	0.11769591
169	0x3d7c2817	0.06156167
170	0xbd1ddc7f	-0.03854036
171	0x3c42d13b	0.011890705
172	0x3e15fb7b	0.14646713
173	0x3c9e6b47	0.019338263
174	0x3da08e84	0.07839683
175	0xbdcf39bd	-0.101184346
176	0x3c4f5d8b	0.01265658
177	0xbe65a6d0	-0.22426915
178	0xbe2d7de9	-0.16942562
179	0x3e874af8	0.26424384
180	0x3cf6004a	0.030029435
181	0xbddf21ea	-0.108951405
182	0xbd13b347	-0.036059644
183	0x3dbd6091	0.09246934
184	0xbe89d0a8	-0.26917005
185	0xbd07ec18	-0.03318414
186	0xbd9ec4dd	-0.077523924
187	0x3e4552bf	0.19269846
188	0xbe7e6528	-0.24843276
189	0xbe27f8fe	-0.16403577
190	0x3d548be8	0.051891237
191	0xba1c3387	-0.0005958606
192	0x3dce98a7	0.1008771
193	0xbd030a79	-0.03199241
194	0xbd9dbd07	-0.0770207
195	0x3e9da028	0.30786252
196	0x3d83458f	0.064097516
197	0x3e835b6b	0.25655684
198	0x3e1fe489	0.15614523
199	0x3d8133b4	0.0630869
200	0x3cacca21	0.021092476
201	0xbe862cca	-0.26206046
202	0x3e6d6580	0.2318325
203	0xbdd0052f	-0.10157239
204	0xbe560768	-0.20901263
205	0x3d91ca82	0.071187034
206	0x3d39ab67	0.045329478
207	0xbc3bd2bb	-0.011463816
208	0x3c981793	0.018565929
209	0xbd7a2f3c	-0.061080202
210	0xbde0c09d	-0.10974238
211	0xbd6ebc78	-0.058285207
212	0xbdf1569a	-0.11784096
213	0xbe623d9c	-0.22093815
214	0x3dc22828	0.094803154
215	0x3c6ece65	0.0145755755
216	0xbe5b896b	-0.2143914
217	0x3cfad0f2	0.030617211
218	0x3e5e43f6	0.21705613
219	0xbd6c3fd7	-0.05767807
220	0xbe002c45	-0.12516887
221	0xbe9e4ecc	-0.30919492
222	0x3d803264	0.06259611
223	0x3cfb4ef8	0.030677304
224	0xbd9f5b64	-0.07781103
225	0xbe2817b4	-0.16415292
226	0x3e2d3eee	0.16918537
227	0x3caf2b3f	0.021382926
228	0xbcb888a6	-0.022526097
229	0xbde98fdd	-0.11404393
230	0xbdbba0ae	-0.091615066
231	0x3cd5a41f	0.026079236
232	0xbe003acc	-0.12522429
233	0xbd4c9b8b	-0.049953025
234	0xbc972cfb	-0.018454066
235	0x3e8f468e	0.27983516
236	0xbe4ea1d6	-0.20178923
237	0xbd86bd63	-0.065790914
238	0x3e05518f	0.13019393
239	0xbddc2382	-0.1074896
240	0x3dba4360	0.09094882
241	0x3e6b40dc	0.2297396
242	0xbe2bceab	-0.16778056
243	0x3dacca3c	0.08437011
244	0x3e924bf9	0.28573588
245	0x3e8e1a25	0.27754322
246	0xbdf43c30	-0.11925542
247	0xbe804372	-0.25051457
248	0x3e112b2a	0.14176622
249	0x3da76ce5	0.08175067
250	0xbe0015ea	-0.1250836
251	0x3da2b1f8	0.07944101
252	0x3e5f948d	0.21834011
253	0x3e69de0a	0.22838607
254	0x3e2007ca	0.15627971
255	0xbe86badd	-0.2631444

bias f4 [20]
0	0x3d9f0e0d	0.07766352
1	0xbda3598b	-0.07976063
2	0x3e8d3c3d	0.2758502
3	0x3e726bbd	0.23673911
4	0xbdee0d5f	-0.11623644
5	0x3e1c73a9	0.15278496
6	0xbd401ed5	-0.046904404
7	0xbdbb0482	-0.09131719
8	0x3e5ff226	0.21869716
9	0xbd8d46cb	-0.06898268
10	0x3e41a8c7	0.1891204
11	0x3dc94386	0.09827332
12	0x3e93508b	0.28772387
13	0xbd30ab62	-0.043132193
14	0x3d030546	0.03198745
15	0x3e3ef7aa	0.18649164
16	0xbdbd3070	-0.09237754
17	0xbd802782	-0.062575355
18	0x3e479bde	0.19493052
19	0xbe00fd68	-0.12596667

weight f4 [1, 20]
0	0xbe91a834	-0.2844864
1	0x3e29a3fc	0.16566461
2	0x3e911e42	0.28343397
3	0x3e399cb0	0.18126178
4	0x3e32074c	0.17385596
5	0x3de1fff9	0.11035151
6	0xbdb69cc1	-0.08916617
7	0x3e0f05c4	0.13967043
8	0x3dd0e281	0.10199452
9	0xbe4eaca2	-0.20183042
10	0xbe78fea1	-0.24315883
11	0xbe8e2e5e	-0.2776975
12	0x3e62395a	0.2209219
13	0xbe760868	-0.24026644
14	0xbe5f24e7	-0.21791421
15	0x3e849c5a	0.25900537
16	0xbe3c694b	-0.18399541
17	0xbdbabab9	-0.09117646
18	0x3d970436	0.0737385
19	0xbe2a7ddc	-0.16649574

weight f4 [20, 1]
0	0xbf16919f	-0.5881595
1	0xbf84c9e8	-1.0374117
2	0xbf277665	-0.6541503
3	0x3ebd218c	0.36939657
4	0xbe11f82c	-0.14254826
5	0xbead16d2	-0.33806473
6	0xbf360383	-0.7109911
7	0x3f4f80c8	0.8105588
8	0xbeb526c3	-0.35381135
9	0x3f571210	0.84011936
10	0xbef8c4d2	-0.48587662
11	0x3f6761ea	0.9038378
12	0xbe72f707	-0.23727046
13	0x3ef6761c	0.48136985
14	0x3ec78b6a	0.38973552
15	0x3f86d043	1.0532306
16	0x3f7f707f	0.9978103
17	0xbef809d6	-0.48445004
18	0xbf788dc2	-0.97091305
19	0xbf0788a2	-0.5294286

bias f4 [20]
0	0x3f521338	0.82060575
1	0xbc1ea514	-0.009682912
2	0x3ecdd28f	0.40199706
3	0x3ea50015	0.32226625
4	0xbf023230	-0.5085783
5	0xbdae83c1	-0.08521224
6	0x3eb64c3e	0.35605043
7	0xbf4ac2cf	-0.79203504
8	0x3d094279	0.03351066
9	0x3e1eb491	0.15498568
10	0xbe46cf63	-0.19415049
11	0x3edafca4	0.42770875
12	0x3ebaaec0	0.3646145
13	0xbc8441e3	-0.016144698
14	0x3e101704	0.1407128
15	0x3f018f08	0.50608873
16	0xbf55415a	-0.83302844
17	0xbf13caa2	-0.5773107
18	0xbf559de8	-0.8344407
19	0x3f5641f0	0.8369436

weight f4 [20, 20]
0	0x3e9dd656	0.30827588
1	0x3d7f2415	0.06229027
2	0x3e33b429	0.17549194
3	0x3d9d38be	0.07676838
4	0x3dc08040	0.09399462
5	0x3d7ea9d2	0.062173672
6	0x3e77ff3f	0.24218462
7	0xbd17f619	-0.03709993
8	0x3d3a3d38	0.04546854
9	0x3cefa7fe	0.02925491
10	0x3e1b7895	0.15182717
11	0x3d8058f7	0.06266969
12	0x3b923ceb	0.0044628284
13	0xbccd65ec	-0.025073014
14	0xbe3232d6	-0.17402205
15	0xbe2fa3e6	-0.17152366
16	0xbd516a83	-0.051126968
17	0x3e91ec34	0.2850052
18	0xbd2aafb7	-0.04167148
19	0x3e960832	0.29303128
20	0x3d6db734	0.058036044
21	0x3e12ca1d	0.14334913
22	0x3dfa40bc	0.12219378
23	0x3e1395b3	0.14412574
24	0xbe751501	-0.23933794
25	0x3e801d98	0.25022578
26	0xbd1feadf	-0.03904235
27	0xbe52aba7	-0.20573293
28	0xbd49ba1b	-0.04924975
29	0xbe03d971	-0.12875916
30	0x3e8ff53b	0.28116783
31	0xbe72c034	-0.23706132
32	0x3e82a331	0.2551513
33	0x3ca22da7	0.01979716
34	0xbdba77e2	-0.09104897
35	0xbe82c9f0	-0.2554469
36	0xbd4c630d	-0.04989915
37	0x3e1c4f3b	0.15264599
38	0x3e16e3a6	0.14735278
39	0xbcb46f47	-0.022025717
40	0xbde9d90e	-0.11418353
41	0x3d80b180	0.062838554
42	0x3df43234	0.11923638
43	0xbe6cbc83	-0.23118787
44	0x3e1d2568	0.153463
45	0x3d60a29c	0.054842576
46	0x3d29e358	0.041476578
47	0x3deb42a9	0.11487324
48	0xbd5c28b5	-0.05374976
49	0xbe1fa8f6	-0.15591797
50	0x3dfe3428	0.12412292
51	0xbda39f1e	-0.079893336
52	0xbdd68d7a	-0.10476203
53	0xbd38be31	-0.045103256
54	0xbde32c9b	-0.11092492
55	0xbe15ddfd	-0.14635463
56	0xbe1bc11a	-0.15210381
57	0x3dc6bd9e	0.09704135
58	0x3d406d29	0.046979103
59	0xbe089192	-0.1333678
60	0x3d43869e	0.047735803
61	0xbe71ad0f	-0.23601173
62	0xbd6280dc	-0.05529867
63	0xbd18d276	-0.037310086
64	0xbe8540bc	-0.2602595
65	0x3c780fe8	0.015140511
66	0xbe79f49c	-0.24409717
67	0x3e6ff170	0.23431945
68	0xbda317d4	-0.07963529
69	0x3e8d6859	0.27618673
70	0x3d089ebe	0.033354513
71	0x3d7e6eaf	0.062117275
72	0x3d322905	0.04349615
73	0x3e85fb9c	0.26168525
74	0x3a88c290	0.0010433961
75	0x3e08088b	0.13284509
76	0xbe03b272	-0.1286104
77	0xbe719ac9	-0.23594202
78	0x3e0fb5bc	0.1403417
79	0xbe18106c	-0.14850014
80	0x3c69305c	0.014232721
81	0x3df7ed69	0.12105829
82	0x3e951153	0.2911478
83	0xbe4b814f	-0.19873546
84	0xbd548165	-0.051881213
85	0xbd0e740d	-0.034778643
86	0x3e884668	0.26616216
87	0xbd4d260b	-0.05008511
88	0xbce24cab	-0.027624449
89	0x3e02b20d	0.12763233
90	0xbd3df2f1	-0.046374265
91	0x3e0159e5	0.12631948
92	0x3dba51b8	0.09097618
93	0xbe82ef3e	-0.25573152
94	0xbe1eeeaf	-0.15520738
95	0x3d9766c3	0.07392647
96	0xbd6b0713	-0.057379793
97	0xbda4451f	-0.08020996
98	0x3e32e1aa	0.17468897
99	0x3d6c0080	0.057617664
100	0x3e9a5e45	0.30150047
101	0xbd4c48b4	-0.049874023
102	0x3e6c3f94	0.23071128
103	0xbe246c80	-0.16057014
104	0xbe28ce25	-0.16484888
105	0x3decf1f6	0.11569588
106	0xbc345d56	-0.011008581
107	0xbe9936fb	-0.2992476
108	0xbd4c38c9	-0.049858842
109	0xbd29e4b0	-0.04147786
110	0x3ccfe596	0.02537803
111	0xbe75ab0e	-0.23991033
112	0x3e302e01	0.17205049
113	0x3dfcefdd	0.12350438
114	0xbda7173a	-0.08158727
115	0x3c5a579f	0.013326555
116	0xbe993460	-0.2992277
117	0xbdd36efc	-0.10323903
118	0x3e3a3b94	0.1818679
119	0x3e1cd9d4	0.1531747
120	0xbd2e3349	-0.042529378
121	0xbd206e22	-0.03916753
122	0xbe531a57	-0.20615517
123	0x3e98bbff	0.2983093
124	0xbe560a33	-0.20902328
125	0xbe847579	-0.25870875
126	0xbc67d123	-0.014148983
127	0xbd985e5d	-0.07439873
128	0xbe91a5b4	-0.28446734
129	0x3e999407	0.29995748
130	0xbe92c55b	-0.28666195
131	0x3e55c33f	0.20875262
132	0xbdd71c8e	-0.10503493
133	0x3dfd292b	0.12361368
134	0xbd21b1f3	-0.039476346
135	0xbdebc21b	-0.11511632
136	0x3e3e8c97	0.18608318
137	0x3de0d290	0.109776616
138	0x3df3a922	0.11897494
139	0xbe8f2c7a	-0.2796362
140	0x3e85f3ff	0.26162717
141	0x3e832e10	0.2562108
142	0x3df84f14	0.12124458
143	0x3d3ba693	0.045813154
144	0x3e149ba1	0.14512493
145	0xbde06805	-0.1095734
146	0x3d5f9a68	0.054590613
147	0x3d37794b	0.04479341
148	0x3e838184	0.2568475
149	0xbe85ba04	-0.2611848
150	0x3d8650b6	0.06558363
151	0xbe444b26	-0.19169292
152	0x3e3a4df5	0.18193801
153	0x3dd6e787	0.10493379
154	0xbe7a73df	-0.24458264
155	0xbd3ab67a	-0.04558418
156	0xbcdb80a5	-0.02679474
157	0xbd44af48	-0.048018724
158	0x3e339174	0.17535955
159	0x3d889bb7	0.06670325
160	0x3dbe2a20	0.092853785
161	0x3d4e559a	0.050374605
162	0x3d9d1a1f	0.07670998
163	0x3d378e5e	0.044813506
164	0x3e403726	0.18771037
165	0x3e870d87	0.26377508
166	0xbd946b8c	-0.072470754
167	0xbe713a3f	-0.23557375
168	0xbe04a480	-0.12953377
169	0xbdd751b4	-0.105136305
170	0xbe098c7b	-0.13432495
171	0x3de049a1	0.109515436
172	0xbca9e835	-0.020740608
173	0xbe980431	-0.29690698
174	0x3d30a120	0.04312241
175	0xbe402db3	-0.18767433
176	0x3c958469	0.018251615
177	0x3d8ccdae	0.06875168
178	0x3a41e70e	0.00073967956
179	0x3e40dd16	0.18834338
180	0xbd16a058	-0.03677401
181	0x3e91360c	0.28361547
182	0xbde5dece	-0.11224137
183	0xbc9cd9b2	-0.019146774
184	0xbe489ae2	-0.19590333
185	0x3d1f426a	0.038881697
186	0xbd1ec1da	-0.03875909
187	0x3dbc7db5	0.09203664
188	0x3e78ad80	0.24284935
189	0xbe337cd2	-0.17528084
190	0x3e1a88bc	0.15091223
191	0xbe270ced	-0.16313525
192	0x3e7f74c8	0.24946892
193	0xbe256732	-0.16152647
194	0xbc83231c	-0.016007952
195	0xbba4ca45	-0.005028995
196	0xbe403718	-0.18771017
197	0x3e11887a	0.14212218
198	0xbe0b69c2	-0.13614562
199	0x3da6c89f	0.08143734
200	0xbe930aa1	-0.28719047
201	0xbcda722d	-0.026665771
202	0xbdc83c39	-0.097771116
203	0xbbbfe099	-0.0058556315
204	0x3defd7c2	0.117110744
205	0xbe2ec292	-0.1706641
206	0xbd56d22b	-0.052446526
207	0x3e9b4650	0.30327082
208	0xbdabd7ef	-0.083907954
209	0x3e9ce2ae	0.30641693
210	0xbd82e928	-0.06392127
211	0x3dcd1f72	0.10015763
212	0xbc066110	-0.008201852
213	0x3e356da5	0.17717607
214	0x3e664785	0.2248822
215	0x3c128ed7	0.0089451885
216	0xbd1714e4	-0.036885157
217	0xbe89bfc7	-0.26904127
218	0xbe46bba9	-0.19407524
219	0xbd2e16d4	-0.04250224
220	0xbe72152d	-0.2364089
221	0xbce815b3	-0.02833066
222	0x3dba666d	0.091015674
223	0xbd544892	-0.05182702
224	0x3e01b97d	0.12668414
225	0x3dddbf1e	0.10827468
226	0xbdfe690c	-0.1242238
227	0xbdfbe81a	-0.12300129
228	0x3e04f0d6	0.12982497
229	0x3e1ad024	0.15118462
230	0xbe222a2c	-0.158364
231	0x3d4f6d80	0.050641537
232	0x3b9c0a8c	0.0047619995
233	0x3e45f61f	0.19332169
234	0x3b502a81	0.0031763616
235	0x3d37bafb	0.044856053
236	0x3dd9a3f6	0.10626976
237	0xbe06d82b	-0.13168399
238	0x3d15c974	0.036569074
239	0xbe79eec5	-0.2440749
240	0xbe948fc6	-0.2901594
241	0xbc2b6262	-0.010460468
242	0xbe02db97	-0.1277908
243	0xbba7045e	-0.005096956
244	0xbd94fd50	-0.07274878
245	0xbe971633	-0.29509124
246	0xbdec1f42	-0.115293995
247	0x3d8b75e4	0.06809595
248	0xbc336c01	-0.010951043
249	0x3de79935	0.11308519
250	0xbe8798b5	-0.26483694
251	0xbd7091cd	-0.058732796
252	0xbcc4cdc5	-0.0240239
253	0x3e7e25f9	0.24819173
254	0x3c76acbf	0.015055834
255	0x3e873d19	0.264138

bias f4 [20]
0	0x3d92f68e	0.07175933
1	0xbde9817c	-0.1140165
2	0x3e827b1a	0.25484544
3	0xbc4540a2	-0.012039335
4	0xbe284a1a	-0.16434518
5	0x3d1060ab	0.03524844
6	0xbdf992cf	-0.12186205
7	0x3d975613	0.07389464
8	0xbd3b5729	-0.04573742
9	0x3d0cf244	0.03441073
10	0xbc2fd2b4	-0.010731388
11	0xbd85a0e9	-0.06524832
12	0x3cd5bc84	0.026090868
13	0xbd841751	-0.0644976
14	0x3d5f24a7	0.054478314
15	0xbe0a4759	-0.1350378
16	0x3d2cdc47	0.04220226
17	0xbe34fef0	-0.17675376
18	0xbe2be0ab	-0.16784923
19	0x3e046804	0.12930304

weight f4 [2, 20]
0	0x3e345bc6	0.17613134
1	0x3e14daac	0.14536542
2	0xbd836aac	-0.064168304
3	0xbdf65af4	-0.12029067
4	0x3e34e7be	0.17666528
5	0x3e90ddf9	0.28294352
6	0xbdb63f7d	-0.08898828
7	0x3d9aad84	0.07552627
8	0x3e004c02	0.12528995
9	0x3e8b68b4	0.2722832
10	0xbe674f17	-0.22588764
11	0xbe77dbe3	-0.24204974
12	0xbe963381	-0.2933617
13	0x3dcb22de	0.0991876
14	0xbe521c30	-0.20518565
15	0xbd4b9c4c	-0.049709603
16	0x3cab5ae6	0.020917367
17	0xbd700817	-0.058601465
18	0x3dc3e221	0.09564615
19	0xbc8a0bcc	-0.016851328
20	0xbb386c6f	-0.0028140803
21	0xbd225d8c	-0.039639995
22	0xbe5606a6	-0.20900974
23	0x3dfe4d7e	0.12417124
24	0xbda25e45	-0.07928137
25	0x3d764dcb	0.060132783
26	0x3dd1c5cb	0.10242804
27	0xbe338428	-0.17530882
28	0xbe766b44	-0.24064356
29	0xbe13eb87	-0.14445315
30	0xbd7fec88	-0.062481433
31	0xbdf7277f	-0.1206808
32	0x3e90ebfc	0.28305042
33	0xbc98cde8	-0.018652871
34	0x3dba2c7f	0.09090518
35	0x3e1cd7cb	0.15316693
36	0xbe9efdeb	-0.310531
37	0x3da66b1b	0.081258975
38	0xbe1aa431	-0.15101697
39	0xbe89f1a4	-0.2694217

bias f4 [2]
0	0x39f859d9	0.00047369188
1	0xbd94f547	-0.072733454
