docs/notebooks/paper_experiments/results/supervised/model_deepTDA.pt (torch, 19466 bytes, 7 tensors)

mean f4 [2]
0	0x3e1e3a31	0.15451886
1	0x3f2645f4	0.6495049

range f4 [2]
0	0x3f21aa87	0.6315083
1	0x3f15d1d7	0.58523315

weight f4 [32, 2]
0	0x3ea6819b	0.32520756
1	0x3f459c59	0.7719169
2	0xbed9b030	-0.42517233
3	0x3f6b57c1	0.91930777
4	0xbe8577dd	-0.2606801
5	0x3e9a2e1c	0.30113304
6	0xbf21ccea	-0.632033
7	0x3f2b70b3	0.6696884
8	0x3f89ad85	1.0756079
9	0xbf6e059b	-0.92977303
10	0x3f7ba348	0.9829602
11	0xbe520b0c	-0.20512027
12	0x3f70cbed	0.94061166
13	0xbeb4d974	-0.35322154
14	0x3f3efc15	0.74603397
15	0xbef4eb7e	-0.47835916
16	0x3f85187b	1.0398096
17	0xbec2fa6b	-0.3808168
18	0xbf2b00a5	-0.6679786
19	0x3ee02628	0.4377911
20	0xbea6cdf2	-0.32579
21	0xbda9d448	-0.082924426
22	0xbf211924	-0.62928987
23	0x3f36c0dd	0.71388036
24	0xbf59a575	-0.8501809
25	0xbcbfeed4	-0.023429312
26	0xbdb59635	-0.0886654
27	0xbf3fad56	-0.74873865
28	0x3ee82222	0.4533854
29	0xbf9235b2	-1.1422637
30	0x3f201298	0.6252837
31	0xbf55e4d5	-0.83552295
32	0x3f82e160	1.0225029
33	0xbea25524	-0.31705582
34	0xbf0dc57a	-0.5537945
35	0x3f2d603b	0.6772496
36	0x3da6c998	0.0814392
37	0x3f28924f	0.6584825
38	0x3f070494	0.5274136
39	0xbf1dbd3c	-0.61616874
40	0x3ef125e1	0.47099212
41	0xbf15f91a	-0.58583224
42	0x3d31d22f	0.043413337
43	0x3f42d850	0.76111317
44	0x3f558773	0.83409804
45	0xbf450c9c	-0.76972365
46	0x3ed0fdfc	0.40818775
47	0x3e018e72	0.12651995
48	0x3f534c7b	0.82538575
49	0xbf5bb183	-0.85817736
50	0xbf50c8f0	-0.81556606
51	0xbdc151b2	-0.0943941
52	0xbf34c957	-0.7061972
53	0x3f539cb5	0.8266099
54	0x3d1b1978	0.037866086
55	0x3f0f5bdf	0.5599956
56	0x3e17a824	0.14810234
57	0x3de0df2e	0.10980068
58	0x3f834765	1.0256163
59	0xbf7dcd95	-0.9914182
60	0xb9469663	-0.00018938775
61	0xbee021b5	-0.43775716
62	0x3f3825a4	0.71932435
63	0xbf2fb11d	-0.6862963

bias f4 [32]
0	0x3ee71727	0.4513485
1	0xbcea5e4f	-0.028609423
2	0x3f62abdc	0.88543487
3	0xbe2ca57e	-0.16860005
4	0xbf0525d6	-0.5201086
5	0xbea91e18	-0.33030772
6	0x3f71e623	0.94491786
7	0x3f135e3b	0.5756566
8	0x3f848c4d	1.0355316
9	0xbe7b1872	-0.24521044
10	0xbf338c7b	-0.7013623
11	0xbe47cfd4	-0.19512874
12	0xbebf69dd	-0.37385455
13	0x3f149599	0.5804077
14	0x3f3ff6b7	0.7498583
15	0x3f5c9947	0.8617138
16	0xbe8d2d88	-0.275738
17	0xbe196e13	-0.14983396
18	0x3f2ae04b	0.66748494
19	0xbeb7173c	-0.35759914
20	0x3f504f93	0.8137142
21	0x3da29777	0.07939046
22	0x3f64fe3e	0.8945044
23	0xbf0ca56f	-0.5493993
24	0xbefc13c0	-0.49233818
25	0x3f0f3149	0.5593458
26	0x3e3faabb	0.18717472
27	0xbeec9dc1	-0.46214107
28	0x3f4be6a2	0.7964879
29	0x3f76fd12	0.96479905
30	0xbf0e7944	-0.55653787
31	0xbebf350e	-0.37345165

weight f4 [16, 32]
0	0x3e25c0a5	0.1618677
1	0xbd7453c5	-0.0596502
2	0xbd805940	-0.06267023
3	0xbe2f2741	-0.17104818
4	0xbdcf542a	-0.10123475
5	0x3d34e08e	0.044159465
6	0xbcbf2583	-0.023333317
7	0xbe03663f	-0.12831973
8	0x3b87e02c	0.0041465964
9	0xbdf74d4a	-0.120752886
10	0xbe199382	-0.14997676
11	0xbdc75c75	-0.09734432
12	0xbe1e6e29	-0.1547171
13	0xbde68618	-0.11256045
14	0x3e34f2d3	0.17670755
15	0x3d08c294	0.03338869
16	0x3d5f21a7	0.054475453
17	0xbe28d57a	-0.16487685
18	0xbdedc70b	-0.1161023
19	0xbd71036b	-0.05884115
20	0x3ce27316	0.027642768
21	0xbe1f4864	-0.15554959
22	0xbd9bfe22	-0.07616831
23	0xbdd8bdbd	-0.10583065
24	0x3a006c39	0.0004898939
25	0xbd86b73b	-0.06577917
26	0xbc48b3b4	-0.012249876
27	0xbdf55402	-0.11978914
28	0xbdf88068	-0.121338665
29	0xbdd336c9	-0.10313184
30	0xbd77d98d	-0.060510207
31	0xbe0ee007	-0.13952647
32	0x3ec867db	0.39141735
33	0x3e33fb56	0.17576346
34	0x3eb32b8c	0.3499416
35	0x3e902f53	0.28161106
36	0xbf02e50a	-0.51130736
37	0xbe9fd168	-0.31214452
38	0x3e2bd792	0.16781452
39	0x3e480993	0.19534902
40	0x3e11643a	0.1419839
41	0x3dcad2d8	0.099034965
42	0x3d4f2a8e	0.050577693
43	0x3e4910a2	0.19635251
44	0x3ed5c063	0.41748342
45	0xbebd92fc	-0.37026203
46	0x3d9b7bf7	0.07592004
47	0xbcefb03b	-0.029258838
48	0xbef7f257	-0.48427078
49	0x3e8a2292	0.269795
50	0x3e957e48	0.29197907
51	0xbef353de	-0.47524923
52	0x3d8ceba0	0.068808794
53	0x3d7db558	0.06194052
54	0x3e7dbb79	0.24778546
55	0xbd9bb8e4	-0.076036245
56	0xbed4fde2	-0.41599947
57	0x3c94d94e	0.018170025
58	0x3ea2bdcd	0.31785432
59	0xbf121d88	-0.5707631
60	0x3eb75f48	0.3581488
61	0x3e8e9154	0.27845252
62	0xbbb42c45	-0.0054984414
63	0xbf195ad1	-0.599042
64	0x3ed19fcb	0.40942225
65	0x3e901ce9	0.28147057
66	0x3e832abe	0.25618547
67	0x3dd6d2e1	0.10489441
68	0xbd53297f	-0.051553246
69	0xbeae1e9e	-0.34007734
70	0xbc3b08d5	-0.01141568
71	0x3e87749d	0.26456156
72	0x3e04929e	0.12946555
73	0x3e50f8ed	0.20407458
74	0xbdb73deb	-0.08947357
75	0x3e839ebf	0.2570705
76	0x3ef042cf	0.4692597
77	0xbe940efa	-0.28917676
78	0xbdd050f1	-0.10171688
79	0xbd0105f9	-0.031499837
80	0xbe8c9b68	-0.27462316
81	0x3ea6f80e	0.32611126
82	0x3ebd206d	0.369388
83	0xbec54189	-0.38526562
84	0x3b9a9695	0.004717658
85	0x3e9dc99a	0.30817872
86	0x3db0a9f7	0.08626168
87	0xbd80ee4f	-0.06295454
88	0xbd8f648d	-0.070016004
89	0x3e8982b1	0.26857522
90	0x3e7c5147	0.2464038
91	0xbf028c02	-0.50994885
92	0x3e4e1498	0.20125043
93	0x3da6aef2	0.08138837
94	0xbd465114	-0.048417166
95	0xbe2f7406	-0.17134103
96	0x3d978883	0.073990844
97	0x3dee8fa6	0.116484925
98	0xbd560e00	-0.052259445
99	0xbd99cc64	-0.075096875
100	0x3b290e1e	0.0025795768
101	0xbc2ceefc	-0.010555025
102	0x3d8c1cf2	0.068414584
103	0x3d4ae92b	0.049538773
104	0xbe48eeb9	-0.19622315
105	0xbdd33397	-0.10312574
106	0x3e187114	0.14886886
107	0x3d08e4b1	0.033421222
108	0xbd01b53f	-0.03166699
109	0xbe0526e9	-0.13003124
110	0xbddd7f42	-0.10815288
111	0xbe2226b0	-0.1583507
112	0xbd6c05a2	-0.05762256
113	0x3cbf7ab3	0.023373937
114	0x3da02461	0.07819439
115	0x3da726fc	0.081617326
116	0xbe15dd1d	-0.1463513
117	0xbe130928	-0.14358962
118	0xbce48afd	-0.027898306
119	0x3e2f1be5	0.17100485
120	0x3cd17c86	0.025572073
121	0xbda3bace	-0.079946145
122	0x3d1d205b	0.038360935
123	0xbd05e1cd	-0.032686044
124	0xbe193e10	-0.14965081
125	0x3e041fab	0.12902705
126	0xbda49ea0	-0.08038068
127	0xbd112747	-0.03543785
128	0x3d6b0a85	0.05738308
129	0x3ea331f0	0.31874037
130	0x3ea4c754	0.32183325
131	0x3e8fd651	0.28093198
132	0xbdf481d9	-0.11938829
133	0xbeeadd2d	-0.4587187
134	0xbc3e5c8a	-0.011618743
135	0x3e91103a	0.28332692
136	0x3e84eac7	0.2596037
137	0x3ed62284	0.41823208
138	0x3dbda941	0.09260798
139	0x3e8a6aeb	0.27034697
140	0x3eb287bd	0.34869185
141	0xbe819ebb	-0.25316414
142	0xbd9b5973	-0.075854205
143	0xbd7274b7	-0.05919334
144	0x3ced57c5	0.028972516
145	0x3e0c4751	0.1369908
146	0x3e1b52c5	0.15168293
147	0xbe96b03b	-0.29431328
148	0x3cef3eae	0.029204693
149	0x3d806b86	0.062705085
150	0x3c4ee535	0.012627889
151	0x3d702f2d	0.05863874
152	0xbddd7796	-0.10813825
153	0x3e84da0d	0.2594761
154	0x3dc3538b	0.09537419
155	0xbf0fab4d	-0.5612076
156	0x3e731a73	0.23740558
157	0x3d4d8099	0.05017147
158	0xbd5d867e	-0.05408334
159	0xbe48307e	-0.19549748
160	0xbdf836cc	-0.12119827
161	0xbebde2c2	-0.37087065
162	0x3eb9abb7	0.3626382
163	0xbe5bec2f	-0.21476816
164	0x3f1f57d9	0.6224342
165	0x3ee1f1bb	0.44129738
166	0x3f229084	0.63501763
167	0x3ee5cc61	0.4488249
168	0x3f130237	0.57425255
169	0xbe903d30	-0.28171682
170	0xbccc3c67	-0.024931146
171	0xbebebc83	-0.37253198
172	0xbd7c5f24	-0.06161417
173	0x3ec4d627	0.38444635
174	0x3f1b5cfe	0.6068877
175	0x3e9a388b	0.30121264
176	0x3f2bbc9e	0.6708468
177	0xbe66b1a8	-0.22528708
178	0x3e7007ce	0.23440477
179	0x3f096546	0.53670156
180	0x3ec90aab	0.39265952
181	0xbed1ea12	-0.40998894
182	0x3f1cd057	0.612554
183	0xbe342b8d	-0.17594738
184	0x3ef0a053	0.46997318
185	0x3e38a986	0.18033418
186	0x3e263bba	0.16233721
187	0xbd8273d9	-0.063697524
188	0x3eccc737	0.3999574
189	0x3ee3d63d	0.44499388
190	0xbdbb35c4	-0.09141114
191	0x3f2f82b5	0.6855882
192	0x3ec84d21	0.39121345
193	0x3e3b7eae	0.18310043
194	0x3e363092	0.17791966
195	0x3e1e1cba	0.15440646
196	0xbf00164f	-0.5003404
197	0xbf11e4e1	-0.56989866
198	0x3e907108	0.28211236
199	0x3e27efef	0.16400121
200	0x3e1f5137	0.15558325
201	0x3e85b19b	0.26112065
202	0xbd712036	-0.05886861
203	0x3e36144d	0.17781182
204	0x3eb57219	0.35438612
205	0xbe8a8406	-0.2705385
206	0xbd3fc9fb	-0.046823483
207	0x3cc065eb	0.023486098
208	0xbf11f09a	-0.57007754
209	0x3ec325c8	0.38114762
210	0x3e0510ff	0.12994765
211	0xbf0cb078	-0.5495677
212	0xbd894969	-0.06703455
213	0x3e5d7854	0.21627933
214	0x3ebccf5c	0.36876953
215	0x3da6cca7	0.08144503
216	0xbf0972a7	-0.5369057
217	0x3e619fab	0.22033565
218	0x3ea60c28	0.3243115
219	0xbeca5b2f	-0.39522693
220	0x3ec15784	0.37762082
221	0x3ec2e635	0.3806626
222	0xbdb25ac6	-0.0870872
223	0xbee7ec31	-0.45297387
224	0x3e0617e2	0.13095048
225	0x3e38a1fe	0.18030545
226	0x3eaa29ae	0.33234924
227	0x3ea5ae96	0.3235976
228	0xbe02c137	-0.12769018
229	0xbed3c7b0	-0.41363287
230	0xbcf64473	-0.030061936
231	0xbcf4d449	-0.029886382
232	0x3d137707	0.036002185
233	0x3e722792	0.23647907
234	0x3df454e6	0.119302556
235	0x3e8a7197	0.27039787
236	0x3e62ce76	0.22149071
237	0xbe7fec5f	-0.24992512
238	0x3e20b436	0.15693745
239	0xbd22395f	-0.039605495
240	0xbd815584	-0.06315139
241	0x3ea5993e	0.32343477
242	0x3dfbc4da	0.12293406
243	0xbe50d603	-0.20394139
244	0x3d3437f2	0.043998666
245	0x3e273aea	0.16331068
246	0x3cc3fa95	0.023923198
247	0xbe215e1a	-0.15758553
248	0xbe5fdebb	-0.21862309
249	0x3d82abfc	0.0638046
250	0x3eab2922	0.3342982
251	0xbf07a5d5	-0.52987415
252	0x3e269d04	0.16270834
253	0x3e267cc4	0.16258532
254	0xbbf89170	-0.007585697
255	0x3d97015b	0.073733054

bias f4 [16]
0	0x3e0959df	0.1341319
1	0x3eba74df	0.3641729
2	0x3eb08fd8	0.34484744
3	0xbe0f283c	-0.13980192
4	0x3d89d7eb	0.06730636
5	0x3f0cdb29	0.5502191
6	0x3e84b840	0.25921822
7	0x3e4fe608	0.20302594
8	0xbcfe2c68	-0.031027034
9	0xbe117c12	-0.14207485
10	0x3e3cd0da	0.18439046
11	0x3e0567c2	0.13027862
12	0x3dba86d2	0.09107746
13	0xbd069383	-0.032855522
14	0xbe269c3a	-0.16270533
15	0xbe0016bc	-0.12508672

weight f4 [1, 16]
0	0xbba74700	-0.0051048994
1	0xbed095ab	-0.40739188
2	0xbe8bcd06	-0.27304858
3	0x3d98c417	0.07459276
4	0xbf0480ff	-0.5175933
5	0x3f0ed0ee	0.5578755
6	0xbedf021b	-0.43556294
7	0xbeb9ad1a	-0.3626488
8	0x3d53d1df	0.05171382
9	0x3e4b8d00	0.19878006
10	0xbeb69a3a	-0.3566454
11	0xbe254582	-0.16139796
12	0xbf1fe2db	-0.6245553
13	0xbde1a208	-0.11017233
14	0xbe52b82c	-0.20578068
15	0xbd1394ee	-0.036030702
