docs/notebooks/paper_experiments/results/unsupervised/iter_12/model_autoencoder_12.pt (torch, 32391 bytes, 13 tensors)

mean f4 [2]
-0.50399923 1.0470524
00000000: 1806 01bf d005 863f

range f4 [2]
0.5101108 0.47400984
00000000: 9f96 023f 6bb1 f23e

weight f4 [20, 2]
-0.5720806 -0.75564855 -0.4782215 0.80821717 -0.7085141 0.49682802 0.6199656 0.7023972
-0.041481037 -0.978543 1.0771804 -1.130743 0.7432919 1.0121937 -0.50992954 -0.41220993
0.4692513 -0.7538298 0.36073717 0.9341577 -0.14095972 -0.41815242 0.43080634 0.32707092
-0.59571296 -0.01525009 0.40746275 0.28424522 -0.27935475 0.4703639 0.22607513 0.49131602
0.57974464 -0.09265848 0.5708146 -0.9215154 0.77423733 -0.3116872 0.49812862 -0.79383856
00000000: e073 12bf 2f72 41bf 73d9 f4be 52e7 4e3f
00000010: 2e61 35bf 3e60 fe3e 11b6 1e3f 4ed0 333f
00000020: 05e8 29bd cb81 7abf 0ce1 893f 30bc 90bf
00000030: 6148 3e3f 908f 813f be8a 02bf 2e0d d3be
00000040: b541 f03e fdfa 40bf 8bb2 b83e f624 6f3f
00000050: bf57 10be 1318 d6be a692 dc3e d775 a73e
00000060: a580 18bf 83db 79bc f59e d03e 9788 913e
00000070: 9607 8fbe 89d3 f03e 3d80 673e c68d fb3e
00000080: 256a 143f bbc3 bdbd e820 123f 6fe8 6bbf
00000090: 6b34 463f 7795 9fbe b70a ff3e 0139 4bbf

bias f4 [20]
0.13451251 0.70688194 -0.114788875 0.24044435 -0.028384931 -0.12807351 0.27438426 -0.5268147
0.02159206 0.7993997 0.73688245 0.15975595 -0.18914895 0.76148033 -0.061949775 -0.35248578
-0.5859606 0.10531631 -0.7538148 0.12252915
00000000: a6bd 093e 37f6 343f 6e16 ebbd 0b37 763e
00000010: 8487 e8bc b425 03be 187c 8c3e 54dd 06bf
00000020: d5e1 b03c 75a5 4c3f 54a4 3c3f 1097 233e
00000030: 43b0 41be 60f0 423f 0cbf 7dbd 0479 b4be
00000040: 8401 16bf 14b0 d73d 02fa 40bf 90f0 fa3d

weight f4 [20, 20]
0.11169061 -0.3286918 -0.48444918 -0.18711208 -0.02743369 0.30313888 0.05235245 -0.24272187
0.22211128 0.18310136 0.012883519 0.18954864 0.041839242 -0.04894986 -0.1982016 0.010998916
-0.17634378 0.31911722 0.21700363 0.04402388 0.12714607 -0.08893298 -0.31486496 0.28848413
0.0023797718 -0.3035556 0.42937085 -0.16061865 -0.49269006 0.07113861 0.13145202 0.15761873
-0.091642134 0.385192 0.019684356 0.0683645 -0.26153478 -0.3321361 -0.222883 -0.33191332
-0.04359306 -0.2552324 -0.22193688 -0.15543841 -0.111491255 0.3566397 0.028193481 0.014080624
0.21293375 -0.11247364 0.059388902 0.15703559 -0.025066402 0.17386463 -0.39020616 -0.16215245
0.18895344 0.016895821 0.07313562 0.12735213 -0.061674908 -0.30715042 -0.34935406 -0.1897907
-0.30924624 0.45192394 0.11576284 -0.29931358 0.3334319 -0.0081303585 0.10949488 -0.046721112
-0.21599302 0.2834204 -0.32745004 -0.23336558 0.14135517 0.34559327 -0.14195229 0.2823757
-0.0069901645 -0.037245773 -0.19480865 0.07442308 -0.40649456 -0.6606721 0.44414464 -0.23804668
-0.37068307 0.48748162 0.19448 0.08446462 -0.036994934 0.17792621 -0.23152384 0.09796463
-0.25180992 -0.19100302 -0.06277078 -0.31800684 -0.31300336 -0.32460773 -0.6652791 0.0743993
-0.0923271 0.37078542 0.05302186 -0.30609104 0.09738971 0.026281133 -0.134175 0.32541594
-0.3562576 0.42539412 -0.3757598 -0.0030750134 0.09777228 0.30667838 0.330504 0.46002924
-0.25702673 0.18139401 -0.26687005 -0.007811921 -0.40207127 -0.53152996 0.16895677 -0.15709949
-0.15915947 0.42600375 0.101332724 0.25772446 -0.31023175 0.3670239 0.04682367 0.10315491
-0.13147599 -0.37902728 -0.053771805 -0.55763704 -0.27871183 0.1322085 -0.29357207 0.118929744
-0.43892708 -0.2642775 0.1401204 -0.33042347 -0.46456325 0.16450244 -0.31845498 0.14973375
-0.031457275 0.28193074 0.015055576 0.19679053 0.16351567 -0.23640148 -0.18147369 -0.55267996
-0.22512029 0.23136216 -0.00071063195 0.3469308 -0.35250407 -0.4623162 0.39988938 -0.15076861
-0.2645818 0.4226227 -0.20599844 0.29440606 -0.40716153 0.39475372 0.08325836 0.20637353
-0.11087648 -0.37110996 -0.15490764 -0.35834187 -0.040397275 -0.45648876 -0.17632921 -0.19634968
-0.1991491 0.24099106 0.092034645 -0.04410658 0.23392372 -0.08558448 -0.22092304 0.1656332
0.04442632 -0.051919702 -0.048335083 0.074334495 0.050908726 0.3136703 0.22733401 -0.07112754
-0.28626218 -0.59164584 -0.3844312 -0.0529943 -0.33825654 0.29459685 -0.070778504 -0.17356643
0.2718301 -0.17061263 0.17327952 0.012930391 -0.24994425 0.1894735 -0.355075 -0.053016476
0.2691756 0.251571 0.21391128 0.17758678 0.053409033 -0.55182755 -0.49349448 0.19091377
-0.21362752 0.30836815 -0.17377757 0.076980405 0.17329217 0.08971929 0.13649362 0.20733613
-0.112385646 0.045394726 -0.13199416 0.17245068 -0.09489722 0.19169757 -0.12107585 -0.05688833
0.115533754 -0.31020325 -0.10996244 -0.13030584 -0.03419898 0.13398793 0.15646268 -0.097171836
0.1972812 -0.16842568 0.2032508 0.20599483 0.11874722 0.25838855 -0.1469288 0.124986276
00000000: 0cbe e43d 4b4a a8be b909 f8be 4f9a 3fbe
00000010: 9ebc e0bc 0535 9b3e 866f 563d 158c 78be
00000020: 2471 633e ec7e 3b3e 6515 533c 0a19 423e
00000030: a05f 2b3d a67f 48bd 5cf5 4abe cc34 343c
00000040: 7793 34be 5563 a33e 3336 5e3e 6252 343d
00000050: 9432 023e 7f22 b6bd fb35 a1be 31b4 933e
00000060: f2f5 1b3b a46b 9bbe 7fd6 db3e 3779 24be
00000070: df41 fcbe 1fb1 913d 5c9b 063e ce66 213e
00000080: dfae bbbd e337 c53e 1641 a13c b002 8c3d
00000090: e3e7 85be be0d aabe 713b 64be 8bf0 a9be
000000a0: a38e 32bd d2ad 82be 6c43 63be 3f2b 1fbe
000000b0: 8755 e4bd 7b99 b63e 04f6 e63c 6bb2 663c
000000c0: 4e0b 5a3e 9458 e6bd c741 733d f0cd 203e
000000d0: 0e58 cdbc 9209 323e 1ac9 c7be 4b0b 26be
000000e0: 037d 413e 1b69 8a3c 21c8 953d 9968 023e
000000f0: d49e 7cbd d242 9dbe 89de b2be 7e58 42be
00000100: 8655 9ebe 9362 e73e 1115 ed3d a13f 99be
00000110: 96b7 aa3e 3235 05bc da3e e03d a35e 3fbd
00000120: 462d 5dbe 7b1c 913e 88a7 a7be 63f7 6ebe
00000130: 69bf 103e 9af1 b03e f15b 11be 8c93 903e
00000140: c00d e5bb 068f 18bd eb7b 47be 216b 983d
00000150: 0e20 d0be cf21 29bf ed66 e33e 82c2 73be
00000160: 2cca bdbe 3197 f93e c425 473e c9fb ac3d
00000170: 0088 17bd 4a32 363e 9614 6dbe aea1 c83d
00000180: 3bed 80be 4c96 43be f78d 80bd cbd1 a2be
00000190: fa41 a0be fc32 a6be bb4f 2abf a95e 983d
000001a0: fe15 bdbd 96d7 bd3e 732d 593d f7b7 9cbe
000001b0: 4274 c73d 884b d73c 2c65 09be eb9c a63e
000001c0: 6567 b6be 42cd d93e 9763 c0be 2a86 49bb
000001d0: d53c c83d f304 9d3e d237 a93e f488 eb3e
000001e0: 0299 83be 5abf 393e 31a3 88be 25fb ffbb
000001f0: 49dc cdbe 5912 08bf 0103 2d3e b0de 20be
00000200: b3fa 22be 2a1d da3e 8887 cf3d 76f4 833e
00000210: b2d6 9ebe 8eea bb3e 2dca 3f3d e242 d33d
00000220: a4a1 06be dd0f c2be d33f 5cbd 4dc1 0ebf
00000230: 51b3 8ebe aa61 073e 144f 96be 7091 f33d
00000240: 0dbb e0be 614f 87be b97b 0f3e 442d a9be
00000250: 3cdb edbe 5473 283e 880c a3be ce53 193e
00000260: 58d9 00bd 3a59 903e aaab 763c 7583 493e
00000270: a770 273e 3b13 72be 3dd4 39be 6f7c 0dbf
00000280: ef85 66be 34ea 6c3e b449 3aba eaa0 b13e
00000290: 6a7b b4be b5b4 ecbe 4dbe cc3e 1663 1abe
000002a0: 4477 87be 0162 d83e 41f1 52be 64bc 963e
000002b0: 7a77 d0be 291d ca3e 5c83 aa3d 9553 533e
000002c0: 3513 e3bd 2002 bebe 1ca0 1ebe 9678 b7be
000002d0: 9d77 25bd e5b8 e9be a58f 34be e40f 49be
000002e0: beed 4bbe 5cc6 763e a97c bc3d 1aa9 34bd
000002f0: b389 6f3e ea46 afbd a639 62be c09b 293e
00000300: 5ff8 353d c1a9 54bd 02fb 45bd af3c 983d
00000310: ab85 503d 6599 a03e 3fca 683e 51ab 91bd
00000320: f590 92be 1a76 17bf 2bd4 c4be 8d10 59bd
00000330: f62f adbe 66d5 963e 52f4 90bd 66bb 31be
00000340: 512d 8b3e 14b5 2ebe 3070 313e fed9 533c
00000350: 63f1 7fbe 5705 423e 64cc b5be ce27 59bd
00000360: 62d1 893e eacd 803e 8f0b 5b3e 4fd9 353e
00000370: 6ec3 5a3d 9244 0dbf 4fab fcbe e67e 433e
00000380: 2cc1 5abe 6ee2 9d3e bff2 31be e7a7 9d3d
00000390: 8173 313e bfbe b73d fcc4 0b3e ec4f 543e
000003a0: 722a e6bd d2ef 393d 7a29 07be e996 303e
000003b0: 7959 c2bd 5e4c 443e 9ef6 f7bd bd03 69bd
000003c0: f69c ec3d f6d2 9ebe fd33 e1bd e56e 05be
000003d0: 3b14 0cbd 2234 093e c137 203e 0702 c7bd
000003e0: 1504 4a3e c877 2cbe fa20 503e 4ff0 523e
000003f0: be31 f33d 814b 843e 8174 16be cef8 ff3d

bias f4 [20]
0.0562149 0.35739166 0.11996851 0.10188413 0.6634764 -0.1546187 0.5414513 0.441362
0.40462184 0.25450063 0.0166404 -0.13014647 0.079839505 0.62569076 0.21718167 0.22415946
0.057653733 -0.12524983 -0.10167878 0.08433662
00000000: 9841 663d 0afc b63e 0db2 f53d a0a8 d03d
00000010: 97d9 293f 5d54 1ebe 8d9c 0a3f 33fa e13e
00000020: 982a cf3e e84d 823e 7351 883c 1e45 05be
00000030: e582 a33d 452d 203f df64 5e3e 0f8a 653e
00000040: 5226 6c3d 7e41 00be f73c d0bd aeb8 ac3d

weight f4 [1, 20]
-0.15701744 0.46488017 -0.19440202 -0.36237812 0.4682681 -0.32107452 0.42331004 0.31120768
0.29510853 -0.20557593 -0.32494918 -0.18383466 -0.102570735 0.3111193 0.36289206 0.4388716
-0.31767008 -0.16676816 -0.07552044 -0.18234344
00000000: 2ec9 20be c604 ee3e 5311 47be a089 b9be
00000010: d6c0 ef3e e163 a4be 18bc d83e 9d56 9f3e
00000020: 7718 973e 7f82 52be bd5f a6be 273f 3cbe
00000030: 9b10 d2bd 074b 9f3e fdcc b93e c7b3 e03e
00000040: a7a5 a2be 46c5 2abe 76aa 9abd 3db8 3abe

weight f4 [20, 1]
-0.7884803 -0.9370566 0.26442957 -0.3645937 1.0446106 1.3601414 -0.71803886 -0.7437318
0.10345669 -0.5714248 1.117571 1.1222582 0.74909437 1.0511981 0.30053863 -0.67799175
-0.16055928 -0.8140306 -0.43468308 0.98482573
00000000: d8d9 49bf f1e2 6fbf 5063 873e 07ac babe
00000010: cdb5 853f 1d19 ae3f 65d1 37bf 3565 3ebf
00000020: 1ae1 d33d e548 12bf 910c 8f3f 28a6 8f3f
00000030: a6c4 3f3f a98d 863f 33e0 993e de90 2dbf
00000040: a769 24be 4f64 50bf c88e debe 8a1d 7c3f

bias f4 [20]
-0.5530608 -0.74234575 -0.09695501 -0.5203969 0.25006968 1.1253546 -0.30417702 -0.6190197
1.0219387 1.1821363 0.35666978 0.64268404 -0.09400523 -0.4828155 1.1882901 -0.6599403
0.25242418 0.9495297 0.2532019 0.14000618
00000000: 6595 0dbf 5f0a 3ebf 5990 c6bd bb38 05bf
00000010: 2209 803e 9f0b 903f 17bd 9bbe 1378 1ebf
00000020: e3ce 823f 3e50 973f 6c9d b63e f186 243f
00000030: d085 c0bd 9833 f7be e419 983f d9f1 28bf
00000040: be3d 813e 6114 733f aea3 813e c85d 0f3e

weight f4 [20, 20]
0.10018929 0.1353418 -0.048833888 -0.062870726 0.36362368 0.14817706 -0.08575862 0.101706184
0.13180625 0.22928488 -0.016103456 0.20929375 -0.03246837 -0.08767276 0.33495885 -0.16979921
-0.17574894 0.051083524 0.09971064 0.2441025 0.15737209 0.15220973 -0.13638335 -0.08724514
-0.3095481 -0.3396616 0.05561917 0.15264153 -0.07356168 0.07261118 -0.23609704 -0.37417525
-0.33915678 0.07198577 0.002311354 0.23782037 -0.08174468 0.1511146 0.12794454 -0.13567251
0.17243062 0.13348223 -0.13421288 0.07386346 -0.14176555 0.26216406 0.20872821 0.012520814
0.24891664 0.011185931 0.16854262 0.05964522 0.102339774 -0.19438638 0.3354325 0.17618094
0.22658275 0.12641364 0.13407247 -0.103253424 -0.021430219 -0.13241926 -0.1438212 0.033142902
-0.2460924 -0.19779338 0.28749543 0.19610333 0.01772743 0.1008305 -0.23338847 -0.04110534
-0.3302888 -0.28884926 -0.23583592 0.093941465 0.1837097 0.16390695 0.1067755 -0.34075278
0.11995314 0.046507318 -0.009321222 0.25243917 -0.1650965 -0.030850386 -0.17604172 -0.045950837
-0.22081421 -0.14246944 0.01577588 0.2294885 -0.17862515 -0.110856764 -0.059653983 -0.072711065
-0.21054642 0.03371868 -0.08577518 -0.07296295 -0.11151324 0.10728182 -0.0785561 0.11847318
0.18950844 -0.05682812 0.030315403 -0.025810568 0.12519936 -0.16719136 -0.122280784 -0.1312292
-0.16373956 0.17952397 0.15790224 0.13142523 0.015338262 0.08585327 -0.0582559 0.11846572
-0.07306797 -0.109586485 -0.1260419 0.111534685 -0.14963312 -0.18521905 -0.06853266 0.017622786
-0.009755795 0.28985128 -0.33353767 0.002896815 -0.3097791 0.027066393 0.38058847 -0.024829129
0.054102086 -0.18818268 0.1828758 -0.16239776 -0.0189893 -0.033515137 0.26423025 -0.3367873
0.18434736 0.29219607 -0.3529384 0.0093168225 -0.036466736 -0.39473566 0.16818044 0.24230894
0.19769266 0.2663387 -0.12197193 -0.22518429 -0.1114508 -0.383635 -0.21455373 0.19535582
0.10197477 -0.3408443 -0.0023136302 -0.12273549 0.217987 -0.0669113 -0.15206282 -0.29639298
0.36933866 0.12021475 0.1887764 0.23629466 0.0067828353 0.035385117 0.44483617 -0.0066805216
-0.16745614 0.23475343 0.057131495 -0.069268845 0.11740545 -0.24370235 -0.266114 0.0667981
-0.14738883 -0.4221956 0.050192855 -0.19621249 -0.09173306 -0.060368273 0.009878025 -0.42079633
0.019159526 -0.22258964 0.037179004 0.1750124 -0.12257481 0.13118528 0.14306416 -0.055240415
0.037295256 -0.014935962 0.16021614 0.14137025 -0.2799199 -0.041412745 -0.079997286 -0.10395293
0.24649823 0.008273379 -0.31504893 0.047736283 0.04935992 -0.29312596 0.13260101 0.15439267
0.20157154 0.120622456 0.2522534 -0.21204065 0.21167433 0.11507514 -0.04611073 -0.20140791
0.1627419 0.04574386 0.15627858 0.08893876 -0.05870327 -0.2033241 0.082239494 0.103315316
-0.1297972 -0.18072723 0.11823553 0.06417907 -0.14928243 -0.0365303 -0.042676892 -0.0058151013
0.21656762 -0.12828021 -0.18851866 0.23202047 -0.11709103 0.015001171 0.03610644 0.059928644
-0.09910114 0.118940115 0.012207025 -0.32262012 0.09172374 -0.083821215 -0.18503787 0.2003175
00000000: 0b30 cd3d 0a97 0a3e 0b06 48bd 5ec2 80bd
00000010: e22c ba3e babb 173e 37a2 afbd 554b d03d
00000020: 38f8 063e a8c9 6a3e 65eb 83bc 1a51 563e
00000030: 8efd 04bd c78d b3bd ba7f ab3e d8df 2dbe
00000040: 88f7 33be f53c 513d 1835 cc3d 01f6 793e
00000050: 2626 213e dedc 1b3e 14a8 0bbe 94ad b2bd
00000060: 177d 9ebe 20e8 adbe edd0 633d 104e 1c3e
00000070: 82a7 96bd 2cb5 943d 6cc3 71be e693 bfbe
00000080: f5a5 adbe 466d 933d 167a 173b 2f87 733e
00000090: c169 a7bd c9bd 1a3e e503 033e bced 0abe
000000a0: a791 303e 91af 083e 1a6f 09be ba45 973d
000000b0: fd2a 11be 5e3a 863e d9bc 553e 1a24 4d3c
000000c0: 01e4 7e3e 3245 373c 7096 2c3e 8c4e 743d
000000d0: 8497 d13d 390d 47be cfbd ab3e c768 343e
000000e0: 4f05 683e 9472 013e 4b4a 093e 8876 d3bd
000000f0: 6d8e afbc ea98 07be dd45 13be dac0 073d
00000100: a5ff 7bbe 598a 4abe 9a32 933e 50cf 483e
00000110: 1e39 913c 3980 ce3d 63fd 6ebe 135e 28bd
00000120: 9d1b a9be 0de4 93be f97e 71be 6264 c03d
00000130: 651e 3c3e 39d7 273e 1dad da3d 2677 aebe
00000140: fea9 f53d 757e 3e3d 0ab8 18bc b53f 813e
00000150: 0f0f 29be f3b9 fcbc 4844 34be f236 3cbd
00000160: 1f1d 62be 82e3 11be 6b3c 813c 09ff 6a3e
00000170: 83e9 36be df08 e3bd bc57 74bd 8ae9 94bd
00000180: 7b99 57be 991c 0a3d e6aa afbd 996d 95bd
00000190: 0e61 e4bd 92b6 db3d 05e2 a0bd 11a2 f23d
000001a0: 800e 423e 9ac4 68bd 0258 f83c af70 d3bc
000001b0: 4334 003e 3634 2bbe 596e fabd f360 06be
000001c0: 58ab 27be 22d5 373e 20b1 213e 5694 063e
000001d0: 554d 7b3c d7d3 af3d bd9d 6ebd 289e f23d
000001e0: a9a4 95bd e16e e0bd 2111 01be 4c6c e43d
000001f0: 6d39 19be 10aa 3dbe da5a 8cbd a95d 903c
00000200: c5d6 1fbc 6367 943e 73c5 aabe 7ed8 3d3b
00000210: 5e9b 9ebe 57ba dd3c 7edc c23e 7566 cbbc
00000220: 269a 5d3d f6b2 40be cb43 3b3e 994b 26be
00000230: 738f 9bbc 2b47 09bd 3049 873e 636f acbe
00000240: 8ec5 3c3e b99a 953e 58b4 b4be 96a5 183c
00000250: 255e 15bd cb1a cabe 7e37 2c3e d61f 783e
00000260: f26f 4a3e 8c5d 883e 6bcc f9bd b696 66be
00000270: 5140 e4bd cf6b c4be f9b3 5bbe 5b0b 483e
00000280: 26d8 d03d 2583 aebe 46a0 17bb bf5c fbbd
00000290: fc37 5f3e cb08 89bd 5bb6 1bbe d2c0 97be
000002a0: f519 bd3e 2733 f63d 9a4e 413e 3af7 713e
000002b0: 8c42 de3b fcef 103d 91c1 e33e 47e8 dabb
000002c0: 9f79 2bbe 3463 703e b702 6a3d d3dc 8dbd
000002d0: 4572 f03d 1c8d 79be 1840 88be 71cd 883d
000002e0: 19ed 16be 062a d8be 0697 4d3d edeb 48be
000002f0: 8bde bbbd b944 77bd 71d7 213c 9e72 d7be
00000300: 70f4 9c3c 8aee 63be 0349 183d 7336 333e
00000310: 8108 fbbd 6f55 063e 697f 123e c643 62bd
00000320: e9c2 183d f7b5 74bc b30f 243e 5dc3 103e
00000330: a951 8fbe 69a0 29bd 9ed5 a3bd 46e5 d4bd
00000340: 086a 7c3e 118d 073c 184e a1be 1f87 433d
00000350: a12d 4a3d 9b14 96be 8fc8 073e 1d19 1e3e
00000360: c568 4e3e e808 f73d 5c27 813e 2f21 59be
00000370: 28c1 583e 84ac eb3d 9bde 3cbd e03d 4ebe
00000380: d0a5 263e ea5d 3b3d 7e07 203e 8625 b63d
00000390: d772 70bd 3134 50be 2e6d a83d fb96 d33d
000003a0: 8fe9 04be 8f10 39be 7825 f23d 5170 833d
000003b0: 7edd 18be cca0 15bd f7cd 2ebd 9b8c bebb
000003c0: e7c3 5d3e e35b 03be 090b 41be c696 6d3e
000003d0: 6ccd efbd 79c7 753c 59e4 133d bd77 753d
000003e0: 8af5 cabd e096 f33d f9ff 473c 772e a5be
000003f0: a8d9 bb3d 75aa abbd 917a 3dbe 0820 4d3e

bias f4 [20]
0.03821176 -0.14561787 0.26960704 -0.21755166 0.035315357 -0.19248275 0.15702505 -0.055825382
0.27699858 -0.060157694 0.07373462 -0.19687176 -0.116892986 -0.21917611 -0.030166171 0.12363116
-0.29069817 -0.13620289 0.15373124 -0.15155439
00000000: ef83 1c3d da1c 15be ef09 8a3e ddc5 5ebe
00000010: d6a6 103d 331a 45be 2dcb 203e 28a9 64bd
00000020: c2d2 8d3e ea67 76bd 2d02 973d c098 49be
00000030: 9765 efbd b46f 60be 0c1f f7bc 5532 fd3d
00000040: 64d6 94be c578 0bbe b96b 1d3e 1331 1bbe

weight f4 [2, 20]
-0.16376162 0.26613197 -0.24014375 0.17943536 0.056356464 -0.021682478 -0.1756 0.2457796
-0.27471116 0.1798184 -0.15360947 -0.00728555 0.066250905 0.029838584 0.3099492 -0.23572706
0.034747303 -0.016762776 -0.006027856 0.24211526 -0.10038935 0.11000613 -0.10952999 -0.09722057
0.102902554 0.17253734 -0.11552441 0.23760027 -0.3292143 -0.19999777 -0.26404613 -0.12663956
-0.20090666 0.12969764 0.07908098 -0.28455335 0.20114104 0.22903068 -0.024849894 0.17510772
00000000: 20b1 27be 7342 883e 3ee8 75be e7bd 373e
00000010: 09d6 663d 749f b1bc 7dd0 33be a6ad 7b3e
00000020: f1a6 8cbe 5122 383e cd4b 1dbe 9fbb eebb
00000030: 8eae 873d 0c70 f43c a9b1 9e3e 6f62 71be
00000040: 3053 0e3d 1752 89bc 5285 c5bb 10ed 773e
00000050: ee98 cdbd e54a e13d 4251 e0bd 941b c7bd
00000060: 93be d23d a1ad 303e 1098 ecbd 7c4d 733e
00000070: c78e a8be 37cc 4cbe 0e31 87be cdad 01be
00000080: 7aba 4dbe 75cf 043e 35f5 a13d fab0 91be
00000090: ebf7 4d3e 0587 6a3e 0192 cbbc 704f 333e

bias f4 [2]
-0.27635357 -0.17958568
00000000: 377e 8dbe 4fe5 37be
