docs/notebooks/paper_experiments/data/unsupervised/iter_0/model_autoencoder_0.pt (torch, 31557 bytes, 13 tensors)

mean f4 [2]
0	0xbf111529	-0.5667291
1	0x3fb78868	1.4338503

range f4 [2]
0	0x3dc82a93	0.097737454
1	0x3dcc13a7	0.09964686

weight f4 [20, 2]
0	0x3f1bec3b	0.60907334
1	0x3f2ade27	0.6674523
2	0xbdd1f8ac	-0.102525085
3	0x3f3aa3b7	0.7290606
4	0xbd950dd8	-0.07278031
5	0x3e687e96	0.22704539
6	0xbe780c8b	-0.24223535
7	0x3f04e8f6	0.5191797
8	0x3f379aa2	0.71720326
9	0xbed689b1	-0.41901925
10	0x3f21ffd8	0.6328101
11	0x3e2a96cd	0.16659088
12	0x3f1c6a9d	0.6110018
13	0x3e4638f6	0.19357666
14	0x3edb8d4b	0.42881235
15	0xbb318264	-0.0027085776
16	0x3f20a86b	0.62756985
17	0x3e48d0e3	0.19610934
18	0xbedd66c5	-0.4324247
19	0x3d91e639	0.071239896
20	0xbec63a45	-0.3871633
21	0xbe1f3e20	-0.15551043
22	0xbe6b2db3	-0.22966652
23	0x3f0972d6	0.5369085
24	0xbf2ecd4b	-0.68282
25	0xbee88b97	-0.45419
26	0xbea0b1b3	-0.31385574
27	0xbf0b9f6f	-0.5454015
28	0xbd579ddb	-0.052640777
29	0xbf52a1e0	-0.8227825
30	0x3f3e2265	0.7427123
31	0xbefb6764	-0.49102318
32	0x3f2107c0	0.6290245
33	0x3e584898	0.21121442
34	0xbe11f529	-0.14253677
35	0x3f0840b4	0.5322373
36	0x3e4470ad	0.19183607
37	0x3f294a27	0.6612877
38	0xbc86fa78	-0.016476855
39	0xbea637a3	-0.32464322

bias f4 [20]
0	0x3e83ac44	0.25717366
1	0xbe0fc915	-0.1404155
2	0x3ea938f3	0.3305126
3	0x3f04e668	0.5191407
4	0x3ecd9e4b	0.4015983
5	0xbeace660	-0.33769512
6	0x3edb1405	0.4278871
7	0x3e2727ed	0.16323824
8	0x3ed0c81f	0.4077768
9	0xbed6229a	-0.41823274
10	0xbf2a0c2c	-0.6642482
11	0xbec072b2	-0.37587506
12	0xbedcf642	-0.4315663
13	0x3f306262	0.6890012
14	0x3ea05fd8	0.31323123
15	0x3e60b9a5	0.21945818
16	0x3e868dad	0.26279965
17	0x3ce0dba4	0.027448483
18	0x3f19d975	0.6009744
19	0xbf04bdbe	-0.51852024

weight f4 [20, 20]
0	0xbda41a32	-0.08012809
1	0xbe83963a	-0.2570055
2	0x3d23a32a	0.039950527
3	0xbdfd32ee	-0.1236323
4	0x3c4f8fea	0.012668589
5	0xbe168cd6	-0.14702162
6	0x3dbbd8b6	0.09172194
7	0xbe6ca07e	-0.23108098
8	0xbe68d9f4	-0.22739393
9	0xbd28f930	-0.04125327
10	0x3e96114f	0.2931008
11	0xbcf67050	-0.030082852
12	0x3eac5869	0.33661202
13	0xbd8cae32	-0.068691626
14	0xbdd78a98	-0.105244815
15	0xbe66b2a9	-0.22529091
16	0xbe7bd666	-0.24593505
17	0xbc798f61	-0.015231938
18	0xbc8544ff	-0.016268251
19	0x3e870646	0.26371974
20	0xbd1ce23c	-0.03830169
21	0xbd865ee0	-0.06561065
22	0x3e1d2fd6	0.15350279
23	0xbd22d264	-0.039751425
24	0x3e3f3086	0.18670854
25	0x3cfea446	0.031084191
26	0x3e4ee05f	0.20202778
27	0xbdc94d1b	-0.0982916
28	0xbd1c99a8	-0.038232476
29	0x3adb75b7	0.0016743456
30	0xbcb0442e	-0.021516886
31	0x3d2365ce	0.03989201
32	0x3d12a053	0.03579743
33	0x3d43b08e	0.047775798
34	0xbe871001	-0.26379398
35	0xbd987bf1	-0.07445515
36	0x3e8feadb	0.28108868
37	0x3c015a6c	0.007895093
38	0xbb4aee0b	-0.0030964639
39	0xbe902ff2	-0.2816158
40	0xbd64805c	-0.055786476
41	0x3e0b7a34	0.13620836
42	0xbb7ef0bf	-0.003890082
43	0xbdeb4109	-0.11487014
44	0x3d57c199	0.052674863
45	0xbd9bd740	-0.07609415
46	0xbdf4f43f	-0.11960649
47	0xbd576b67	-0.05259266
48	0xbe003aa2	-0.12522367
49	0xbe552c7b	-0.20817749
50	0x3e1d7ae1	0.15378906
51	0x3e07311f	0.13202332
52	0xbcbca16e	-0.023026194
53	0xbe9b9b78	-0.3039205
54	0xbe769074	-0.24078542
55	0xbd132631	-0.035925094
56	0x3dda18c0	0.10649252
57	0xbdf2fa6e	-0.11864172
58	0xbcbde832	-0.023182008
59	0xbe4bb99a	-0.1989502
60	0xbdcdcb0f	-0.10048496
61	0xbe461216	-0.19342837
62	0xbbc0206b	-0.0058632395
63	0xbe378f63	-0.17925791
64	0xbe4eb90a	-0.20187774
65	0xbe711757	-0.2354406
66	0xbe36f40a	-0.17866531
67	0xbe90f4b1	-0.28311685
68	0x3daec452	0.08533539
69	0x3d58a3c8	0.05289057
70	0x3e92c721	0.28667548
71	0xbd198877	-0.03748366
72	0xbd70b618	-0.058767408
73	0x3e8c3a27	0.27388117
74	0x3d74b836	0.05974599
75	0xbe006ec4	-0.12542254
76	0xbe93bf43	-0.2885686
77	0xbeac2eeb	-0.33629546
78	0xbd2f5ddd	-0.042814124
79	0x3cbff638	0.023432836
80	0x3e26a5d8	0.16274202
81	0xbdd0dbdc	-0.10198185
82	0x3e66352a	0.22481218
83	0xbdcbbb41	-0.09947825
84	0x3ca06d65	0.019583413
85	0x3e010478	0.12599361
86	0x3e416f8a	0.18890205
87	0x3e81dfbd	0.2536601
88	0x3e8e0e7d	0.2774543
89	0xbe7bb8ac	-0.24582165
90	0xbc732a91	-0.014841692
91	0xbbfd0bfd	-0.0077223764
92	0xbde75dbc	-0.11297175
93	0xbe879dd4	-0.264876
94	0x3de0762d	0.1096004
95	0xbde5610e	-0.11200152
96	0x3e46d10c	0.19415683
97	0x3e206049	0.1566173
98	0x3e17de14	0.1483081
99	0xbe458d53	-0.19292192
100	0x3e8e53f8	0.27798438
101	0x3e042c81	0.12907602
102	0x3db0901e	0.08621238
103	0xbe08cf24	-0.13360268
104	0x3e1c3f92	0.15258625
105	0x3d3583cd	0.04431515
106	0xbcf3b9e2	-0.029751722
107	0x3e87522a	0.26429874
108	0x3dfb82eb	0.1228083
109	0xbe44be84	-0.19213301
110	0xbe3c7bad	-0.18406554
111	0x3d9d4fea	0.07681258
112	0x3d1b6d25	0.037945885
113	0xbe1c97a7	-0.15292226
114	0xbe611fb6	-0.21984753
115	0xbcc22252	-0.023698006
116	0xbdbf1d4f	-0.09331762
117	0x3e1fc713	0.15603285
118	0x3e7dd351	0.24787642
119	0xbe8f7ae9	-0.2802346
120	0xbd296fc9	-0.041366372
121	0x3c37258b	0.011178385
122	0x3b8b2886	0.004246774
123	0xbe084a4a	-0.13309589
124	0x3d826701	0.06367303
125	0x3c8e781a	0.017391253
126	0xbc12bb93	-0.008955854
127	0xbe0bf6d7	-0.1366838
128	0xbe1bc1ee	-0.15210697
129	0x3deb0809	0.11476142
130	0x3d598474	0.053104833
131	0xbe2fcad8	-0.17167222
132	0x3e87b2c7	0.26503584
133	0x3e9e2659	0.30888632
134	0x3dc2cddd	0.095119216
135	0xbdc49af0	-0.095998645
136	0xbdbae657	-0.09125965
137	0xbdf40d85	-0.11916641
138	0xbd2adf47	-0.04171684
139	0x3e144edf	0.14483212
140	0xbe0d6a58	-0.13810098
141	0xbbc4d9f9	-0.0060074297
142	0x3e65aed9	0.2242998
143	0x3e0d27a1	0.13784648
144	0x3ceb3493	0.028711593
145	0xbd8341e3	-0.06409051
146	0xbd99f624	-0.07517651
147	0xbe0f1833	-0.13974075
148	0xbc30c131	-0.010788248
149	0x3c93c06f	0.018036095
150	0x3da220a5	0.07916383
151	0x3e43d35d	0.19123597
152	0xbe940013	-0.28906307
153	0xbe6d9ea9	-0.23205055
154	0xbe06fe55	-0.13182957
155	0x3e7b8289	0.24561514
156	0x3dc3c151	0.095583566
157	0x3c7ba05c	0.015358057
158	0x3e22d911	0.15903117
159	0xbe16d964	-0.14731365
160	0xbe74fe1f	-0.23925065
161	0x3d7382aa	0.059450783
162	0xbda64938	-0.08119434
163	0xbd957b7c	-0.072989434
164	0xbe89eb3b	-0.2693728
165	0x3d4b91c0	0.049699545
166	0x3d9aacb1	0.075524695
167	0xbc8aa082	-0.01692224
168	0xbe8009fd	-0.2500762
169	0xbe06ef92	-0.13177326
170	0xbdbf3eec	-0.09338173
171	0x3d80bb78	0.06285757
172	0x3e688f6e	0.22710964
173	0x3e9aa48b	0.3020366
174	0x3e6d024a	0.23145404
175	0x3c9117dc	0.017711572
176	0xbdc842b9	-0.09778351
177	0xbe8d161b	-0.27555928
178	0xbe93d0f2	-0.2887035
179	0xbe0c461b	-0.13698618
180	0xb7f0fa58	-2.8726805e-05
181	0xbe58bd1b	-0.21165888
182	0xbdabc937	-0.08387988
183	0xbe3ab567	-0.18233262
184	0xbdc3b4ae	-0.09555946
185	0xbe82ae3c	-0.25523555
186	0xbe72668d	-0.23671933
187	0xbcaa3f8e	-0.020782258
188	0xbe213260	-0.15741873
189	0x3e66d117	0.22540699
190	0x3c8964a4	0.016771622
191	0xbe8860fa	-0.26636487
192	0x3da08f36	0.07839815
193	0x3bb19a18	0.0054199807
194	0x3d3b2f5c	0.045699462
195	0xbe858e74	-0.26085246
196	0x3d05929f	0.032610532
197	0xbe845fcf	-0.25854346
198	0x3c9c368c	0.019068979
199	0x3e38d111	0.18048503
200	0x3d88294f	0.06648504
201	0xbe8d390a	-0.2758258
202	0x3e06e962	0.13174966
203	0xbe20b3c6	-0.15693578
204	0x3d063f56	0.032775246
205	0x3de27261	0.11056972
206	0xbdfdf2e6	-0.12399845
207	0xbdc988d6	-0.098405525
208	0xbe13b867	-0.14425813
209	0xbdc7531c	-0.09732649
210	0x3e4bc3b8	0.1989888
211	0xbea73d49	-0.32663944
212	0x3e860287	0.26173803
213	0x3e9110f4	0.28333247
214	0x3ea82da2	0.32847315
215	0xbdbfc117	-0.09363001
216	0xbe8e56d1	-0.2780061
217	0xbd654322	-0.055972226
218	0x3cdebb4d	0.027188921
219	0xbe111596	-0.1416839
220	0xbe152f4d	-0.14568825
221	0xbe74be5f	-0.23900746
222	0xbd387f73	-0.04504342
223	0xbe1ed11e	-0.1550946
224	0xbe10d0ae	-0.14142105
225	0xbe2f66ad	-0.17129011
226	0xbe9d07a0	-0.3066988
227	0x3dae3ae2	0.08507325
228	0x3dbe5dea	0.092952564
229	0x3d596bae	0.053081207
230	0x3d8136b3	0.06309261
231	0xbe474147	-0.19458495
232	0xbda26896	-0.079301044
233	0xbdd15bdb	-0.10222598
234	0x3e4c55ca	0.19954601
235	0xbe27daaa	-0.16392007
236	0xbe756a1e	-0.23966262
237	0xbdfef19b	-0.12448426
238	0xbe309e88	-0.17247975
239	0x3b53a999	0.0032297133
240	0xbdb400c1	-0.08789206
241	0xbe1d3f04	-0.1535607
242	0xbde3483b	-0.11097761
243	0xbe230a83	-0.15921979
244	0xbe6e95d8	-0.23299348
245	0x3db0fe05	0.086422004
246	0xbe3c9004	-0.18414313
247	0xbd235829	-0.039878998
248	0xbe30a834	-0.17251664
249	0x3de18b62	0.11012913
250	0x3e9ab344	0.30214894
251	0xbb0763a7	-0.0020658763
252	0xbd8acd62	-0.06777455
253	0x3e536d97	0.20647274
254	0x3ea9a846	0.33136195
255	0x3c8d9a68	0.01728554

bias f4 [20]
0	0x3d1e2943	0.03861357
1	0x3d7dd22b	0.06196801
2	0xbcee5095	-0.029091159
3	0xbda47dca	-0.08031805
4	0x3e062752	0.13100937
5	0xbd83a26a	-0.064274624
6	0xbe0c474e	-0.13699076
7	0xbdcb3a05	-0.09923176
8	0x3e9819dc	0.2970723
9	0x3e69608b	0.22790734
10	0x3e84e32e	0.25954574
11	0x3e3a809c	0.18213123
12	0x3e6057d7	0.21908508
13	0x3d9a2c3a	0.07527967
14	0xbd21d1e7	-0.03950682
15	0x3dda790b	0.10667618
16	0xbd689049	-0.056778226
17	0xbd31d4ab	-0.043415707
18	0xbd3bcba4	-0.045848504
19	0x3db04d3b	0.086084805

weight f4 [1, 20]
0	0x3e535a10	0.20639825
1	0xbd9c4ba0	-0.07631612
2	0xbdfcc88a	-0.12342937
3	0x3e0328bf	0.12808512
4	0xbe56cf21	-0.20977451
5	0xbe6a2b9c	-0.22868198
6	0x3e5bcd3f	0.21465014
7	0xbd96f871	-0.07371605
8	0x3e9e99a0	0.30976582
9	0x3e97b319	0.29628828
10	0x3e2e94f6	0.17049012
11	0x3e2f3bf9	0.17112722
12	0x3e193a64	0.1496368
13	0x3dc76872	0.09736718
14	0x3da4437a	0.08020683
15	0xbda19cfa	-0.07891269
16	0x3e43005f	0.1904311
17	0x3e9f5dd8	0.31126285
18	0xbdbc07b1	-0.091811545
19	0xbe30534e	-0.17219278

weight f4 [20, 1]
0	0xbf138f97	-0.57640976
1	0x3e917069	0.28406075
2	0x3f3f8361	0.74809843
3	0x3f5e0b53	0.8673603
4	0x3ea2522d	0.3170332
5	0xbf507ec4	-0.8144343
6	0xbf1eee97	-0.6208281
7	0xbe67ac0c	-0.22624224
8	0xbddfbfc6	-0.1092525
9	0x3e508e5d	0.20366807
10	0xbf7cd3e8	-0.98760843
11	0x3ee48a5e	0.44636816
12	0xbf592404	-0.8482058
13	0xbf36cf56	-0.7141012
14	0xbf5a5ef2	-0.85301125
15	0x3f801c92	1.0008719
16	0xbf836ae5	-1.0266997
17	0x3f648cf9	0.8927761
18	0x3c362866	0.01111803
19	0xbe540ac8	-0.20707238

bias f4 [20]
0	0x3f1ac49e	0.60456264
1	0xbd32dc78	-0.043667287
2	0x3f26607d	0.6499098
3	0x3f4f0de7	0.8088059
4	0xbf771872	-0.96521676
5	0x3ec9f99b	0.39448246
6	0x3e4277e5	0.18991049
7	0x3e0866e7	0.13320504
8	0x3dff082b	0.1245273
9	0x3eac06a7	0.33598825
10	0xbede4c2e	-0.43417495
11	0xbd86bfdc	-0.06579563
12	0x3f729840	0.94763565
13	0x3f2990a7	0.66236347
14	0xbd924314	-0.071417004
15	0xbf53ed1e	-0.8278369
16	0x3d92962f	0.071575515
17	0xbf11baa6	-0.5692543
18	0x3f623aa7	0.88370746
19	0xbf2261da	-0.6343056

weight f4 [20, 20]
0	0xbddd72cb	-0.10812911
1	0x3dc60d94	0.096705586
2	0x3e20f287	0.15717517
3	0x3ea6ec55	0.32602182
4	0x3c83ded1	0.016097458
5	0x3cb3aca5	0.02193291
6	0x3d6f543d	0.058429945
7	0x3d870532	0.06592788
8	0xbe3a9dea	-0.18224302
9	0x3d1dfbb2	0.038570113
10	0x3b9f92be	0.004869788
11	0x3db0f854	0.08641115
12	0x3caa0278	0.02075313
13	0xbe15ad20	-0.14616823
14	0xbe86d8ac	-0.26337183
15	0x3e7a9ff9	0.24475087
16	0xbd968aba	-0.07350679
17	0x3e84d52b	0.25943884
18	0x3e8d1481	0.27554706
19	0x3da6edbc	0.08150813
20	0x3e895879	0.26825312
21	0xbd76df90	-0.0602718
22	0xbe643715	-0.22286637
23	0xbe414001	-0.18872072
24	0xbe0fb0a9	-0.14032234
25	0xbe13a425	-0.14418085
26	0xbd9710d2	-0.07376255
27	0xbe17be69	-0.1481873
28	0xbe18ad26	-0.14909801
29	0xbe297c33	-0.16551284
30	0xbe4813e6	-0.1953884
31	0xbe4b7613	-0.1986926
32	0x3e107c54	0.14109927
33	0x3e7c3d80	0.24632835
34	0xbd2f75e9	-0.042837057
35	0xbdf83e95	-0.121213116
36	0x3e108656	0.14113745
37	0xbe374043	-0.17895608
38	0xbe0102ed	-0.12598772
39	0x3e29f818	0.16598547
40	0xbe13c84f	-0.1443188
41	0xbd16afef	-0.036788877
42	0x3e09758a	0.13423744
43	0xbcc88731	-0.024478527
44	0x3d59f442	0.053211458
45	0xbd71b4b7	-0.059010234
46	0x3d940cc6	0.07228999
47	0x3d74be31	0.059751693
48	0x3dd4dff8	0.10394281
49	0x3d255e68	0.040373236
50	0x3e8ddde7	0.2770836
51	0xbe6f7925	-0.23386057
52	0x3d6f8d8f	0.05848461
53	0xbd61f852	-0.055168457
54	0xbdb7e75f	-0.089796774
55	0xbd279b96	-0.040919863
56	0xbde54b4d	-0.11196003
57	0x3df6250a	0.120187834
58	0x3c0bddef	0.0085368
59	0xbdaaf4f6	-0.08347504
60	0x3d42ed66	0.047589682
61	0xbdba316e	-0.09091459
62	0x3ccb9e16	0.024855655
63	0x3d87cc48	0.066307604
64	0xbe3eb0fc	-0.18622202
65	0xbe6bfc0d	-0.23045368
66	0xbe07380c	-0.13204974
67	0x3dbca40f	0.09210979
68	0x3e101398	0.14069974
69	0x3e6366e3	0.22207217
70	0xbe718e47	-0.23589431
71	0xbcc6f767	-0.024287893
72	0x3e0436f3	0.12911586
73	0x3b8f51f2	0.0043737823
74	0xbdbdff56	-0.09277217
75	0x3e13010b	0.14355867
76	0xbe8c877a	-0.2744711
77	0x3d433337	0.047656264
78	0x3e8380f0	0.2568431
79	0xbdf06ce8	-0.11739522
80	0x3d4e5b62	0.05038012
81	0xbe88527a	-0.26625425
82	0xbe603218	-0.21894109
83	0xbdcceb40	-0.10005808
84	0xbe33696b	-0.17520683
85	0x3d29c347	0.041445997
86	0x3e269bcd	0.16270371
87	0xbe221b7e	-0.158308
88	0x3e06c80e	0.13162252
89	0xbe7b9c1a	-0.24571267
90	0xbcfca0a8	-0.030838326
91	0x3b124703	0.0022320158
92	0x3e7543cc	0.23951644
93	0x3b38b699	0.0028185009
94	0xbc896bbe	-0.016775008
95	0xbe8eb3da	-0.2787159
96	0xbd2dcb2d	-0.04243009
97	0xbe8e505d	-0.27795687
98	0xbe035bf2	-0.12828043
99	0x3e1571ff	0.14594267
100	0xbe947acd	-0.2899994
101	0x3ea988af	0.33112094
102	0x3e770601	0.24123384
103	0xbdf3b14b	-0.1189905
104	0xbdefec23	-0.117149614
105	0xbcf82ae7	-0.030293895
106	0xbe20712c	-0.15668172
107	0xbdfa137d	-0.12210748
108	0xbe458662	-0.19289544
109	0x3e8439e1	0.25825408
110	0xbe5c51d9	-0.21515597
111	0x3ea51778	0.32244468
112	0xbd7534b8	-0.05986473
113	0xbd3235d5	-0.04350837
114	0x3d82ad4b	0.06380709
115	0x3dc13fe7	0.094360165
116	0xbe6fdc91	-0.23423983
117	0x3dd89728	0.10575706
118	0x3e6bb97b	0.23019974
119	0xbe6b4171	-0.22974183
120	0x3df0f226	0.11764936
121	0xbea16824	-0.31524765
122	0x3d3b8091	0.045776907
123	0x3c34eaf0	0.011042342
124	0xbc767ccb	-0.015044401
125	0x3e335dd9	0.17516269
126	0x3dab251e	0.08356689
127	0x3e453b34	0.19260865
128	0xbdd56ce1	-0.10421158
129	0xbdbdab65	-0.092612065
130	0x3e20bcaa	0.1569697
131	0x3dfd5b3c	0.12370917
132	0x3e38e4b6	0.18055996
133	0xbdbca36c	-0.09210858
134	0x3e845c68	0.2585175
135	0xbe0eb677	-0.13936792
136	0x3d16e0a0	0.036835313
137	0xbe997944	-0.2997533
138	0xbd943b43	-0.07237866
139	0x3e584b16	0.21122393
140	0x3dc7753f	0.0973916
141	0xbe5f0875	-0.2178057
142	0xbcdbe712	-0.026843581
143	0xbe2a25e0	-0.1661601
144	0x3e2a2c70	0.16618514
145	0xbdf3a14d	-0.11896
146	0x3bfa2401	0.0076336865
147	0xbe193094	-0.14959937
148	0xbc9937ae	-0.018703308
149	0x3b64c60f	0.0034908091
150	0x3e9a501e	0.3013925
151	0xbd57aaab	-0.052652996
152	0x3e920d31	0.2852569
153	0x3de660c8	0.11248928
154	0x3e58ba81	0.21164896
155	0x3dcb2be2	0.09920479
156	0x3e88a21c	0.2668618
157	0xbe5825f4	-0.21108228
158	0x3e444bd9	0.19169559
159	0x3e41d350	0.18928266
160	0xbe48931a	-0.19587365
161	0x3d2069be	0.039163344
162	0xbd651856	-0.05593141
163	0x3e40f435	0.18843158
164	0xbe3e2791	-0.18569781
165	0xbc44f4e5	-0.012021278
166	0xbd301a8e	-0.042994075
167	0xbe9d0197	-0.30665275
168	0xbd297e9c	-0.04138051
169	0x3da8c4ff	0.08240699
170	0xbbf8c226	-0.0075915037
171	0x3e8c9e68	0.27464604
172	0xbe9cbb33	-0.30611572
173	0x3dddec39	0.108360715
174	0x3d9f6f17	0.077848606
175	0x3e78856c	0.24269646
176	0xbe9ef42e	-0.3104567
177	0x3da5d80b	0.080978476
178	0xbbc07c06	-0.0058741597
179	0xbe0d3f47	-0.1379367
180	0x3e4214c1	0.1895323
181	0xbc183a99	-0.0092913145
182	0x3d994796	0.07484357
183	0xbe400216	-0.18750796
184	0x3d46dcae	0.0485503
185	0x3e1bb8a5	0.15207155
186	0xbde19666	-0.11015014
187	0xbe1c4010	-0.15258813
188	0xbd41999c	-0.047265634
189	0x3d47002c	0.04858415
190	0xbe02a520	-0.12758303
191	0xbe93de59	-0.28880575
192	0x3e40e8e8	0.18838847
193	0x3e3f3b3a	0.18674937
194	0x3e86e8a9	0.2634938
195	0xbe84ff4f	-0.25976035
196	0xbdb21c22	-0.08696772
197	0x3c9651de	0.018349584
198	0x3dbf04ed	0.093271114
199	0x3e7457db	0.23861639
200	0x3dcdc949	0.10048158
201	0xbc63bdaf	-0.013900205
202	0x3de39619	0.11112613
203	0xbe7c812a	-0.24658647
204	0xbe07c087	-0.13257037
205	0x3e6d359f	0.23164986
206	0xbd98a860	-0.0745399
207	0xbd6d525e	-0.05793988
208	0x3e6d2ab7	0.23160826
209	0xba357bf3	-0.0006923072
210	0x3e22e4c2	0.15907577
211	0xbe3d2530	-0.18471217
212	0x3d7eddeb	0.062223356
213	0x3e8bc4cc	0.27298582
214	0xbd52e97c	-0.0514922
215	0xbd9d694a	-0.07686098
216	0x3e3f0d29	0.18657364
217	0xbe755e15	-0.2396167
218	0x3e42cdec	0.19023865
219	0xbd5a3e76	-0.053282224
220	0xbd016351	-0.031588856
221	0xbdf4377f	-0.119246475
222	0xbe79c94e	-0.24393198
223	0xbea33c8b	-0.31882128
224	0x3e143d9f	0.14476632
225	0x3dd96e77	0.106167726
226	0xbe18351c	-0.1486401
227	0xbdf54dcd	-0.1197773
228	0x3e83038a	0.25588638
229	0xbc202d45	-0.009776418
230	0x3e29ee3f	0.1659479
231	0xbe50c7cf	-0.20388721
232	0xbd98c466	-0.07459335
233	0xbbb6f10a	-0.0055829333
234	0x3d06f7fc	0.03295134
235	0xbe476baf	-0.19474672
236	0x3db6d56d	0.089274265
237	0xbd019d01	-0.03164387
238	0xbde3d082	-0.11123754
239	0x3dfe41bc	0.124148816
240	0xbe2701b7	-0.16309248
241	0x3e3e52e7	0.18586312
242	0x3e4fc3bc	0.2028951
243	0xba96a168	-0.0011492195
244	0xbe646900	-0.2230568
245	0x3cc7d60f	0.024394063
246	0xbd3e8cc7	-0.046520974
247	0xbe4c35f0	-0.1994245
248	0x3e090eea	0.13384596
249	0xbc7a47a2	-0.015275868
250	0x3d4191ce	0.04725819
251	0x3e77d905	0.2420388
252	0xbe83f77e	-0.2577476
253	0x3d839160	0.064242125
254	0xbe9d04be	-0.3066768
255	0x3b062525	0.0020468917

bias f4 [20]
0	0xbc621da2	-0.01380101
1	0xbdf1a404	-0.117988616
2	0xbdbfa8af	-0.09358346
3	0xbe1fd902	-0.15610126
4	0xbd50e0ce	-0.05099564
5	0xbde72310	-0.112859845
6	0xbe5f235c	-0.21790832
7	0xbe57cb3e	-0.21073624
8	0x3e1fae26	0.15593776
9	0xbe7673ad	-0.24067564
10	0xbe049301	-0.12946703
11	0x3db09e8a	0.08623989
12	0x3e2f8e48	0.1714412
13	0x3dc59b5b	0.09648772
14	0xbe2dd74e	-0.16976663
15	0xbdc8e9ac	-0.098101944
16	0xbe0ec7e4	-0.1394344
17	0x3d9300b9	0.07177872
18	0xbd327ec7	-0.043577936
19	0xbe5c87a2	-0.21536115

weight f4 [2, 20]
0	0xbe0a2289	-0.13489737
1	0xbd9913fb	-0.07474514
2	0xbdfded83	-0.123988174
3	0xbdd99e39	-0.10625882
4	0x3e94e6ab	0.29082236
5	0xbd7b3750	-0.061332047
6	0x3d4e432a	0.05035702
7	0x3dfd9a5a	0.12382956
8	0xbe2ae045	-0.16687115
9	0x3e3c7b20	0.18406343
10	0x3e2db8f5	0.16965087
11	0x3e289f04	0.1646691
12	0xbe2f2854	-0.17105228
13	0x3e873bba	0.26412755
14	0x3d86b035	0.065765776
15	0xbe1a22d9	-0.15052356
16	0x3e72c367	0.23707353
17	0x3e8648e0	0.26227474
18	0x3ea1617e	0.31519693
19	0x3d9e00fb	0.07715031
20	0xbe2db85b	-0.16964857
21	0x3e5d3805	0.21603401
22	0x3df3ebae	0.11910187
23	0xbe84faae	-0.25972503
24	0x3d8f5ec0	0.07000494
25	0xbe89b010	-0.26892138
26	0x3e072ae8	0.13199961
27	0x3e34b283	0.17646222
28	0xbe299be1	-0.1656337
29	0x3da52679	0.08063979
30	0x3e4080c1	0.18799116
31	0x3d599e76	0.053129636
32	0xbe7da508	-0.24769986
33	0x3e84e4dc	0.25955856
34	0xbd97e859	-0.07417364
35	0xbe0093cc	-0.1255638
36	0x3da68bea	0.08132155
37	0x3d9143af	0.07092988
38	0xbde483ac	-0.11157927
39	0x3df3f4cd	0.119119264

bias f4 [2]
0	0xbe47c506	-0.19508752
1	0xbe23dfef	-0.16003393
