docs/notebooks/paper_experiments/data/unsupervised/iter_1/model_autoencoder_1.pt (torch, 32291 bytes, 13 tensors)

mean f4 [2]
0	0xbf44605c	-0.7670953
1	0x3f9acf29	1.209447

range f4 [2]
0	0x3e90c83b	0.28277764
1	0x3ea28c74	0.31747782

weight f4 [20, 2]
0	0x3ed0ca80	0.40779495
1	0x3eb994f9	0.3624647
2	0x3e8f177b	0.27947602
3	0x3df313c7	0.118690066
4	0x3e35f101	0.17767717
5	0x3df33c74	0.11876765
6	0xbcfc5e9f	-0.030806838
7	0x3f222f71	0.6335364
8	0x3f14b905	0.5809482
9	0x3bab95e6	0.005236375
10	0xbf10b6c9	-0.5652891
11	0xbe505347	-0.20344268
12	0x3e5dffc6	0.21679601
13	0x3e135ad7	0.14390121
14	0x3f1325ea	0.5747973
15	0x3dba400f	0.090942495
16	0xbed81396	-0.42202443
17	0x3e129606	0.14315042
18	0x3e97f448	0.2967856
19	0x3eb098e5	0.3449165
20	0x3e9c7f95	0.30566087
21	0x3dce762e	0.10081135
22	0x3f1a9c7c	0.60395026
23	0x3eccbe61	0.39988998
24	0xbd2b1b41	-0.04177404
25	0xbf5cdb3c	-0.86272025
26	0xbed6eaf6	-0.41976136
27	0xbe408910	-0.18802285
28	0x3f360056	0.7109426
29	0x3f257db5	0.6464494
30	0x3f1283ce	0.5723237
31	0x3f3b186f	0.7308416
32	0xbf45d01d	-0.7727068
33	0x3a224a67	0.00061908964
34	0xbf09e383	-0.5386278
35	0x3e513baf	0.20432924
36	0x3e118ed3	0.1421464
37	0x3e9e1347	0.30874082
38	0xbf0c2882	-0.5474931
39	0x3dbf6ae1	0.093465574

bias f4 [20]
0	0x3e8cc602	0.27494818
1	0x3e8c7c5e	0.27438635
2	0x3e3791c8	0.17926705
3	0xbed31940	-0.41230202
4	0xbe53e778	-0.20693767
5	0x3f36ffc9	0.7148405
6	0x3e718863	0.23587184
7	0x3ee6a9db	0.45051464
8	0x3f07980d	0.52966386
9	0xbf0a6f90	-0.5407648
10	0x3d0c1d8e	0.034207873
11	0xbe853dec	-0.26023805
12	0xbe6d5335	-0.23176272
13	0xbf023664	-0.50864244
14	0xbea0a88b	-0.31378588
15	0x3f0a7fb2	0.541011
16	0xbf0b11d6	-0.5432409
17	0x3f13549a	0.57550967
18	0x3eca96f0	0.3956828
19	0x3cab6888	0.020923868

weight f4 [20, 20]
0	0xb93282e3	-0.00017024162
1	0xbe7af238	-0.24506462
2	0x3dc2dd01	0.095148094
3	0xbe80a2c3	-0.25124177
4	0xbe5242b1	-0.20533253
5	0x3e5c1289	0.21491446
6	0xbe9adbbb	-0.30245766
7	0xbe53212c	-0.20618123
8	0x3e0c337d	0.13691516
9	0xbe5a8dde	-0.2134318
10	0x3cb67a68	0.022275165
11	0xbe6593f5	-0.22419722
12	0x3e3b1f6a	0.18273702
13	0x3ea7683b	0.3269671
14	0x3c7f6e0e	0.015590204
15	0xbe921559	-0.28531912
16	0x3d71fb3b	0.059077483
17	0xbe3a58fc	-0.18198007
18	0xbcc0af39	-0.023521053
19	0xbddb6dc9	-0.10714299
20	0xbda7f562	-0.082011
21	0xbe4b643f	-0.1986246
22	0xbd73ff08	-0.05956939
23	0xbe63fd61	-0.22264625
24	0xbe92a96e	-0.2864489
25	0x3cb08742	0.021548871
26	0xbe625398	-0.22102201
27	0xbe455c65	-0.19273527
28	0x3e66acb9	0.22526826
29	0x3d07eae2	0.033182986
30	0x3daa4d43	0.08315518
31	0xbe6ba6ca	-0.23012844
32	0x3eb57149	0.35437992
33	0x3e1183f2	0.1421049
34	0xbe8c4282	-0.2739449
35	0xbe93b255	-0.28846994
36	0x3eb1f761	0.34759048
37	0x3dadfe87	0.08495813
38	0xbe761101	-0.24029924
39	0x3ddec520	0.10877442
40	0x3e975c67	0.29562685
41	0xbcb5d5b8	-0.022196636
42	0x3de5d7af	0.11222779
43	0xbdf07bfa	-0.11742397
44	0xbdc8eb31	-0.09810484
45	0xbd969cbf	-0.07354116
46	0x3e6ad3e0	0.22932386
47	0x3e4c55c5	0.19954593
48	0xbd3b1a44	-0.045679346
49	0x3deb19da	0.1147954
50	0x3e88f1f1	0.26747087
51	0x3e72887d	0.23684879
52	0xbe855886	-0.260441
53	0xbb82574c	-0.0039776918
54	0x3e706936	0.23477635
55	0xbb7569b0	-0.0037447028
56	0x3cb2dec3	0.021834737
57	0xbdd4a270	-0.10382545
58	0xbdabecb6	-0.083947584
59	0xbe44a7eb	-0.1920468
60	0xbea3d820	-0.32000828
61	0x3dbbd892	0.09172167
62	0x3d34f155	0.044175465
63	0xbe1ee5ce	-0.15517351
64	0xbda54dbc	-0.08071467
65	0x3d163097	0.036667433
66	0xbcf9eadb	-0.030507496
67	0xbe9a2060	-0.30102825
68	0xbdd3d777	-0.10343831
69	0xbbb788de	-0.0056010326
70	0xbdf309d6	-0.118671104
71	0x3d2ca764	0.042151824
72	0xb99b5b44	-0.00029631902
73	0x3d48f461	0.049061183
74	0x3dce3e64	0.10070494
75	0xbd038db7	-0.03211757
76	0x3e9feeac	0.3123678
77	0x3e52b6b8	0.20577514
78	0xbe47fcdc	-0.19530052
79	0x3e26b599	0.16280212
80	0x3e58c2f5	0.2116812
81	0xbde54b14	-0.11195961
82	0x3db356d2	0.08756794
83	0x3bb3a7fe	0.0054826727
84	0xbdb23a2a	-0.087025
85	0xbe767244	-0.24067026
86	0x3e383b9d	0.1799149
87	0x3ddb7f5d	0.10717652
88	0x3e1d9085	0.15387161
89	0x3e71da1a	0.23618355
90	0x3dd9c2f4	0.106328875
91	0x3e86074b	0.2617744
92	0x3d86d782	0.065840736
93	0xbe37cbd9	-0.17948855
94	0xbc8064e2	-0.015673105
95	0xbdb0b9a9	-0.08629162
96	0xbe0b8c7c	-0.1362781
97	0xbe0e9330	-0.13923335
98	0xbdeaca19	-0.11464328
99	0x3e1d5c2a	0.15367189
100	0x3e2d50e3	0.16925387
101	0xbd97f8a1	-0.07420469
102	0x3e5a35ed	0.21309634
103	0x3e7212df	0.23640011
104	0xbba145ee	-0.0049216663
105	0xbe8bfa93	-0.2733961
106	0xbc8d439a	-0.017244149
107	0x3e016b67	0.12638627
108	0xbcfe77e0	-0.03106302
109	0x3e7075d1	0.23482443
110	0xbb4bbbc6	-0.0031087263
111	0x3e4f5aeb	0.20249526
112	0xbe8911c7	-0.26771376
113	0xbe89ebc6	-0.26937693
114	0xbe034988	-0.12821019
115	0x3e7b83ae	0.2456195
116	0xbd6da713	-0.058020663
117	0x3da53de0	0.08068442
118	0x3db46c96	0.088097736
119	0x3cc1a3d4	0.02363769
120	0xbe200cfa	-0.1562995
121	0xbe97c675	-0.29643598
122	0xbe803a53	-0.25044498
123	0x3bf4cfa9	0.007471044
124	0xbcd2120c	-0.025643371
125	0xbd76f4bc	-0.06029199
126	0x3dbf05d7	0.09327286
127	0x3d8b1124	0.06790379
128	0x3dc5841d	0.09644339
129	0xbe6c9a81	-0.23105814
130	0xbe87b5f7	-0.26506016
131	0x3bd9e756	0.006649892
132	0xbd0837ac	-0.033256218
133	0x3d816774	0.0631856
134	0xbe955fad	-0.29174557
135	0x3d1cf035	0.038315017
136	0xbdae03d7	-0.08496826
137	0x3e8d887f	0.276432
138	0xbe35cee2	-0.17754701
139	0x3e60b7c2	0.21945098
140	0xbd949088	-0.0725413
141	0x3e394c97	0.18095623
142	0xbd0f0380	-0.034915447
143	0x3e54f17b	0.20795242
144	0x3dab5036	0.083649084
145	0xbe8d340b	-0.27578768
146	0x3e865677	0.26237842
147	0x3e7539b2	0.2394779
148	0x3e0732d5	0.13202985
149	0xbc5e5269	-0.013569453
150	0xbe0a3e1d	-0.13500257
151	0x3e2aeb72	0.16691378
152	0x3ca3f6f5	0.02001522
153	0xbdf6bb52	-0.12047447
154	0x3e37f707	0.17965327
155	0x3e145057	0.14483772
156	0xbe902ae7	-0.28157732
157	0xba821332	-0.0009923934
158	0x3e8e4606	0.277878
159	0xbc8073f1	-0.015680285
160	0x3e88e690	0.26738405
161	0x3de016a2	0.10941817
162	0xbdbeeaca	-0.09322126
163	0x3e969777	0.29412434
164	0x3d189682	0.03725291
165	0x3d75f42c	0.060047314
166	0x3d94a305	0.07257656
167	0x3dea6253	0.11444535
168	0xbdf419d2	-0.11918987
169	0x3e3ce196	0.18445429
170	0xbd665bd7	-0.05623993
171	0x3dffd9b4	0.124926955
172	0x3cb6a894	0.022297181
173	0xbe0caf27	-0.1373869
174	0xbd3d7ca7	-0.046261456
175	0x3d568463	0.052372348
176	0xbdf63b66	-0.12023048
177	0x3e16e886	0.14737138
178	0xbd38307b	-0.04496811
179	0xbe2785b7	-0.16359602
180	0xbe9639c8	-0.2934096
181	0xbe522506	-0.20521936
182	0xbdefc6ca	-0.11707838
183	0xbe98d9cf	-0.29853675
184	0xbce8d610	-0.028422385
185	0x3cc57735	0.024104694
186	0xbe5cd504	-0.21565634
187	0xbe668aaa	-0.22513834
188	0xbccd73ca	-0.025079627
189	0x3d8ab99c	0.067736834
190	0xbea5982d	-0.32342663
191	0xbe4b05ec	-0.19826478
192	0x3eccf9fd	0.40034476
193	0x3e3edc5b	0.18638746
194	0xbe62eae7	-0.2215992
195	0xbe84ba5e	-0.25923437
196	0x3e84f862	0.2597075
197	0x3e977a97	0.29585716
198	0x3d5f5864	0.054527655
199	0xbdcca481	-0.09992314
200	0x3df25317	0.118322544
201	0xbd0d5bf3	-0.034511518
202	0x3e6016c1	0.2188368
203	0x3dc719ec	0.09721741
204	0x3e0de296	0.13855967
205	0xbe40fe01	-0.18846895
206	0xbdb85d3c	-0.09002158
207	0x3de97ba1	0.114005335
208	0x3d066825	0.032814164
209	0x3d1c5976	0.038171254
210	0x3d6e815a	0.058228828
211	0x3e730770	0.23733306
212	0xbb484580	-0.0030559003
213	0xbb224287	-0.0024758892
214	0xbcf1e05b	-0.029525926
215	0x3e8e6797	0.27813408
216	0xbd2b6c1c	-0.041851148
217	0xbe191494	-0.14949256
218	0x3e61920e	0.22028372
219	0x3db70120	0.089357615
220	0xbe2c6eee	-0.16839191
221	0xbe79c155	-0.24390157
222	0xbe5d99d8	-0.21640718
223	0xbe2053e8	-0.15657008
224	0xbe272a2d	-0.16324683
225	0x3ceb76f1	0.02874324
226	0xbca7ba8c	-0.020474695
227	0xbd14c0e6	-0.036316775
228	0xbe18c29c	-0.14917988
229	0xbdfbb4ac	-0.1229032
230	0xbe183a25	-0.1486593
231	0xbcc75b8a	-0.024335641
232	0x3ea7d81b	0.32782063
233	0x3eb24ec4	0.34825718
234	0xbe8519e7	-0.25996324
235	0xbe75d3c2	-0.2400656
236	0x3e47849b	0.19484179
237	0x3e522b2b	0.2052428
238	0xbd7aeaea	-0.061259188
239	0x3e75a576	0.239889
240	0xbea39e89	-0.3195689
241	0xbe99a923	-0.30011854
242	0x3cb9737c	0.022638075
243	0xbc66a59d	-0.014077571
244	0xbd921b39	-0.071340986
245	0x3eb061a9	0.3444951
246	0xbe91fc74	-0.2851292
247	0xbdf6d36f	-0.120520465
248	0xbd40e8ef	-0.047097143
249	0xbd74bed1	-0.05975229
250	0xbd807f43	-0.06274273
251	0x3daf03b0	0.08545625
252	0x3eccda35	0.4001023
253	0x3eabe3fb	0.33572373
254	0xbcd0fa69	-0.02551003
255	0xbe2f41fa	-0.17115012

bias f4 [20]
0	0xbdab968b	-0.08378323
1	0x3e00ea09	0.12589277
2	0x3e2d72fb	0.16938393
3	0xbe0229a5	-0.12711199
4	0x3d7099fd	0.058740605
5	0x3e429e32	0.19005659
6	0xbdd18919	-0.102312274
7	0x3b3ee974	0.0029130848
8	0xbdfd872b	-0.12379297
9	0x3e448998	0.19193113
10	0xbc3a5c42	-0.011374535
11	0x3e01e77e	0.12685964
12	0x3e11943a	0.142167
13	0xbe5f1575	-0.21785529
14	0xbc81d9b7	-0.015850885
15	0xbd8c4d6d	-0.06850705
16	0x3e8f18fa	0.27948743
17	0xbe104744	-0.14089686
18	0xbb9918a8	-0.0046721287
19	0x3e224e2e	0.15850136

weight f4 [1, 20]
0	0x3df35aa4	0.11882523
1	0x3e2bff40	0.16796589
2	0xbe858444	-0.26077473
3	0x3e520e99	0.20513381
4	0xbe1cbf7b	-0.15307419
5	0xbe03a9c0	-0.12857723
6	0x3de86ef0	0.11349285
7	0xbe8bc9f3	-0.27302513
8	0xbdd8c40c	-0.10584268
9	0x3e92b402	0.2865296
10	0xbe4902b3	-0.19629936
11	0x3e72277b	0.23647873
12	0x3e8d5fbd	0.27612105
13	0x3bdb822a	0.0066988664
14	0xbd764425	-0.06012358
15	0xbe98045b	-0.29690823
16	0xbe993543	-0.29923448
17	0xbe64e9c9	-0.22354807
18	0x3e35f663	0.1776977
19	0xbde960f3	-0.11395445

weight f4 [20, 1]
0	0x3f30419c	0.6885011
1	0xbde62726	-0.11237936
2	0x3e937ec2	0.28807646
3	0xbd3dfdf9	-0.046384785
4	0xbf0edb51	-0.558034
5	0xbf5894a2	-0.84601796
6	0x3f87ce94	1.0609918
7	0xbf22c02f	-0.635745
8	0xbe5df323	-0.2167478
9	0xbf060f87	-0.5236744
10	0xbb91421d	-0.00443293
11	0x3e534689	0.20632376
12	0xbdc11686	-0.09428124
13	0xbf0a93b5	-0.54131633
14	0x3e908f75	0.2823445
15	0xbf4c2900	-0.7975006
16	0x3f08c517	0.53425735
17	0x3f14f552	0.5818683
18	0x3f37d4dd	0.7180918
19	0x3e8c4d0c	0.27402532

bias f4 [20]
0	0x3e77fb9f	0.2421708
1	0x3f05d9ad	0.5228527
2	0x3edc6651	0.4304681
3	0xbec2f769	-0.38079384
4	0xbe82e1f0	-0.25563002
5	0x3e553371	0.20820405
6	0x3f0ad7aa	0.5423533
7	0xbf266c93	-0.6500942
8	0x3f016bb8	0.5055499
9	0xbf1cba65	-0.61221915
10	0xbf47653b	-0.7788884
11	0x3e90751a	0.2821434
12	0xbf428def	-0.75997823
13	0xbd82391d	-0.0635855
14	0x3df41890	0.119187474
15	0x3f03afa1	0.51439863
16	0x3eb0fc10	0.34567308
17	0x3ef5981f	0.47967622
18	0xbf031940	-0.51210403
19	0x3f03fe0a	0.5155951

weight f4 [20, 20]
0	0xbe86e7d4	-0.26348746
1	0x3e479a21	0.1949239
2	0x3daa8539	0.083261915
3	0xbe1d6f8a	-0.1537458
4	0x3e5d7895	0.2162803
5	0x3de30399	0.110846706
6	0xbe4588c6	-0.19290456
7	0xbde9ab2e	-0.11409603
8	0x3e5847c3	0.21121125
9	0x3e3fe7e4	0.18740803
10	0xbdedd170	-0.11612213
11	0x3cddae4c	0.02706065
12	0xbce4ddde	-0.027937826
13	0xbde0790e	-0.10960589
14	0x3d827da8	0.06371623
15	0xbda4befb	-0.08044239
16	0xbe3f1897	-0.18661724
17	0xbe7c837d	-0.24659534
18	0xbe82cd52	-0.25547272
19	0xbe851888	-0.25995278
20	0xbe60f00e	-0.21966574
21	0x3e04dc13	0.12974577
22	0xbe77d5b4	-0.24202615
23	0xbd8c25af	-0.06843125
24	0x3e15597a	0.14584914
25	0x3e71c3c5	0.23609836
26	0xbe03e998	-0.12882078
27	0x3db1617d	0.086611725
28	0xbdf7f33b	-0.121069394
29	0x3e1c75dd	0.15279336
30	0x3d9555e7	0.07291775
31	0x3d6d8ae8	0.0579938
32	0x3c89c88a	0.016819257
33	0xbda4ee14	-0.08053222
34	0xbdab365b	-0.08359977
35	0xbe03deaa	-0.12877908
36	0xbdea607d	-0.11444185
37	0xbe599ef9	-0.2125205
38	0x3e00eaa4	0.12589508
39	0xbc2aaf5e	-0.010417787
40	0x3e239455	0.15974553
41	0xbd876716	-0.06611459
42	0xbdc62206	-0.09674458
43	0xbd1eb627	-0.038747933
44	0xbe3d4fc5	-0.18487461
45	0x3d3b7e01	0.045774464
46	0x3d8d32da	0.06894465
47	0x3dbce839	0.092239805
48	0xbe200cf1	-0.15629937
49	0xbe435406	-0.19075021
50	0x3c1964e1	0.00936243
51	0xbcba61c6	-0.0227517
52	0xbe543cc7	-0.2072631
53	0xbdbc7b8b	-0.092032515
54	0x3e947230	0.28993368
55	0x3d259917	0.0404292
56	0x3ead9e39	0.33909777
57	0x3e1b1786	0.15145692
58	0x3d1be5a9	0.038060818
59	0xbe047467	-0.12935029
60	0xbe92d3a7	-0.28677103
61	0xbcf953bc	-0.030435435
62	0xbe26a90f	-0.16275428
63	0xbe64089b	-0.22268908
64	0x3e75602f	0.23962472
65	0x3e5eb704	0.21749502
66	0xbdb62d05	-0.088953055
67	0xbd0a08ff	-0.033699986
68	0x3dac0a1b	0.08400365
69	0xbe0f070e	-0.13967535
70	0x3b095f08	0.0020961184
71	0xbcb31c9b	-0.021864226
72	0xbe03dc29	-0.12876953
73	0x3e62fda9	0.22167076
74	0x3daa1959	0.08305616
75	0x3e82a704	0.25518048
76	0xbe9c1bd5	-0.30489984
77	0x3dcdbf92	0.10046305
78	0x3df05a40	0.11735964
79	0x3da55e91	0.08074678
80	0x3d960477	0.0732507
81	0x3e63abf3	0.22233562
82	0xbc8650bf	-0.016395925
83	0x3e6519d4	0.22373134
84	0xbe0c5343	-0.13703637
85	0x3e399551	0.18123366
86	0x3d3a2332	0.04544372
87	0x3e5f9a15	0.21836121
88	0x3d7b5ed4	0.061369732
89	0xbc7d9fbf	-0.015479981
90	0xbe3dab1c	-0.18522304
91	0x3dbef5d0	0.09324229
92	0xbdf786dc	-0.12086269
93	0x3e097a05	0.13425453
94	0xbd049410	-0.032367766
95	0x3db0729a	0.086156085
96	0xbe1c5a52	-0.1526883
97	0xbd4fd693	-0.050741743
98	0xbdf00a76	-0.11720745
99	0x3c89c2ec	0.016816579
100	0xbe0ad539	-0.135579
101	0xbb820bed	-0.003968707
102	0x3e06699c	0.13126224
103	0xbe38fe01	-0.18065645
104	0x3dbd4063	0.092407964
105	0x3e57109f	0.21002434
106	0xbe596766	-0.2123085
107	0x3e36a92e	0.17837974
108	0xbe0f3b2a	-0.13987413
109	0xbdb3468a	-0.08753689
110	0x3e429a83	0.19004254
111	0x3d86da58	0.065846145
112	0x3d90f387	0.07077699
113	0xbdea1e5a	-0.1143157
114	0xbe0fc8b8	-0.14041412
115	0x3e858d1e	0.26084226
116	0xbe976529	-0.29569367
117	0x3b0e80c4	0.002174423
118	0xbdb0b87e	-0.08628939
119	0xbe68f671	-0.2275026
120	0x3ea6cd09	0.32578304
121	0xbe2154f7	-0.15755068
122	0x3d96fdd6	0.07372634
123	0xbd9b966c	-0.0759705
124	0xbcb96a2d	-0.022633636
125	0xbdb37089	-0.08761699
126	0xbd9c5036	-0.076324865
127	0xbc2e0528	-0.0106213465
128	0x3e05d814	0.13070709
129	0xbd0a973e	-0.033835642
130	0xbe82bb0d	-0.25533333
131	0x3e49364d	0.1964962
132	0xbb1ae774	-0.0023636492
133	0xbe2f8a22	-0.17142537
134	0x3c8fb325	0.017541477
135	0x3de3266f	0.11091315
136	0x3e3bf96e	0.18356869
137	0x3d8f6e69	0.07003481
138	0xbd140cc1	-0.036144976
139	0x3e5b52b0	0.21418262
140	0x3d82420a	0.06360252
141	0xbdaa5ebe	-0.08318852
142	0xbe255267	-0.16144715
143	0xbbd5e07f	-0.006527006
144	0xbe21c2cd	-0.15796967
145	0xbe551bf7	-0.20811449
146	0xbe26c5a6	-0.16286334
147	0xbe089536	-0.1333817
148	0x3e5e5930	0.2171371
149	0xbe3b1437	-0.1826943
150	0x3da07ace	0.07835923
151	0xbe3d708e	-0.18499967
152	0x3d51471c	0.051093206
153	0xbe307d33	-0.1723526
154	0xbdb8ec5b	-0.09029456
155	0xbdb94ecd	-0.09048233
156	0xbe30035b	-0.1718878
157	0x3e334f0c	0.17510623
158	0xbd79855f	-0.06091821
159	0x3e1df663	0.1542602
160	0x3ea43633	0.320726
161	0x3df16e19	0.117885776
162	0x3e2d85a2	0.16945508
163	0x3d5a72bd	0.05333208
164	0x3d89f94c	0.06737003
165	0xbe6c7965	-0.23093183
166	0x3dbc7105	0.09201244
167	0xbe003724	-0.12521034
168	0xbdd0f6c4	-0.10203317
169	0xbd4f699a	-0.05063782
170	0x3e3d88db	0.18509237
171	0x3ca11c29	0.019666748
172	0xbe5793f1	-0.21052529
173	0xbd280643	-0.041021597
174	0xbd2c6f85	-0.04209854
175	0xbe95e361	-0.2927504
176	0xbd98b4da	-0.0745637
177	0xbd811727	-0.06303244
178	0x3e29013e	0.1650438
179	0xbe127cc5	-0.14305408
180	0xbe2202b0	-0.15821338
181	0x3e61e134	0.22058564
182	0x3e6bf249	0.23041643
183	0xbda189f2	-0.07887639
184	0xbd1c57ee	-0.038169794
185	0xbe00a885	-0.12564285
186	0xbe52a830	-0.20571971
187	0x3df1450a	0.11780746
188	0x3e2068b3	0.1566494
189	0x3e0c01a7	0.13672505
190	0xbdb7d8bf	-0.08976888
191	0xbe2455c2	-0.16048339
192	0x3e1a3b20	0.15061617
193	0x3e05cd5e	0.13066623
194	0xbe59ff9b	-0.21288912
195	0xbd865c55	-0.0656058
196	0xbe36838c	-0.17823619
197	0x3e4eb678	0.20186794
198	0x3db41d30	0.087946296
199	0xbde24930	-0.11049116
200	0xbe911135	-0.2833344
201	0x3de5e930	0.112261176
202	0x3cdbfac9	0.026852982
203	0x3dc62886	0.09675698
204	0xbe06fab4	-0.13181573
205	0x3e832de3	0.25620946
206	0xbcdfccbd	-0.027319307
207	0x3e845059	0.2584255
208	0xbc606f0e	-0.0136983525
209	0x3e81c28c	0.2534374
210	0x3d7b3f52	0.061339684
211	0xbe79b088	-0.24383748
212	0x3d73c44b	0.05951337
213	0x3cff0f9f	0.031135378
214	0xbe3480ed	-0.17627306
215	0x3d3c502d	0.0459749
216	0xbdb3dcac	-0.08782324
217	0xbd0dac48	-0.03458813
218	0xbe5906df	-0.21194027
219	0x3e0e1a35	0.13877185
220	0x3db94591	0.09046472
221	0x3e196b36	0.14982304
222	0x3e24401f	0.16040085
223	0xbe0229e7	-0.12711297
224	0xbe81dea3	-0.2536517
225	0xbe81919b	-0.253064
226	0x3da6025d	0.081059195
227	0xbdcd0f3b	-0.100126706
228	0xbdd68350	-0.104742646
229	0x3dc19b20	0.09453416
230	0x3ce8c4d7	0.028414173
231	0x3e9dc722	0.3081599
232	0x3d5c54ea	0.053791918
233	0xbcebde1a	-0.02879243
234	0x3e4f6eb9	0.20257081
235	0x3dba110a	0.09085281
236	0x3da792d1	0.081823
237	0x3ea2cd5d	0.31797305
238	0x3e9173ff	0.2840881
239	0x3e5f34d7	0.217975
240	0xbd7f3cfc	-0.06231402
241	0xbd3c239c	-0.045932397
242	0xbd202d27	-0.03910556
243	0xbe63630f	-0.22205757
244	0x3d4df540	0.050282717
245	0xbdcdd8d6	-0.10051124
246	0xbd34fedf	-0.044188377
247	0x3e1f90ca	0.15582576
248	0x3e59ff9d	0.21288915
249	0x3d225dc6	0.03964021
250	0x3c4a281a	0.0123386625
251	0xbe2bad9e	-0.16765448
252	0x3dd56a9b	0.10420724
253	0x3e0ab83f	0.13546847
254	0xbd576f8b	-0.05259661
255	0x3d5533dc	0.05205141

bias f4 [20]
0	0x3dab9efe	0.08379935
1	0xbe3873f2	-0.1801298
2	0xbd8f6dba	-0.070033506
3	0x3cdd1f8f	0.026992587
4	0xbda30ee9	-0.07961828
5	0x3cea466e	0.028598037
6	0xbdfe667e	-0.124218926
7	0x3e74d085	0.23907669
8	0x3e0a248c	0.13490504
9	0x3e1971f7	0.1498488
10	0xbe31f043	-0.17376809
11	0x3e8ecb14	0.2788931
12	0xbd042a18	-0.032266706
13	0xbda8dc31	-0.08245123
14	0xbdf73883	-0.12071326
15	0xbc2232fe	-0.009899853
16	0xbd5f9d66	-0.054593466
17	0x3d83419f	0.064090006
18	0xbdaf2119	-0.08551235
19	0xbe047e48	-0.12938797

weight f4 [2, 20]
0	0x3e86e2e7	0.26344988
1	0x3e851943	0.25995836
2	0xbe67c79a	-0.22634736
3	0x3e8ffaaf	0.28120944
4	0x3dabbe55	0.08385912
5	0x3ea425d3	0.32060108
6	0xbe065b38	-0.13120735
7	0xbdeb7bd2	-0.11498226
8	0x3c4ca7fd	0.012491223
9	0xbdd205a9	-0.10254986
10	0x3ddbedc5	0.1073871
11	0xbe52126a	-0.20514837
12	0xbd6fbf12	-0.05853183
13	0x3e1546da	0.14577809
14	0x3e37a6c7	0.17934714
15	0xbe65827b	-0.22413056
16	0xbe3f34bd	-0.18672462
17	0x3d99ed8e	0.07516013
18	0xbe8f7a60	-0.28023052
19	0x3da22cb5	0.079186834
20	0x3e8b2a01	0.27180484
21	0x3e6317a2	0.22176984
22	0xba5ccb85	-0.0008422661
23	0x3dc83b60	0.0977695
24	0x3e12d56f	0.14339231
25	0x3e78302b	0.24237125
26	0xbd77e1ad	-0.060517956
27	0x3dc1bebe	0.09460209
28	0xbe3885d5	-0.18019803
29	0x3e7a4a29	0.24442352
30	0x3e78d08a	0.24298301
31	0xbe488f4c	-0.19585913
32	0x3e6ede8f	0.23327087
33	0x3e95a92f	0.2923064
34	0x3cbb062c	0.022830091
35	0xbe6e133d	-0.23249526
36	0xbea725c5	-0.32646003
37	0x3d81b6ca	0.06333692
38	0xbd4f4522	-0.05060304
39	0x3e7fc7ef	0.24978612

bias f4 [2]
0	0x3dda0a4b	0.106464945
1	0x3dd96530	0.10615003
